REEM/model/best-model/Tampa/model_pop_best.pth (torch, 18836 bytes, 7 tensors)

fc1.weight f4 [100, 5]
000000 77 00 1c bd e9 b4 43 3e 96 ab 91 3e 87 2e 16 3c
       -0.03808638 0.1911198 0.28451222 0.009166366
000010 af ec 33 3d 26 34 b9 3e db 92 cc bd f5 1b f2 bd
       0.04392689 0.361726 -0.09988948 -0.11821739
000020 84 57 90 be df c8 ca bd 01 f0 74 3e a3 5f a6 be
       -0.2819177 -0.09901594 0.23919679 -0.3249484
000030 eb 4b a1 3d 27 04 95 3e a6 ee db bd 2c 58 25 a8
       0.07875808 0.2910473 -0.10738878 -9.178459e-15
000040 d6 c7 35 28 86 fa 85 33 76 07 08 2a 88 de ec b1
       1.0090851e-14 6.238865e-08 1.2081815e-13 -6.893803e-09
000050 cd 16 93 3e 42 98 50 bc ab 42 93 be ed 3e 6a be
       0.28728333 -0.012731614 -0.287618 -0.22875567
000060 a7 91 e9 3e 9a 9f 29 3e cf ce 36 3e 96 5c 89 be
       0.45618936 0.1656479 0.17852329 -0.2682845
000070 c9 6f 88 bd 09 cc 35 3e 09 56 0f a1 a5 a1 3a a3
       -0.06661946 0.17753614 -4.856415e-19 -1.011731e-17
000080 26 4d 57 a2 d0 f7 0b 25 b2 cb eb a9 90 1e 79 3d
       -2.9178775e-18 1.214029e-16 -1.0471432e-13 0.060820162
000090 fa d0 b7 be ba fe ad bd 83 c0 a4 be 4a 27 63 3e
       -0.35901624 -0.08495851 -0.32178125 0.22182956
0000a0 e9 2f 04 3e 70 7b ef 3e 71 ff ae be d8 48 18 3e
       0.12908901 0.46773863 -0.3417926 0.14871538
0000b0 8f 11 43 be e5 59 48 b4 a1 ff 06 b3 51 fc a3 b1
       -0.19049667 -1.8659155e-07 -3.14318e-08 -4.7726094e-09
0000c0 bc bb 4b b4 cb b0 9e b2 f9 2e 5c 3d 2e 0e a4 3e
       -1.8974146e-07 -1.8474017e-08 0.053755734 0.32042068
0000d0 51 70 d1 bb f4 04 a5 3e 6f 7a 26 be e1 aa c0 3e
       -0.006391563 0.3223034 -0.16257642 0.3763037
0000e0 fc fe 9e 3e 40 ad 0a 3d bc 8c 7f be 70 8a 61 3e
       0.31053913 0.03385663 -0.2495603 0.22025466
0000f0 33 1a e4 3c 60 71 f4 bc 62 32 bd ba 5b 01 f6 bd
       0.027844524 -0.029839218 -0.0014434571 -0.12011977
000100 88 da b7 3c ef 72 90 3e 3e 6f 2b 3e 13 57 db 3d
       0.022443071 0.28212687 0.16741654 0.107099675
000110 9e 72 5d bd 7b 3e 81 bc f2 32 01 bf f5 c8 c5 3e
       -0.054064386 -0.015776863 -0.5046836 0.3862988
000120 23 c5 a5 bd ea 57 97 be 3a 1d 71 bd b2 84 42 3e
       -0.080942415 -0.2955926 -0.058865763 0.18995932
000130 40 58 2b 3e bd ce e1 bd 55 91 1f 3e 1d 70 b5 bd
       0.16732883 -0.1102576 0.15582784 -0.088592745
000140 20 67 ca 3e 5c d8 12 be 28 52 75 be 0d 48 1d be
       0.39531803 -0.14340347 -0.23957121 -0.15359516
000150 4d e5 6e 3e 96 e8 a5 bb 65 0e cb be 08 b7 70 3e
       0.23329659 -0.005063127 -0.3965942 0.23507321
000160 26 4e ad be 27 f0 07 3b a5 5a be 3e 2f 8a 2a be
       -0.33848685 0.0020742507 0.3717853 -0.16654275
000170 94 c7 c8 bd 7c 26 b9 bd dc 7b 38 3e 2d ab 23 3e
       -0.098036915 -0.090405434 0.18015999 0.15983267
000180 aa 64 85 3e cb 9f 62 be b6 d9 b6 3e 66 74 98 3e
       0.26053363 -0.22131269 0.35712975 0.29776305
000190 36 87 b4 3e 55 4e 6b be 36 b5 49 3e 81 d1 9b be
       0.35259408 -0.229791 0.19698033 -0.30433276
0001a0 51 f1 96 be 3f 6a bb 3c 61 87 74 be c5 18 c1 3e
       -0.29480985 0.02287781 -0.23879768 0.3771421
0001b0 62 22 5c be 47 fe 32 3e 2b 6f ff 3d f3 0b 42 be
       -0.21497491 0.17479812 0.124723755 -0.18949871
0001c0 5f aa 08 be c4 e1 81 3e 9e 2d a5 3d bc 47 09 be
       -0.13346241 0.25367558 0.080653414 -0.1340627
0001d0 48 28 ea 3e 33 38 22 be e7 c2 bc be c9 e2 77 bd
       0.45733857 -0.15841751 -0.3686745 -0.060519014
0001e0 7d 1a 89 be e3 11 74 3e ee 69 2d bf 97 6f e2 3e
       -0.2677802 0.23834948 -0.6773976 0.4422576
0001f0 75 f3 44 3d ee 3c cc be a3 7c 7f 3e 70 3e c5 3d
       0.04808374 -0.39890236 0.24949889 0.0963105
000200 50 8e d1 3e 7b e4 57 be 92 b8 72 be 71 74 19 be
       0.40928888 -0.21083252 -0.2370322 -0.14985825
000210 ff 9e 19 3e a8 38 a9 3e 14 eb 50 3e d6 a0 c8 3e
       0.15002058 0.33051038 0.20402175 0.39185208
000220 25 25 b4 3d 94 9d 04 3e 09 94 a5 3e d7 8c 2c 3e
       0.08796147 0.12950736 0.32339504 0.16850601
000230 80 16 16 25 6a 22 1b a8 cd 0f 89 a2 31 a1 bc a7
       1.301805e-16 -8.611691e-15 -3.7150654e-18 -5.2355246e-15
000240 bc af 94 a3 27 fe 6a bd b9 82 db bd 9e 8e ef 3d
       -1.6120619e-17 -0.057371285 -0.10718293 0.11697124
000250 c6 d5 a3 3e 12 79 05 3e 3f 34 94 be bf 12 ac 3e
       0.31999034 0.13034466 -0.2894611 0.33608052
000260 b2 34 39 3e a5 80 21 bd fb f5 91 bc 25 8b b9 be
       0.18086508 -0.039429326 -0.017817488 -0.3623897
000270 64 a0 b9 3e 0c 7e 51 be ce 2c f4 be e3 84 bd 3c
       0.3625518 -0.2045824 -0.47690433 0.023134654
000280 43 19 8b ae 19 ee 19 2e a2 68 6a 2b a2 88 3e ab
       -6.3254756e-11 3.4999646e-11 8.3278707e-13 -6.7691176e-13
000290 a3 88 fb ac 8e a8 85 be c4 6b 99 3e 6a fd 01 bf
       -7.149019e-12 -0.2610516 0.2996503 -0.50777304
0002a0 ae 77 90 3e 9f 33 13 be b1 eb 20 be 44 ab d4 bc
       0.28216308 -0.1437516 -0.15714909 -0.025960572
0002b0 76 a2 0f be 1b 0d d3 3d 51 5f 59 3c 51 f7 26 be
       -0.14026818 0.10305234 0.013267354 -0.16305281
0002c0 e5 b0 ae be ae 59 6b be 82 f8 8e be 28 64 83 3e
       -0.34119335 -0.22983429 -0.2792397 0.2566235
0002d0 31 4c 35 3e 5d de 1a bf 98 bd c3 3d d4 c9 1e be
       0.17704846 -0.6049555 0.095576465 -0.15506679
0002e0 80 c1 eb 3d b0 f4 20 be 60 f3 41 bf 38 f1 29 3f
       0.115115166 -0.15718341 -0.75761986 0.66383696
0002f0 9e a4 94 3e 78 ff 1d be d8 e4 da bc 2e 96 d0 bd
       0.29031843 -0.15429485 -0.02672045 -0.101848945
000300 42 90 a5 3c 9c de 3f be b0 3a 54 3d 80 f9 b2 3d
       0.020210389 -0.18737262 0.05181378 0.087389946
000310 c8 64 dd bc fd 5f 7e 3c 24 eb 95 3d 80 5c 04 3d
       -0.027025595 0.015525815 0.0732024 0.032314777
000320 de f0 8a 3e e1 37 98 be e6 0d a6 bd 76 45 89 be
       0.27136892 -0.29730132 -0.0810812 -0.26810807
000330 a7 e6 ee 3d 47 34 ac bd 9c 93 5c be 9f ad 04 3f
       0.11665087 -0.084084086 -0.21540684 0.51827425
000340 00 39 8a 3e 4b 29 f4 bd a1 ae 9e 3d 76 0a 67 bf
       0.26996613 -0.119219385 0.077481516 -0.9025034
000350 ea 6d 17 3e 5c 08 1d 3f 97 d4 3f be 40 96 96 a8
       0.14788023 0.6134088 -0.1873344 -1.6718506e-14
000360 87 ef bb 23 f8 71 39 38 b5 5d 9b b6 63 38 7d 27
       2.0376024e-17 4.421358e-05 -4.630269e-06 3.514137e-15
000370 cb e9 dc be 89 3c 97 bd 7a bd c1 3c c4 5c 11 3e
       -0.4314712 -0.07384593 0.02364992 0.14195544
000380 0b 28 de bd 33 2f 92 ba a3 11 9a be 30 9d a6 3d
       -0.10847481 -0.0011152982 -0.3009158 0.0813545
000390 69 ed ce 3d f1 c5 40 bd 67 5a b1 be e8 9d 26 3e
       0.10103876 -0.04706377 -0.34639284 0.16271174
0003a0 15 f3 a1 bd 1a 8d c7 3e f7 7c 37 3d 8b b5 86 3e
       -0.07907692 0.3897484 0.04479691 0.2631038
0003b0 01 77 17 3e 87 07 6f bd b0 f4 5f bd c2 d1 11 3e
       0.1479149 -0.058356788 -0.05467671 0.14240173
0003c0 15 4d 4d 3e b9 7e 08 bf 2d 2f a6 be 36 c7 b2 3e
       0.20048936 -0.53318363 -0.32457867 0.3491761
0003d0 97 f0 96 3e 05 aa 42 3e 92 e4 37 3e a6 2e 1e 3e
       0.2948043 0.1901017 0.17958286 0.15447482
0003e0 e0 1a 98 3e cc d7 4f 3e bf c3 84 3e 56 06 22 3d
       0.29708004 0.20297164 0.25930592 0.039556824
0003f0 ac 18 ce 3d 7c d4 5d bc 9f fe 1b bd c9 1a 98 be
       0.100632995 -0.01353943 -0.038084622 -0.29707935

fc1.bias f4 [100]
000000 48 ea cd 3e 31 2f 4d 3e b7 a4 c5 3e 3a 1d e5 b7
       0.40217805 0.20037533 0.3860223 -2.7312537e-05
000010 d8 8b 99 ba e4 93 10 3e 39 6c a1 b3 dd ad 55 3e
       -0.001171465 0.14118916 -7.516832e-08 0.20867105
000020 5c 00 6b be 16 c4 b2 b4 29 d1 40 be 76 36 a2 3e
       -0.22949356 -3.3297755e-07 -0.18829788 0.31682175
000030 5f d3 0a bd 3c a3 e5 bd 13 e9 8a 3e cf c3 b0 bd
       -0.033892985 -0.11212775 0.27130947 -0.086310975
000040 5f 4a f3 bd 1c b0 80 3e e9 c4 e1 3d 1c 67 8c 3e
       -0.118794195 0.2513436 0.11023886 0.27422416
000050 a6 e5 7d 3e 1b 76 10 3e 22 56 2d be c7 78 a7 bd
       0.24794635 0.14107554 -0.16927388 -0.08177333
000060 b4 ef 81 be 06 2f cb 3e cd 3a 09 3e e0 b7 b0 3e
       -0.2537819 0.39684314 0.13401337 0.34515285
000070 6d 55 38 b3 82 06 59 3d 8d 76 22 bd e6 cf bc 3e
       -4.2918533e-08 0.052984722 -0.03966384 0.36877364
000080 aa cc 86 ae 4e 1c 16 be 59 48 9d 3e 9d 6a d7 3e
       -6.12997e-11 -0.14659235 0.3071926 0.42073527
000090 5a d5 f7 3d 3b 2c 2f bd fe d1 c2 3e 2e b3 ba 3e
       0.121012405 -0.04276679 0.38050836 0.36464828
0000a0 2c 62 16 ba 34 92 e1 bd 5d 21 8d be eb e1 41 ba
       -0.00057366746 -0.11014214 -0.27564517 -0.000739603
0000b0 f1 f3 68 3e b0 de 3f 3e 68 ad 91 3e 65 23 61 3e
       0.22749306 0.18737292 0.2845261 0.21986158
0000c0 6a f2 59 be 7f 37 59 be f6 0e a9 3e 2e f1 2e 3d
       -0.2128388 -0.21212576 0.33019227 0.042710476
0000d0 cb 7e c0 3e e8 33 4d b6 01 0b 25 b2 65 cb 69 af
       0.37596735 -3.0577594e-06 -9.606766e-09 -2.1263487e-10
0000e0 36 85 ca bd 8a f6 09 b3 cb e3 53 3e dc 1e e9 3e
       -0.09888689 -3.2122024e-08 0.20692365 0.45531356
0000f0 45 51 1a bc 6e fa 73 3e f0 de 1e 3e 8e 9c 94 bc
       -0.00941879 0.23826 0.15514731 -0.018141057
000100 02 4f 70 3c 58 a8 88 bd e5 b4 2b b4 0e c4 4f 3e
       0.014667274 -0.06672734 -1.5991425e-07 0.20289633
000110 d6 c1 9f 3e 96 84 b1 3d a7 51 ac 3e a5 13 ba 3e
       0.31202573 0.08667867 0.33656046 0.36343113
000120 b0 c0 95 b5 75 16 bc bd e9 bb ea 3d 86 ed a7 3e
       -1.1157445e-06 -0.09183971 0.11461622 0.32798404
000130 7b 93 63 3d da 10 91 3d c1 64 9f bc 6d 47 20 bd
       0.05556057 0.07083292 -0.019457223 -0.039130617
000140 b8 86 0f 3e 5d 16 33 3e 8c 6f 14 bd 54 c8 f0 3c
       0.14016235 0.17489 -0.036239192 0.029392399
000150 29 88 e2 3e dc 07 75 3e c4 f5 56 3d c1 1e 33 3d
       0.44244507 0.2392878 0.052480474 0.0437305
000160 e1 98 af bd cd 24 4a 3e 82 cb b0 bc 17 33 e5 3e
       -0.08574081 0.19740601 -0.021581415 0.4476554
000170 07 33 48 3e 7e b8 d4 b9 71 3a a4 3e 25 12 d4 bd
       0.19550715 -0.00040573248 0.32075837 -0.10355023
000180 b1 9d 06 bd c5 7b 83 be 8b f5 a9 b7 8d b8 2a ae
       -0.03286523 -0.25680366 -2.026071e-05 -3.881744e-11

fc2.weight f4 [30, 100]
000000 4c 66 b7 3c 11 4f 6b 3d 8f 4d bc bc 5d a6 d0 22
       0.022387646 0.05744845 -0.022986202 5.6554657e-18
000010 27 2d 1f 3d 8b 53 32 3d 37 61 12 24 12 9d 81 bb
       0.03886142 0.043536704 3.1741048e-17 -0.003955492
000020 d7 39 91 bb ba 61 f0 23 4c a7 f1 bb 58 e4 58 bd
       -0.004431944 2.6062241e-17 -0.0073746797 -0.05295214
000030 d3 31 a5 bc 81 c1 6f bd 68 95 33 3d b6 cc 6c bc
       -0.02016536 -0.05853415 0.043843657 -0.014453104
000040 6a 42 e0 ba e4 33 06 bb e6 e2 79 3d e8 f4 06 bd
       -0.0017109637 -0.0020477707 0.061007403 -0.032948405
000050 2f 00 89 3c a3 84 37 bc 25 d0 34 3d 14 dd e9 bc
       0.01672372 -0.011201057 0.044143815 -0.028547801
000060 ca 6e 33 bd ed 58 a9 bd d4 98 7f bd 18 1f 5d bc
       -0.04380683 -0.08268914 -0.062401608 -0.013496183
000070 a3 2f 83 24 f1 b3 e9 bc e3 6b e2 bc ed 38 6b 3d
       5.6892894e-17 -0.028528186 -0.027639335 0.057427336
000080 58 da 79 24 17 55 36 bc 0c 75 4d 3d 02 77 09 bd
       5.4178213e-17 -0.011128685 0.050160453 -0.03356076
000090 ba 6d 3e 3c b6 6c 06 bc 8e 6a e5 bd ed 0e 57 3d
       0.011622841 -0.00820463 -0.11201964 0.05250447
0000a0 87 8b 02 3c d2 54 4a bd 2e 25 90 2d b7 41 43 a4
       0.007967836 -0.049397297 1.6387416e-11 -4.2339547e-17
0000b0 a4 29 c8 bd 85 87 22 bd 43 25 f2 bd f9 9a f0 bd
       -0.09773567 -0.039680023 -0.11823513 -0.11748309
0000c0 61 bc 80 bc 5a ae 7d 3d 9f 2f 85 bd ff 33 56 b5
       -0.015714826 0.061933853 -0.06503224 -7.9796877e-07
0000d0 6e 6b 18 3d 15 6e 64 23 c1 0e 92 23 b7 ac 75 23
       0.037211828 1.23832155e-17 1.58356e-17 1.331805e-17
0000e0 57 45 c4 3c 99 5c 47 a4 0e 20 ae 3c 6e d9 78 bd
       0.023958845 -4.322968e-17 0.02125552 -0.060754232
0000f0 c8 ad 8b 3d 5d 6a fb bc e8 3b 06 bd 92 8b 13 bd
       0.068202555 -0.030690366 -0.032771975 -0.036021776
000100 20 15 82 3d 17 03 2e bd 7f 4e 61 a3 7f 74 a7 bc
       0.063516855 -0.042483415 -1.2213897e-17 -0.020441292
000110 e4 26 9f bd 0a 91 73 bb de 8f db bb 60 fe c1 3c
       -0.0777109 -0.0037165307 -0.0067005 0.023680866
000120 4c 4a ab 23 a8 e7 eb a3 73 21 82 3c f5 47 cd bd
       1.8571323e-17 -2.5576861e-17 0.01588509 -0.1002349
000130 4a 7e 58 3d 47 fb f6 22 a5 e3 0e a4 cf 62 22 bd
       0.052854814 6.6944484e-18 -3.0984164e-17 -0.039645012
000140 42 44 8d 3d 81 dc 10 3d b3 c1 4c bd 98 7e df 22
       0.06897785 0.03536654 -0.049989413 6.0578307e-18
000150 7d 2c 54 3d 2f b9 99 ad e8 a4 57 3d e4 20 e0 a0
       0.05180024 -1.7476324e-11 0.0526475 -3.796884e-19
000160 0f 32 1d b8 87 11 3d 3d 14 85 f3 22 ca 0d 15 3b
       -3.7478338e-05 0.046159294 6.6006184e-18 0.0022743815
000170 6e 2c 7e bb b7 a1 de a3 9e 8f d6 bc de 8a 4d bd
       -0.0038783806 -2.4137777e-17 -0.026191529 -0.050181262
000180 b2 47 77 a3 2b 05 61 bd e8 39 50 23 fe 28 09 a4
       -1.3405079e-17 -0.05493657 1.1287965e-17 -2.974186e-17
000190 16 81 9a 3c 83 6f 8c 3c eb 3f 03 3d cb d7 a1 24
       0.018860381 0.017143017 0.03204338 7.018819e-17
0001a0 e9 13 c4 bc ff 81 70 bd 4b ab b3 23 84 4a b3 bc
       -0.023935275 -0.058717724 1.9479764e-17 -0.021886118
0001b0 00 4e a9 b8 79 44 13 24 a0 ad 16 3d 76 a3 5f bd
       -8.0730766e-05 3.1933542e-17 0.036786675 -0.054599248
0001c0 84 3d 5e bc 00 24 0d bb da a9 19 bd de 42 13 3b
       -0.013564471 -0.002153635 -0.0375155 0.0022470276
0001d0 20 9a 9f bb 61 d0 1a 3c 24 f4 b5 3b 04 7e 9d bd
       -0.004870668 0.009449095 0.0055527855 -0.07690051
0001e0 4b 7e c5 bd d3 b4 f2 bb e7 78 a8 3b 4f 72 62 bb
       -0.09643229 -0.00740681 0.005141366 -0.0034552997
0001f0 49 8b 85 3a 4d 9c f0 bd b8 83 b0 bd 71 b9 fd bc
       0.0010188605 -0.11748562 -0.08618873 -0.030972214
000200 ee 02 99 a3 8e b1 a6 bd 8f a2 bf bc e8 46 d2 bd
       -1.6589534e-17 -0.081393346 -0.023392944 -0.102674305
000210 c4 3f a4 22 88 a1 3c bc ff 10 70 3a 17 0a fd 3b
       4.4519804e-18 -0.011513121 0.0009157806 0.00772215
000220 48 da 4f 3c a6 34 61 bc e7 6b a1 3c 43 08 57 3d
       0.01268632 -0.0137454625 0.019704772 0.052498113
000230 fa a7 a0 bb 2f fb f1 bc 7d 42 c4 2a 7b 49 9b 22
       -0.004902837 -0.029538719 3.486273e-13 4.2090635e-18
000240 fd ba 5d 3c 75 e9 6a bc 44 1a 74 3d 00 ce a7 bd
       0.013533351 -0.014337887 0.05959536 -0.08193588
000250 c2 09 7c bc 4d 61 35 bd 9b 7d fb 3a b0 bb 02 a4
       -0.015383186 -0.044282246 0.0019187214 -2.8348234e-17
000260 b5 c0 7e 3d d4 d0 69 a4 7a 47 a7 21 55 8e 3d 23
       0.0621955 -5.0700706e-17 1.133528e-18 1.02758505e-17
000270 03 c1 72 bd 0c a5 f8 21 b4 18 96 bc 07 82 c9 bc
       -0.0592661 1.6848821e-18 -0.018322326 -0.024598135
000280 e2 d2 e2 bd 84 3e ee bd 28 dd 57 3d 0a 0a 16 bd
       -0.11075379 -0.11633018 0.052701145 -0.036630668
000290 bb 1f d3 bd 3d 69 4a bd 1f 0e 86 a4 16 58 e6 3c
       -0.103087865 -0.04941677 -5.813716e-17 0.028118175
0002a0 33 f8 2d 3d 8b 16 c1 bd 06 b4 03 bd a1 ca 21 3d
       0.04247303 -0.09428128 -0.032154106 0.039499883
0002b0 25 ba 28 a4 db 49 56 23 60 cf 7c bc ef 57 05 bb
       -3.6586864e-17 1.1616603e-17 -0.015430301 -0.0020346602
0002c0 d8 90 1d bd 43 62 64 1f 91 d8 13 a1 67 75 7e bd
       -0.038468212 4.8362158e-20 -5.009216e-19 -0.062123682
0002d0 d6 b4 ad bc bb b8 71 3d 25 10 c8 3b 7f 62 87 a1
       -0.021204393 0.059014063 0.00610544 -9.174028e-19
0002e0 a3 6d 7b bd d4 c6 26 31 10 e2 70 3b 67 cd f0 a3
       -0.061383855 2.42692e-09 0.0036755838 -2.6107843e-17
0002f0 b4 44 b5 23 99 23 90 bd 3c d9 89 24 04 60 d9 bc
       1.9653156e-17 -0.0703804 5.978229e-17 -0.026535042
000300 34 1a 4d bd 2f cc f8 a2 51 71 a0 bd 33 64 08 3d
       -0.050073817 -6.7436722e-18 -0.078341134 0.033298682
000310 28 d6 fc 22 91 cf 2d bd 3c dc 25 24 d2 e1 28 24
       6.8531484e-18 -0.04243428 3.5965217e-17 3.662047e-17
000320 c3 f4 a3 bc 72 7a 2b bc 4a a4 9c bc e0 24 b4 23
       -0.020014172 -0.010466205 -0.019121308 1.9531256e-17
000330 78 ce dc ba ca 4a 88 bc e4 06 52 22 ea 9c 03 39
       -0.00168462 -0.016637225 2.8463955e-18 0.00012551589
000340 d0 e6 cf 36 a6 c0 51 2a d8 90 24 bb c3 b9 cb bc
       6.195951e-06 1.8629767e-13 -0.0025110748 -0.024868852
000350 68 d6 ec a3 03 fb bc b9 dc 89 ae bc 1a 68 27 bc
       -2.5677976e-17 -0.00036045173 -0.02130597 -0.010217691
000360 84 4b 0c 36 1f 0b 35 3a 58 0c ea bb df 7d b4 bc
       2.0905582e-06 0.0006906259 -0.007142585 -0.022032676
000370 07 73 1f bc 81 1d 8a 38 d8 58 9c 36 da 1f 04 36
       -0.0097320145 6.585848e-05 4.659505e-06 1.9688073e-06
000380 5b d4 76 36 18 ed c6 bc 57 6c 49 bc c9 9c b2 bc
       3.6780464e-06 -0.024282977 -0.012293897 -0.021803277
000390 92 ee 63 24 5d 0e 4d bc f6 ff df b7 e8 54 db bc
       4.9424856e-17 -0.0125156315 -2.6702863e-05 -0.026773885
0003a0 ef 66 00 a2 ea 9e 60 35 9d fc a5 bc 05 bc 26 bc
       -1.7401727e-18 8.3677753e-07 -0.020262057 -0.010176663
0003b0 6f 70 92 3a e5 aa 4b bb c0 17 84 bc 27 b3 a3 bc
       0.0011172424 -0.0031077203 -0.016124606 -0.019982887
0003c0 21 cf 56 36 5c 5d ef b8 9e 9d d3 bb cf 95 18 24
       3.200905e-06 -0.000114137976 -0.0064579984 3.308664e-17
0003d0 67 ce 5e bc f4 5a 1c bc 2e 0f b2 bc 0e fe 92 bc
       -0.013599015 -0.009543169 -0.021735754 -0.017943408
0003e0 57 ef 95 b6 87 91 7f b9 b8 17 7c bc 2c a8 01 bc
       -4.468409e-06 -0.00024372908 -0.015386514 -0.00791363
0003f0 cd a3 9d bc 26 d5 39 23 fd 12 e0 22 79 88 ea a3
       -0.019243145 1.0074006e-17 6.0735426e-18 -2.542813e-17

fc2.bias f4 [30]
000000 fe fb a3 bd 9c 82 f0 3c 54 3b a3 bc 46 af 96 ba
       -0.08007048 0.029359154 -0.01992575 -0.0011496327
000010 48 51 62 bb 07 40 ed bd 12 16 67 3d 6b ff b9 bc
       -0.003453331 -0.11584478 0.056417532 -0.0227048
000020 54 ff 31 39 1b 22 c1 3c 85 c1 94 3d 4d 3d e8 3b
       0.00016975153 0.023575833 0.072634734 0.0070873857
000030 2c b2 dd 3c a7 d9 1c ba 5c 51 a2 bc 3b c7 e8 bc
       0.027062498 -0.00059833605 -0.019814186 -0.028415313
000040 1e 9b 04 bd e1 5a a6 3d c4 a0 5c 3a bc 2d 64 3d
       -0.032374494 0.081228025 0.000841629 0.05570768
000050 cc fc 1a 3d a7 fb 9f 3c b9 04 d2 3d d0 7a f3 3c
       0.037838742 0.019529177 0.10254807 0.029721648
000060 00 97 9f ba bb a3 eb 3d c0 3f 33 3d 5a 6b 2b 3d
       -0.0012175739 0.115058385 0.04376197 0.041850425
000070 50 f4 04 bc 3b bf 18 3d
       -0.008114889 0.037291747

fc3.weight f4 [10, 30]
000000 c9 2d 20 3c f4 38 1d be 5a 54 0d 24 b4 cc 55 21
       0.009776541 -0.15353757 3.064595e-17 7.243813e-19
000010 c3 d6 7f 24 db a9 60 bd 2c 6c eb 3d a8 0f 8d 3d
       5.547622e-17 -0.054849487 0.114952415 0.06887752
000020 ce 2c 0f a2 7e a2 b0 bd 13 8a 00 3e 3b db 95 3d
       -1.9403833e-18 -0.08624743 0.12552671 0.073172055
000030 be 4d 9c bd a4 5a 06 a4 68 ab f1 3d d7 b2 31 23
       -0.07632016 -2.9133394e-17 0.11800271 9.63306e-18
000040 8d d8 98 bd 66 92 1d be 88 d5 2f 24 0b 10 6a 3d
       -0.07463179 -0.15387878 3.8127944e-17 0.057144206
000050 40 b0 2e be 7c a8 17 3e d0 67 1d be 8e e5 44 bd
       -0.17059422 0.14810365 -0.15371633 -0.048070483
000060 83 1d 2a a3 fc 54 8f 3d 8d 3e 0a 3e 8a 77 1f 3e
       -9.221968e-18 0.06998631 0.13500424 0.15572944
000070 91 a8 f8 30 dc a9 21 be 6e 05 b3 23 fb 85 df a5
       1.8092284e-09 -0.15787452 1.9409518e-17 -3.8775122e-16
000080 35 2f 88 23 4f 11 d8 bc 83 b4 fa 23 91 cf e3 23
       1.4765143e-17 -0.02637544 2.7181504e-17 2.4699297e-17
000090 d4 46 64 bb c9 bc 1f 22 9d ed b5 bc e5 f7 77 25
       -0.0034832256 2.164846e-18 -0.02220803 2.1507825e-16
0000a0 83 26 63 a4 3b c9 bc a2 3e 4d ca a3 8f 3c cd 24
       -4.92554e-17 -5.1170563e-18 -2.1933597e-17 8.900717e-17
0000b0 94 c9 07 a4 f1 1d 51 a0 6c fb 92 24 1b 0e fd ba
       -2.9444202e-17 -1.7712895e-19 6.374333e-17 -0.0019306572
0000c0 27 91 68 24 de 3f df 22 9b 83 c8 ba 89 d5 0f a4
       5.042993e-17 6.0511893e-18 -0.001529801 -3.1189053e-17
0000d0 a3 f2 79 bb 1a 78 fa 22 66 ed a9 bc e2 4c 3c ba
       -0.0038139008 6.78898e-18 -0.020743083 -0.00071830873
0000e0 2a 9e aa a5 a9 ad dd a4 83 6a 1b a4 18 42 d4 a3
       -2.9597475e-16 -9.6137664e-17 -3.3700486e-17 -2.3013078e-17
0000f0 8c e4 18 a4 77 88 ef a3 73 11 df 25 b4 e4 16 27
       -3.3153333e-17 -2.5970227e-17 3.8696158e-16 2.0940662e-15
000100 0a 9b d0 20 c9 c9 1e 23 2b 21 19 a8 05 be 14 a5
       3.5339167e-19 8.607927e-18 -8.500398e-15 -1.2901335e-16
000110 f6 eb c8 a6 90 39 a8 a5 b0 cf ae 25 b2 ab 6f 24
       -1.3941745e-15 -2.918236e-16 3.0324923e-16 5.1970295e-17
000120 e9 8a 3a a4 71 c1 f4 a3 80 d8 2b a4 1d bd d7 24
       -4.0449982e-17 -2.6536459e-17 -3.7263097e-17 9.356176e-17
000130 86 c9 49 a4 02 a2 9c af 80 f3 62 24 d2 d7 e6 24
       -4.3755624e-17 -2.8491348e-10 4.921219e-17 1.00112214e-16
000140 1b da db b2 c7 32 85 a4 2b c7 6e a9 bd d0 4c a5
       -2.5594138e-08 -5.7765576e-17 -5.3019367e-14 -1.7764903e-16
000150 0f f3 27 a4 eb af 5a b0 5c d6 25 a3 26 0b 03 25
       -3.641823e-17 -7.955793e-10 -8.99006e-18 1.1366216e-16
000160 d3 84 25 23 fd 0e 75 23 23 8a 13 3e 44 07 05 3d
       8.9727945e-18 1.32846505e-17 0.14408164 0.032477632
000170 ca 86 f5 3c c3 fd a9 3d 21 dc 77 b6 e9 5e 12 3e
       0.029971499 0.08300354 -3.6934e-06 0.14294018
000180 8a cd 1a 3d bd b3 07 bd 0e dc a9 3d 71 4e d0 bc
       0.037793674 -0.033130396 0.08293925 -0.025428029
000190 a8 2d ff bc 37 1e b8 bd 93 6a 36 3e c2 cb 61 a5
       -0.0311497 -0.08990138 0.17814092 -1.9584675e-16
0001a0 84 35 03 be 44 99 1f bd a9 d8 ed 3c a1 4d 30 3e
       -0.12813383 -0.038964525 0.029033976 0.17217113
0001b0 2a c3 29 24 40 0e 9d 3d ae 85 d7 3c 4a 32 75 bd
       3.6811344e-17 0.076687336 0.02630886 -0.059862413
0001c0 0f c5 3a 3e a1 d3 7a 3d cd 79 94 3d 63 30 8a bc
       0.18239234 0.06123698 0.07249794 -0.016868776
0001d0 fe 05 c6 bd e2 b2 1b 3c cc 54 8c 24 67 59 47 3d
       -0.09669112 0.009503098 6.085897e-17 0.048669245
0001e0 6f c2 27 a4 df e5 ce a3 98 ca 33 a4 12 a9 4a 2b
       -3.6377044e-17 -2.2431919e-17 -3.898604e-17 7.199945e-13
0001f0 0a f9 7b 22 5e 7a 69 24 7f b9 bc b9 25 a1 8f 23
       3.4148683e-18 5.062747e-17 -0.0003599636 1.5572338e-17
000200 d0 b2 00 ab ff 65 75 a4 f1 f7 85 25 3a 06 93 23
       -4.5722887e-13 -5.32123e-17 2.3239834e-16 1.5940409e-17
000210 b6 1f 81 21 ca 64 8b a3 2a 69 54 24 7e a8 67 a3
       8.749774e-19 -1.5113096e-17 4.605925e-17 -1.2558215e-17
000220 09 a4 d7 a4 f3 2b 10 bb c8 e2 17 24 c9 13 97 23
       -9.351927e-17 -0.0021998852 3.2934997e-17 1.6379832e-17
000230 d9 a2 2b bb 90 46 18 a5 33 29 46 ba 29 8e b7 22
       -0.0026189594 -1.3207806e-16 -0.000755924 4.9752767e-18
000240 48 36 a5 2c 53 20 09 bb bc 6c 41 22 0a 56 34 25
       4.6956085e-12 -0.0020923808 2.621394e-18 1.5641662e-16
000250 a2 82 78 23 fa 22 37 a5 dd e5 71 bc 63 3b e3 3d
       1.34717695e-17 -1.588457e-16 -0.014764276 0.110953115
000260 bc 22 fc 3c 27 ec 18 3e 55 64 13 b7 fa b7 fe bd
       0.030778281 0.14933835 -8.785243e-06 -0.124374345
000270 54 09 08 be 93 78 04 be 19 c1 b8 ba 91 ea 6c bd
       -0.13284808 -0.1293662 -0.0014095634 -0.057840887
000280 e3 ea bc bc 97 40 03 3e ea 05 30 3b ca f0 8f 24
       -0.023061221 0.12817608 0.0026858994 6.242428e-17
000290 a4 cd 8d 3d 0e 72 1d bd ca b9 3c 3e 53 f4 20 3e
       0.069239885 -0.03843885 0.18430248 0.15718202
0002a0 b1 ca 8d 23 83 23 c3 3d 9e d7 e9 3d 11 63 5b bc
       1.5373094e-17 0.09528258 0.11418079 -0.0133903185
0002b0 35 7f 25 3d b0 30 9b bd 3b 53 6e 3d b4 f5 35 3e
       0.040404517 -0.07577646 0.058184844 0.1776951
0002c0 39 52 cc bd 27 4b 88 3d 8b 6b 4d 27 41 ea 09 3e
       -0.0997662 0.06654959 2.8507764e-15 0.13468267
0002d0 ed c6 3f 3d 49 3c 0c bd a8 9a dc 3c 23 c3 a2 3d
       0.04682057 -0.03423718 0.026929215 0.079473756
0002e0 f6 5a f0 ba 7c 6c 18 a4 a5 f8 2a 3e 92 98 4c a3
       -0.0018337655 -3.3051636e-17 0.16696413 -1.109117e-17
0002f0 a3 cc f7 3d 7f 5f c5 bb a2 3d dd 34 69 fe b9 23
       0.12099578 -0.006023347 4.1209302e-07 2.0165487e-17
000300 9a 87 b2 bc 87 05 7a a3 e6 10 98 3d bf e0 35 bd
       -0.021793175 -1.3553698e-17 0.07425098 -0.044403788
000310 cc 2a ce bd 48 ee 93 3d 02 9a 12 29 7a a6 57 3c
       -0.100667566 0.07223183 3.2552093e-14 0.01316225
000320 1f 64 50 3e 5c 96 f5 bd 5b ca c3 3c 27 95 18 a5
       0.20350693 -0.119915694 0.023900202 -1.3234433e-16
000330 4b 04 af 3d b2 78 2d 3e 73 e6 14 24 57 bb a6 bc
       0.08545741 0.16940573 3.2287582e-17 -0.020353002
000340 96 34 58 22 39 92 e6 bd 83 1c 0c 3e bb a4 c0 3d
       2.9301297e-18 -0.112583585 0.13682751 0.0940642
000350 29 23 84 a5 b5 ae 5d 23 65 7b 83 23 01 d9 55 3d
       -2.2922175e-16 1.201743e-17 1.4255308e-17 0.052208904
000360 f0 81 8e bd d5 35 c8 3d 00 9b 01 24 04 e2 82 3b
       -0.06958377 0.09775893 2.8103706e-17 0.0039942283
000370 a9 dc 12 3e 5f 7a 87 3d ef f7 ac 3d 21 ae 95 a1
       0.14341988 0.06615137 0.08445727 -1.0142724e-18
000380 66 23 8b 3b b6 de 99 a5 83 6d 4e 3d 44 e8 df bd
       0.004246163 -2.6692184e-16 0.050397407 -0.10932973
000390 e3 a8 10 a3 b2 d1 f3 3d b1 57 47 be ec 75 58 bd
       -7.842019e-18 0.119052306 -0.19467045 -0.052846834
0003a0 a9 bc 02 be 00 41 c6 3d 3f 2d 2b a2 ab ef 3b be
       -0.1276728 0.096803665 -2.3198775e-18 -0.18353145
0003b0 5d 3d 95 bb 41 2d 16 be e7 04 10 b5 7f b5 36 3d
       -0.004554434 -0.146657 -5.3651314e-07 0.044606682
0003c0 a1 27 93 25 9b b3 d9 24 11 0c e8 3c eb 89 94 3d
       2.552729e-16 9.441301e-17 0.028326066 0.07252868
0003d0 b2 65 24 ba 8e 76 9b 23 b6 93 85 3d b6 ca 9a a3
       -0.00062712573 1.6855344e-17 0.06522314 -1.6782565e-17
0003e0 3a fd 8a 3d 71 92 09 25 80 b3 8c a4 cf be ea 23
       0.067865804 1.1932472e-16 -6.1019406e-17 2.5451141e-17
0003f0 09 44 dd 25 2b 24 9c a5 53 d9 a7 39 27 dd 30 bd
       3.838349e-16 -2.7086195e-16 0.0003201464 -0.043179657

fc3.bias f4 [10]
000000 5e 67 97 3c b5 80 8e 3b 80 a0 8b b0 78 27 0e 3e
       0.018481907 0.004348839 -1.0159198e-09 0.13882244
000010 cc 5d c3 ba c6 01 7a 3d 0d 56 0e 3d e5 cc 85 3d
       -0.0014905273 0.061036848 0.034750033 0.06533221
000020 01 28 7d 3c dd 53 81 3d
       0.015451432 0.06314824

fc_out.weight f4 [1, 10]
000000 5c d5 23 be fe fb 66 3b 21 4f 32 25 26 87 bf 3d
       -0.15999359 0.0035245414 1.5465849e-16 0.093519494
000010 7e 70 4f ad bb 23 cf 3d d6 55 96 3e 83 9b 6c be
       -1.1791566e-11 0.10114237 0.29362363 -0.23106198
000020 68 5d 3d 3e 1c 04 fa bc
       0.18492663 -0.030519538
