code/REEM/model/best-model/Tampa/model_best_rating.pth (torch, 393464 bytes, 7 tensors)

fc1.weight f4 [512, 45]
0.009213137 0.0985943 0.14034821 -0.11361439 -0.0995475 -0.04500476 -0.08510973 0.03547963
-0.004782755 0.07399973 -0.10371764 0.018412298 -0.09740063 0.060743313 0.12693128 -0.02796377
-0.058584936 0.121130295 0.078077115 0.032676898 0.11649669 0.1215116 0.048967585 0.05284757
-0.08176984 0.00039401176 -0.0853741 0.0887139 -0.12579668 -0.12821221 -0.060793903 -0.12860237
0.14362213 0.0584739 0.056459326 -0.018028801 0.018826399 -0.09223959 -0.043121256 0.018338561
-0.13540205 -0.014696189 -0.012602741 0.07625158 0.14645447 0.0043730717 -0.014794372 0.13792683
-0.07715718 0.047038916 0.050807305 -0.08554217 -0.06813722 0.02420839 -0.067297325 -0.001648583
0.13919371 -0.011631971 0.060152456 0.09930954 -0.09406816 -0.004455315 0.0038038574 -0.1257278
-0.09509797 0.11268354 -0.13037433 0.07772894 -0.09379133 -0.0271575 -0.13150477 0.03878826
0.09758975 -0.021868108 -0.062270936 -0.0955189 0.13373548 -0.054018732 0.08726784 -0.069229975
0.013766537 0.0109197255 -0.006781237 -0.12455176 0.05572971 0.067996174 -0.043294147 0.124688
-0.00723404 -0.066966526 -0.047788996 -0.020631846 0.036088943 -0.11061425 -0.08310722 -0.1013447
0.005033589 -0.030851848 -0.14374484 0.028635332 -0.08329073 0.011290745 -0.01607893 -0.05708142
-0.10206091 0.06499661 -0.035880204 0.10421374 0.1410071 0.023579665 -0.03000662 0.020684663
0.13194935 -0.10708354 0.07743673 -0.12210539 0.12084097 0.090388894 0.12948017 -0.01848658
0.08640864 -0.118076555 -0.11596477 -0.10871324 0.10814777 0.06541129 -0.045478623 0.097363085
-0.086558715 0.07591356 0.072661616 0.043144185 -0.09976811 0.12410945 0.089142434 -0.030144019
0.1489965 -0.0897822 0.06878508 0.08937088 -0.04697594 -0.1169761 -0.044502847 -0.11594043
-0.103912085 -0.025104031 -0.046368107 -0.0402354 0.07686241 0.12249749 0.0070664817 -0.015186746
0.041445535 -0.017542152 0.014686853 0.085900225 -0.056003004 0.060830187 0.019121826 0.0062778112
0.12137126 -0.04017817 -0.089277826 -0.104288355 0.03175852 0.024556046 -0.07854153 -0.05280682
-0.11482355 0.0051441537 -0.031069897 -0.061364107 0.10584742 0.04264851 -0.116407424 0.10818898
0.13149716 -0.0743165 0.11849736 -0.031632453 0.13080093 0.11390867 0.06431147 0.12569314
0.08072628 -0.02419593 0.08030922 0.13106164 0.07714526 -0.0057796296 -0.09420855 0.08794287
-0.026241343 -0.1216223 0.102910966 -0.054531857 0.102495894 -0.027405195 -0.04630962 0.11787643
-0.11266747 -0.052107967 0.13781358 -0.1142807 -0.054651543 -0.091859035 0.1023726 -0.054869056
-0.072824486 -0.080169514 -0.018631633 -0.010008881 -0.054425575 -0.14841346 0.025130302 -0.0891848
0.10610107 -0.025104351 0.095675625 -0.0045682187 -0.06757825 0.10450085 -0.12778723 -0.12037066
0.020042991 -0.0010188448 0.080790885 0.108308956 -0.074367575 0.025002286 -0.11023092 0.12819904
0.055097222 -0.14106603 0.09458158 -0.04377726 -0.06559526 -0.008839945 0.0044582384 -0.07541917
0.021857753 -0.06185005 0.12930237 -0.06534613 0.024836687 0.11709834 0.09613221 -0.12899029
0.12907216 -0.00844185 -0.11232651 -0.14761476 0.08786067 -0.08216327 0.09647999 0.12054856
00000000: b3f2 163c cfeb c93d 71b7 0f3e a9ae e8bd
00000010: 8fdf cbbd e956 38bd 034e aebd 1753 113d
00000020: a8b8 9cbb 2c8d 973d ea69 d4bd 63d5 963c
00000030: fb79 c7bd fbcd 783d 46fa 013e 4714 e5bc
00000040: c2f6 6fbd 2913 f83d e5e6 9f3d 36d8 053d
00000050: d195 ee3d 13db f83d 3c92 483d b276 583d
00000060: f276 a7bd 5d93 ce39 9ed8 aebd a2af b53d
00000070: d8d0 00be 104a 03be 0703 79bd 57b0 03be
00000080: ae11 133e 5482 6f3d e541 673d 23b1 93bc
00000090: d239 9a3c 1ce8 bcbd ea9f 30bd c03a 963c
000000a0: d6a6 0abe 49c8 70bc ba7b 4ebc ca29 9c3d
000000b0: 29f8 153e fc4b 8f3b 1864 72bc b13c 0d3e
000000c0: 9504 9ebd e1ab 403d 521b 503d bc30 afbd
000000d0: 878b 8bbd ac50 c63c 2ed3 89bd 4415 d8ba
000000e0: cc88 0e3e 0694 3ebc 6c62 763d cd62 cb3d
000000f0: cfa6 c0bd e4fd 91bb 234a 793b cabe 00be
00000100: b9c2 c2bd a1c6 e63d d980 05be 5a30 9f3d
00000110: ab15 c0bd 6879 debc 30a9 06be 70e0 1e3d
00000120: 23dd c73d bf24 b3bc cf0f 7fbd 6a9f c3bd
00000130: f4f1 083e bf42 5dbd 7bb9 b23d 72c8 8dbd
00000140: 0b8d 613c a6e8 323c 2435 debb fe14 ffbd
00000150: d644 643d 9441 8b3d 3455 31bd 6c5c ff3d
00000160: 870b edbb bf25 89bd 65be 43bd 1e04 a9bc
00000170: 00d2 133d b989 e2bd 1e34 aabd cf8d cfbd
00000180: cef0 a43b 04bd fcbc d931 13be a594 ea3c
00000190: 5594 aabd d1fc 383c f6b7 83bc 35ce 69bd
000001a0: 4f05 d1bd f11c 853d 1ff7 12bd 036e d53d
000001b0: 2a64 103e 242a c13c 71d0 f5bc e272 a93c
000001c0: bb1d 073e 9d4e dbbd 2697 9e3d 6412 fabd
000001d0: 787b f73d d01d b93d 7396 043e 2b71 97bc
000001e0: 03f7 b03d 1fd2 f1bd f07e edbd 0ca5 debd
000001f0: 947c dd3d 5bf6 853d cb47 3abd 4c66 c73d
00000200: b245 b1bd 9278 9b3d 9dcf 943d f5b7 303d
00000210: 3953 ccbd 182d fe3d 4f90 b63d 97f0 f6bc
00000220: 8a92 183e bbdf b7bd 31df 8c3d 1408 b73d
00000230: d869 40bd 2a91 efbd 9e48 36bd 2d72 edbd
00000240: dccf d4bd f8a6 cdbc 7cec 3dbd e0cd 24bd
00000250: 0a6a 9d3d f7df fa3d f28d e73b d4d1 78bc
00000260: cbc2 293d 8fb4 8fbc 20a1 703c 75ec af3d
00000270: 6863 65bd 1329 793d 60a5 9c3c 19b6 cd3b
00000280: 7f91 f83d dd91 24bd 4bd7 b6bd 2295 d5bd
00000290: 3915 023d c329 c93c 62da a0bd f74b 58bd
000002a0: 9c28 ebbd 4a90 a83b 4c86 febc ee58 7bbd
000002b0: 88c6 d83d 34b0 2e3d 0467 eebd 2f92 dd3d
000002c0: 31a7 063e 4033 98bd beae f23d 0891 01bd
000002d0: aef0 053e f348 e93d bbb5 833d b4b5 003e
000002e0: d253 a53d 8b36 c6bc 2979 a43d 0635 063e
000002f0: 56fe 9d3d 0c63 bdbb 6af0 c0bd 641b b43d
00000300: 16f8 d6bc 1d15 f9bd fcc2 d23d cc5c 5fbd
00000310: 5ee9 d13d dc80 e0bc 28af 3dbd 3369 f13d
00000320: 34be e6bd 2a6f 55bd 011f 0d3e 000c eabd
00000330: 4cda 5fbd 9720 bcbd baa8 d13d 60be 60bd
00000340: 0125 95bd ea2f a4bd 5ea1 98bc 4afc 23bc
00000350: 5aed 5ebd b3f9 17be 10de cd3c 85a6 b6bd
00000360: 854b d93d a4a7 cdbc 95f1 c33d ffb0 95bb
00000370: 7766 8abd 8b04 d63d a8da 02be e584 f6bd
00000380: 3331 a43c c28a 85ba b175 a53d 16d1 dd3d
00000390: 074e 98bd 98d1 cc3c c0c0 e1bd 9c46 033e
000003a0: a0ad 613d 9d73 10be fdb3 c13d c94f 33bd
000003b0: cf56 86bd 6bd5 10bc 6a16 923b 5e75 9abd
000003c0: 080f b33c 7a56 7dbd d767 043e 31d4 85bd
000003d0: 4f76 cb3c 41d1 ef3d f7e0 c43d 0816 04be
000003e0: 7e2b 043e af4f 0abc 710b e6bd 5328 17be
000003f0: 4cf0 b33d 3745 a8bd 4d97 c53d 2ae2 f63d

fc1.bias f4 [512]
0.09180215 -0.010065642 -0.06382506 0.05174629 0.0052550077 0.095625065 -0.06564031 0.06473985
-0.074206054 0.0112044085 0.0018469947 0.031904124 -0.07314268 0.032905668 0.07667178 0.07685144
0.05370592 -0.093744315 0.12206296 -0.08725295 -0.11873398 0.1097771 0.12189308 0.076736905
0.06014513 -0.068113215 -0.11547961 -0.015423003 -0.122966 0.03729642 -0.053348135 0.09665421
0.14718832 0.0058351643 -0.0019268629 -6.6652756e-05 0.08461197 -0.13530253 0.11103051 -0.02323637
-0.0009341853 0.00030917002 -0.111060694 -0.09610983 -0.041303914 -0.062755086 0.079958245 0.032933336
0.11434338 -0.11661532 0.03471638 -0.10459798 0.06735982 0.08709609 -0.13850838 -0.075093865
-0.08586246 -0.09019022 -0.109988 -0.04892507 0.14464174 0.062130094 -0.11615655 -0.12967783
-0.1300505 0.008662989 -0.06607704 0.050115585 -0.08785025 0.062006723 -0.03499809 -0.09298913
-0.008790875 0.06733935 -0.14089659 -0.106217906 -0.08522201 -0.05787634 0.046145312 0.017663477
-0.033107325 -0.008715285 0.14158836 -0.035778202 -0.023005746 -0.02522667 -0.11022816 -0.07507322
-0.08123918 -0.040250957 -0.09907524 0.11213829 -0.08162624 0.04311265 0.14561959 0.14630647
-0.14355417 -0.07196849 -0.027916541 0.10624347 0.051752057 0.11567402 0.09615589 -0.060486984
0.08801563 0.06860119 0.0024033205 0.10957879 0.05151475 0.031360604 -0.05904507 -0.122622736
0.0702895 0.0151804155 -0.04791293 0.08502768 0.028863937 0.092538394 0.024366047 0.058643427
0.10097385 0.11884918 0.1429923 -0.0029417146 0.027050398 -0.06540513 0.0034919935 0.033469655
0.04889545 0.019580739 -0.049110763 -0.12964556 0.050175715 0.07874342 0.017608412 -0.1316624
-0.049726427 0.08837547 -0.120084986 0.0019836542 0.03195126 -0.11162833 0.06715599 0.0051001357
-0.046234146 0.012897835 -0.11521298 -0.11547497 0.13983773 0.056200374 -0.05098589 -0.09921909
0.09310821 0.019455733 -0.07690585 -0.0911635 0.00018210716 -0.045745775 0.09006105 -0.10334159
0.07469836 0.10416353 -0.0074244174 -0.047261484 -0.12617533 0.09104907 -0.0686416 -0.07694113
0.03458279 -0.0065716878 0.09697412 0.11666248 0.109979406 0.00691632 -0.0030976003 -0.10207888
-0.079029284 0.0027532144 0.14059214 0.02277906 -0.038636755 -0.016774112 -0.093662985 0.0012902317
0.09628527 -0.09534673 -0.026390312 -0.07281001 -0.12884979 0.009204686 0.08535203 0.10901604
0.027920514 0.0091620395 0.08087469 0.07527489 0.008213318 0.12313974 -0.025382105 -0.002968748
-0.10277258 -0.13688025 0.009543052 0.10177654 -0.02920308 -0.096371256 -0.13665663 0.03193342
-0.040293362 0.076695316 -0.098154195 0.062130783 -0.08113535 -0.120405875 0.034754027 0.020522516
0.14935535 0.1486228 0.05422326 0.119066566 -0.12692244 0.08683619 0.08303963 -0.05757645
-0.007562959 -0.088802636 -0.13838096 -0.14562699 -0.08011565 -0.0829094 -0.04201748 0.12799026
-0.021853669 0.09049353 -0.052597083 -0.04283879 -0.08900282 0.13297416 0.037646465 -0.07759445
0.057972554 0.08257691 0.068988614 0.1227603 -0.0015349826 -0.039753333 0.026615575 0.08873693
0.05290931 0.08707855 -0.024426097 -0.023140762 1.0776386e-38 0.14406134 -0.06292232 2.2533071e-05
00000000: c402 bc3d 5dea 24bc b7b6 82bd ebf3 533d
00000010: 3332 ac3b 13d7 c33d 6d6e 86bd 5496 843d
00000020: 58f9 97bd b292 373c dc16 f23a e6ad 023d
00000030: d4cb 95bd 18c8 063d 1806 9d3d 4a64 9d3d
00000040: bdfa 5b3d 05fd bfbd 25fc f93d adb1 b2bd
00000050: cd2a f3bd d1d2 e03d 14a3 f93d 3d28 9d3d
00000060: bd5a 763d f17e 8bbd 9380 ecbd c3b0 7cbc
00000070: 99d5 fbbd 22c4 183d 9383 5abd a4f2 c53d
00000080: 89b8 163e e834 bf3b ca8e fcba edc7 8bb8
00000090: 0a49 ad3d bf8c 0abe f763 e33d 335a bebc
000000a0: 1de4 74ba 1918 a239 ca73 e3bd 3bd5 c4bd
000000b0: 4b2e 29bd bd85 80bd 26c1 a33d 1be5 063d
000000c0: dd2c ea3d 03d4 eebd c332 0e3d 7737 d6bd
000000d0: f2f3 893d 6f5f b23d 24d5 0dbe d0ca 99bd
000000e0: a8d8 afbd a6b5 b8bd 6341 e1bd a765 48bd
000000f0: f71c 143e 207c 7e3d 7ce3 edbd 44ca 04be
00000100: f52b 05be 36ef 0d3c 6653 87bd 0046 4d3d
00000110: d5ea b3bd c3fa 7d3d 285a 0fbd 1671 bebd
00000120: 9a07 10bc 37e9 893d 3247 10be c688 d9bd
00000130: e188 aebd be0f 6dbd de02 3d3d ffb2 903c
00000140: 8c9b 07bd 8eca 0ebc 8afc 103e 2a8c 12bd
00000150: 8c76 bcbc 29a8 cebc 4dbf e1bd fdbf 99bd
00000160: ba60 a6bd 30de 24bd f6e7 cabd c3a8 e53d
00000170: a82b a7bd e496 303d 4d1d 153e 5dd1 153e
00000180: ddff 12be 3764 93bd 3bb1 e4bc 2d96 d93d
00000190: f7f9 533d 80e6 ec3d 61ed c43d 33c1 77bd
000001a0: 8a41 b43d c87e 8c3d 0781 1d3b d86a e03d
000001b0: 2101 533d fa73 003d 3ed9 71bd a121 fbbd
000001c0: f1f3 8f3d 47b7 783c 5940 44bd fe22 ae3d
000001d0: 1074 ec3c c584 bd3d 4e9b c73c 1734 703d
000001e0: 61cb ce3d 3367 f33d 936c 123e c8c9 40bb
000001f0: cc98 dd3c 20f3 85bd eed9 643b 7a17 093d
00000200: 9846 483d c967 a03c 5e28 49bd cec1 04be
00000210: 0d85 4d3d 3b44 a13d 843f 903c 82d2 06be
00000220: f0ad 4bbd 33fe b43d 1eef f5bd 3200 023b
00000230: 53df 023d 659d e4bd 1489 893d 0a1f a73b
00000240: 0460 3dbd 7151 533c c8f4 ebbd 247e ecbd
00000250: 9f31 0f3e 5d32 663d 95d6 50bd 6133 cbbd
00000260: 84af be3d a161 9f3c d080 9dbd eeb3 babd
00000270: 05f4 3e39 ec5f 3bbd ee71 b83d c1a4 d3bd
00000280: 74fb 983d b053 d53d 8748 f3bb 4295 41bd
00000290: 1b34 01be ef77 ba3d f893 8cbd 5093 9dbd
000002a0: afa6 0d3d 5057 d7bb 5e9a c63d bdec ee3d
000002b0: e23c e13d 4ca2 e23b 1c01 4bbb bb0e d1bd
000002c0: 1bda a1bd 466f 343b 63f7 0f3e 279b ba3c
000002d0: 9341 1ebd dd69 89bc 61d2 bfbd fe1c a93a
000002e0: 3631 c53d 2545 c3bd 7f30 d8bc 6a1d 95bd
000002f0: 33f1 03be 40cf 163c 0ccd ae3d cd43 df3d
00000300: 90b9 e43c 611c 163c a1a1 a53d b929 9a3d
00000310: 2791 063c b030 fc3d 22ee cfbc 548f 42bb
00000320: 6e7a d2bd 562a 0cbe 765a 1c3c 3870 d03d
00000330: 4c3b efbc 4b5e c5bd b7ef 0bbe 9ecc 023d
00000340: a70a 25bd 6f12 9d3d 1105 c9bd d97c 7e3d
00000350: 4a2a a6bd 5b97 f6bd 3d5a 0e3d d61e a83c
00000360: 9cf0 183e 9330 183e 3619 5e3d 2cd9 f33d
00000370: f5f7 01be 2cd7 b13d ae10 aa3d 49d5 6bbd
00000380: b3d2 f7bb 28de b5bd bdb3 0dbe 3e1f 15be
00000390: ad13 a4bd 67cc a9bd 851a 2cbd e10f 033e
000003a0: 7706 b3bc ac54 b93d 0a70 57bd ba77 2fbd
000003b0: 1c47 b6bd 612a 083e 2e33 1a3d d7e9 9ebd
000003c0: a174 6d3d 151e a93d e749 8d3d c169 fb3d
000003d0: 7831 c9ba 64d4 22bd e808 da3c b5bb b53d
000003e0: 6fb7 583d 3d56 b23d 3d19 c8bc b291 bdbc
000003f0: 2e58 7500 d184 133e 6bdd 80bd 6705 bd37

fc2.weight f4 [128, 512]
-0.013659005 0.0018333109 0.0025263622 -0.018941224 -0.0013831463 -0.0116218785 0.0026129365 0.00026572566
-0.0058345585 3.9815188e-07 -0.008608347 7.7799115e-08 0.015363951 -0.00061684137 0.0033252405 2.0467555e-08
-0.024194034 -0.017807385 -2.1917987e-17 -0.00097462256 -0.006160007 0.0007573748 -0.0240714 -5.9154856e-05
0.00648204 -0.004839036 0.0068046073 0.00021370892 -7.552046e-07 -0.0013479836 -8.675001e-05 0.0002951763
-4.607529e-05 0.015461687 -0.01380832 -0.00075655873 -0.0076483763 -0.011523258 0.008588348 0.0007003066
-1.560461e-13 0.017803403 0.0030980778 -0.007798024 0.008087075 -0.0002085958 0.020122059 7.80723e-07
0.0030272056 -0.018152783 0.010918541 -0.021370312 0.021736365 1.3350365e-06 0.00021840009 -0.008046935
0.0012013897 0.00039835693 0.023398472 0.0074425964 0.0048138406 0.01618371 -0.018607492 0.00015435182
-0.0015849546 -0.019703256 0.00021150417 0.0012034294 -0.013752091 -0.0074592205 -0.0013039185 0.0025522683
-0.01259442 0.003561023 0.00020692103 -0.0003833948 -0.019394228 -0.0046930057 0.010852814 9.8919e-41
4.061875e-06 0.00020005775 0.016500691 2.8343871e-05 -0.0131667275 -0.020743215 0.012227275 0.020178309
-1.0408995e-19 0.015161099 0.022472765 -4.0527457e-09 -0.020422658 0.024072373 -0.021099636 -0.01567351
-0.024636758 0.017736664 -0.012300211 2.8992879e-37 2.0620978e-14 -0.0003069128 0.024372092 -0.009978618
-0.0024876993 3.2419626e-05 -0.0074912636 -0.015901316 0.008769694 0.012223044 -0.022652652 -1.1697359e-12
-3.6841593e-07 0.0032956556 1.9147326e-07 -0.009215788 -0.0045802626 0.01645673 -0.0001967753 0.0006832067
3.4801387e-38 -0.004493391 0.006564822 0.02042521 0.024351738 -0.021259947 -0.013532393 -0.0017279559
-0.013790922 -3.2344902e-05 0.023448398 -0.015072494 -0.0003708092 0.0020872673 -0.01521961 -0.005693507
3.3490892e-08 -0.0148075875 -0.0050277105 0.0071277586 2.2994167e-12 -9.8776e-41 0.01775503 0.016763603
0.0025299808 9.731252e-05 0.016621921 3.1379907e-18 0.005077382 0.011565797 0.0038024343 -0.0049643787
-0.022295287 0.01765042 -0.005690113 -0.0113430405 0.02208523 -0.0015946385 -9.095968e-05 -0.015374306
-0.000542936 -0.0115588335 0.014081433 0.005576661 -0.0015415482 -1.371995e-22 -0.0010050328 0.0013534913
-0.014638214 0.0005337147 -0.018226005 -0.014638486 -0.02179267 -0.00025711776 0.00016670926 0.0030420353
0.022424651 1.1591989e-19 0.00015709535 0.000726368 0.0025532304 -0.013257963 -0.007970598 8.477814e-14
-0.01998096 0.00010207041 -0.019444784 -5.5330817e-25 0.0069853803 0.024259208 0.0013640792 -0.013544062
3.9658604e-05 0.01821479 0.0017152424 -0.00011022596 8.0061895e-05 -0.022228997 0.0026482942 -0.017051397
0.010002214 0.01674164 0.01542248 4.359939e-05 0.014016472 -0.020319417 0.0077054 -0.015005363
0.0063060108 -0.013374297 -0.001626825 0.002693103 0.0022864921 0.018450413 -0.0028811598 -2.9964785e-05
-0.011458323 0.003495698 0.025043037 0.005838906 -4.416317e-06 -0.0120893195 5.4267777e-05 -0.005321641
-5.3431214e-14 3.140108e-20 -0.0009937878 0.019330699 -0.014016981 -0.017558781 -0.008611727 8.466573e-05
-0.013053249 0.021945931 0.019743254 0.008818648 1.2373673e-34 -0.017963357 -0.0012881552 -0.020174451
1.3212695e-06 -0.022632372 0.018438224 -0.0004366654 0.003170744 0.013867339 -0.0144409 -0.002293545
-0.00046645134 -5.625269e-07 0.012336781 -0.008206404 -1.8696256e-23 -0.015131928 0.012460216 0.0011390488
00000000: 05ca 5fbc b54b f03a 5391 253b a02a 9bbc
00000010: b04a b5ba b169 3ebc cd3d 2b3b 1851 8b39
00000020: d32f bfbb 94c1 d534 060a 0dbc 8412 a733
00000030: 15b9 7b3c 86b3 21ba 47ec 593b a1d0 af32
00000040: 9132 c6bc cbe0 91bc 6228 caa3 d07d 7fba
00000050: e2d9 c9bb 908a 463a 6231 c5bc 0b1d 78b8
00000060: 4b67 d43b c790 9ebb 2ff9 de3b 0d17 6039
00000070: 44b9 4ab5 d3ae b0ba 8fed b5b8 e4c1 9a39
00000080: f740 41b8 0453 7d3c 4b3c 62bc cc53 46ba
00000090: 3b9f fabb 0ccc 3cbc 24b6 0c3c c894 373a
000000a0: 3ab1 2faa 71d8 913c 1f09 4b3b 9186 ffbb
000000b0: a77f 043c 82ba 5ab9 04d7 a43c e092 5135
000000c0: 1564 463b 25b5 94bc aee3 323c cb10 afbc
000000d0: 7610 b23c 812f b335 5402 6539 4bd7 03bc
000000e0: f377 9d3a 90da d039 27ae bf3c 06e1 f33b
000000f0: 6cbd 9d3b b393 843c bd6e 98bc 80d9 2139
00000100: 40be cfba b968 a1bc 38c7 5d39 64bc 9d3a
00000110: 7350 61bc 7a6c f4bb 3fe8 aaba f543 273b
00000120: d458 4ebc 0d60 693b f1f8 5839 6102 c9b9
00000130: a5e0 9ebc c9c7 99bb 00d0 313c bf13 0100
00000140: 3e4b 8836 98c6 5139 752c 873c 00c4 ed37
00000150: 42b9 57bc aded a9bc e954 483c fb4c a53c
00000160: 84c6 f59f 4266 783c ce18 b83c 5440 8bb1
00000170: 6b4d a7bc 6d33 c53c 25d9 acbc bc65 80bc
00000180: 07d3 c9bc 7b4c 913c d386 49bc b850 c502
00000190: bdbc b928 24e9 a0b9 fba7 c73c 5b7d 23bc
000001a0: ab08 23bb 4ffa 0738 4679 f5bb 7a43 82bc
000001b0: c3ae 0f3c 2a43 483c 0e92 b9bc 2da0 a4ab
000001c0: b3ca c5b4 edfb 573b c597 4d34 d1fd 16bc
000001d0: 0716 96bb 44d0 863c 7855 4eb9 3a19 333a
000001e0: 0e7a 3d01 4c3d 93bb b81d d73b c552 a73c
000001f0: 4c7d c73c 5729 aebc f8b6 5dbc 947c e2ba
00000200: 52f3 61bc 13aa 07b8 db16 c03c 9ff2 76bc
00000210: 2b69 c2b9 89ca 083b ac5b 79bc 9990 babb
00000220: a0d7 0f33 869b 72bc 7ebf a4bb f98f e93b
00000230: 9cce 212c 5913 0180 ff72 913c d353 893c
00000240: 09ce 253b 4314 cc38 b22a 883c f88a 6722
00000250: 2b60 a63b 787e 3d3c 4332 793b 3aac a2bb
00000260: 9ba4 b6bc 9d97 903c 2174 babb 29d8 39bc
00000270: 16ec b43c 3003 d1ba 9bc1 beb8 83e4 7bbc
00000280: d153 0eba 4361 3dbc d0b5 663c 6cbc b63b
00000290: c60d caba 30dd 259b 4ebb 83ba a267 b13a
000002a0: 1fd5 6fbc fde8 0b3a b44e 95bc 43d6 6fbc
000002b0: 8b86 b2bc c3cd 86b9 adce 2e39 e25c 473b
000002c0: e7b3 b73c a3da 0820 f6b9 2439 bb69 3e3a
000002d0: 1954 273b ed37 59bc 1c97 02bc 45e7 be29
000002e0: 1caf a3bc a20e d638 ab4a 9fbc 973d 2b97
000002f0: 9ee5 e43b 3fbb c63c e7ca b23a eae7 5dbc
00000300: 1a57 2638 2f37 953c fcd1 e03a 1d29 e7b8
00000310: e7e6 a738 9619 b6bc 018f 2d3b 5faf 8bbc
00000320: 54e0 233c c425 893c 92ae 7c3c 7dde 3638
00000330: 58a5 653c e874 a6bc 957d fc3b 0ed9 75bc
00000340: a7a2 ce3b de1f 5bbc 303b d5ba c57e 303b
00000350: f9d8 153b 5225 973c d7d1 3cbb e35c fbb7
00000360: b1bb 3bbc 1518 653b 0e27 cd3c 4b54 bf3b
00000370: e02f 94b6 4812 46bc 959d 6338 2961 aebb
00000380: ffa1 70a9 9449 141f fc41 82ba 6a5b 9e3c
00000390: 7ba7 65bc 6fd7 8fbc 3318 0dbc 918e b138
000003a0: 4bdd 55bc f4c7 b33c 9bbc a13c 177c 103c
000003b0: 6d79 2407 e427 93bc 51d7 a8ba e444 a5bc
000003c0: 7956 b135 8667 b9bc c20b 973c 3df0 e4b9
000003d0: 42cc 4f3b d633 633c 8699 6cbc 4d4f 16bb
000003e0: 0a8e f4b9 8e00 17b5 3620 4a3c 2774 06bc
000003f0: b0d1 b499 e8eb 77bc ef25 4c3c 234c 953a

fc2.bias f4 [128]
7.7233764e-10 0.03423664 0.017349852 -0.016852878 -0.01505881 0.030742973 -0.007201747 -0.025053231
-0.019632125 -0.010917621 -0.019081425 -0.016772822 0.030751595 -0.005029482 0.028902894 0.0063292957
0.00023242239 0.014325279 0.011261614 -0.041544106 -0.021769876 -0.025450183 -0.0030816393 0.044757158
-0.03459976 0.0018101567 -0.037797023 0.014301893 0.0043043857 0.028970992 -0.001990637 0.0025973318
-0.017884102 -0.037325017 -0.02306642 0.008391735 -0.034552105 0.014077799 -0.0039845286 -0.005048014
-0.031123063 0.044613503 -0.01829795 0.017610485 -0.0315406 -0.021853928 0.022874592 0.0054448717
0.020497104 -0.015380146 -0.019589068 7.484936e-09 0.029626163 0.0006746568 0.0036434417 0.005519856
-0.0080912765 -0.036084175 -0.008525862 0.02336865 0.01566648 0.02903922 -0.033510674 0.002158119
0.0031684546 -0.037022937 0.04121995 -0.023204386 0.014646823 0.021805938 0.024954524 -0.030366385
-0.03586312 0.020375164 0.0052036643 0.0440678 -0.03754509 -0.0331837 -2.6070786e-06 -0.0006675879
2.0318064e-18 -0.014309757 -0.023141835 -0.022154855 -0.010141547 -0.01298003 0.021172063 0.039125327
0.028267302 0.036613144 0.02209277 -0.034955293 -0.04177042 0.014582587 -0.010928616 -0.026842456
-0.009395003 0.03113585 0.00020646912 0.014159402 -0.020340586 0.029422086 0.041180283 0.032052647
-0.03137275 0.024545161 0.0045926007 -8.0182064e-05 -0.016070398 3.645755e-07 0.030857349 0.007889337
-0.033171464 -0.030053481 0.013338233 0.025211884 0.0022970755 0.04027177 -0.022377463 0.026236774
-0.024018103 0.0048441817 0.02636018 0.025420686 0.0030218633 0.01857204 0.0047822897 -0.0045673735
00000000: 6e4c 5430 b83b 0c3d 4721 8e3c 0c0f 8abc
00000010: 3ab9 76bc b0d8 fb3c a2fc ebbb 6f3c cdbc
00000020: 8dd3 a0bc d2df 32bc a650 9cbc 2867 89bc
00000030: c5ea fb3c 5ace a4bb c3c5 ec3c fb65 cf3b
00000040: 69b6 7339 93b4 6a3c a282 383c 272a 2abd
00000050: bd56 b2bc e77c d0bc 54f5 49bb 4853 373d
00000060: 7ab8 0dbd c842 ed3a 0dd1 1abd 7d52 6a3c
00000070: ce0b 8d3b 9354 ed3c 5975 02bb ff37 2a3b
00000080: ae81 92bc 1ee2 18bd caf5 bcbc 7d7d 093c
00000090: 8286 0dbd 92a6 663c a690 82bb d069 a5bb
000000a0: cbf5 febc a6bc 363d 95e5 95bc dd43 903c
000000b0: b730 01bd 0207 b3bc 7f63 bb3c e56a b23b
000000c0: 8be9 a73c 02fd 7bbc 4179 a0bc 1997 0032
000000d0: 91b2 f23c 74db 303a cfc6 6e3b e8df b43b
000000e0: 4691 04bc 00cd 13bd 0fb0 0bbc 9c6f bf3c
000000f0: fd56 803c a9e3 ed3c 7d42 09bd 3b6f 0d3b
00000100: d9a5 4f3b 5da5 17bd 40d6 283d 2017 bebc
00000110: 3af9 6f3c 5ea2 b23c 6e6d cc3c edc2 f8bc
00000120: 35e5 12bd d1e9 a63c 8083 aa3b 7080 343d
00000130: e1c8 19bd a2eb 07bd 45f5 2eb6 1101 2fba
00000140: bdeb 1522 7973 6abc f293 bdbc 197e b5bc
00000150: bb28 26bc 31aa 54bc 0971 ad3c e141 203d
00000160: d490 e73c aaf7 153d e6fb b43c 482d 0fbd
00000170: 7617 2bbd ceeb 6e3c f00d 33bc b6e4 dbbc
00000180: 80ed 19bc 9c10 ff3c a27f 5839 d6fc 673c
00000190: 4da1 a6bc 9606 f13c a8ac 283d a349 033d
000001a0: b680 00bd ef12 c93c 877d 963b 6b27 a8b8
000001b0: 11a6 83bc e0ba c334 8dc8 fc3c 4742 013c
000001c0: cdde 07bd b832 f6bc 9b88 5a3c 2789 ce3c
000001d0: 888a 163b 03f4 243d f150 b7bc 81ee d63c
000001e0: 9dc1 c4bc f1bb 9e3b 4ef1 d73c 0b3f d03c
000001f0: 740a 463b 6424 983c c1b4 9c3b e8a9 95bb

fc3.weight f4 [64, 128]
-0.016110374 -0.04765291 0.053651486 0.041363418 -0.023676721 -0.008291016 0.00912367 -0.010262453
0.0645234 -2.7646183e-23 -0.057492055 -0.040021483 -0.017485386 -0.059163064 0.08730095 -0.05106566
0.06845995 0.006906664 -0.06394372 -0.017969815 0.057707973 6.069894e-05 0.015412138 -0.07743318
0.018905805 0.005222488 0.05663289 -0.013755047 0.06128219 -0.061743397 -0.06092739 -0.00449201
-0.0059164027 0.016248053 0.08318172 0.07377505 -0.013868308 -0.04452026 0.00471552 0.03803252
0.0071979496 0.028738908 -0.07875096 0.018222278 0.079442225 0.005587796 -0.06739294 0.076027624
-0.040439438 0.017253185 0.07553518 -0.016049433 0.020616846 0.019084482 0.027831724 1.9539043e-06
-0.064446434 0.07296453 -0.01724533 -0.06831154 0.05957123 -0.0853364 0.037080072 -0.0056341058
-0.08784008 -0.08053879 0.06517645 -7.885583e-17 -0.016539656 0.045139454 -0.040653456 -0.005577316
0.012931681 -0.054282025 -0.051776905 0.05375956 0.072561495 -0.021119403 2.2042624e-13 0.044635538
0.0018227759 -0.06311214 -0.07350886 0.044294056 0.029705873 -0.0119372755 -0.011239034 -0.046111062
0.06980342 0.01281034 0.009703753 -0.051494423 0.0856949 0.021478927 0.037859507 0.067597166
-0.0035167828 0.011354136 0.0131301815 -0.0058489605 -0.00096374884 -0.016886882 -0.087818526 0.049862526
0.02608117 0.046189364 -0.05078489 0.0027316017 -0.017397527 0.050268434 0.03190447 -0.04487492
0.024163999 0.060080536 -0.06780429 0.016151195 -0.05515015 0.056414653 -0.02832765 0.017552672
-0.0684442 0.082478836 -0.03685545 0.0035308003 -0.06992841 -0.02043036 -0.06046993 0.055735532
-2.1182797e-24 0.05444574 -0.04765955 -0.055781547 0.05084076 0.024569973 0.006634769 0.053012006
-0.042676408 0.057786018 0.06881099 -0.0061197137 0.0007216018 0.06613931 0.03420827 0.01613117
0.043015514 0.0024947594 0.033474296 0.06394865 -0.006311098 -0.050234474 -0.010852423 -0.06336972
0.009650688 -0.018588267 0.00049866975 -0.03142738 -3.842853e-05 -0.053367518 -0.070255525 0.040242996
-0.059298657 -0.04792509 0.03743141 -0.07002561 -0.021320978 0.07389389 0.0019596072 -0.064762905
-0.025657421 -0.009073347 -0.08539122 0.058501896 -0.02323795 0.054743823 0.04967125 -0.04099733
0.008446917 -0.06635974 0.04550342 -0.04219161 0.06924428 0.0023430898 -0.08086119 5.9126643e-05
0.05399761 0.019557178 0.010329539 0.06446609 0.06364615 0.01926626 0.063054435 -0.029964888
-0.019376058 0.000454445 0.08583063 0.014998895 0.051100146 -0.011120952 -0.04935799 0.0058406824
-0.06776081 -0.0073231696 0.021429382 -0.06762217 -0.017086204 -0.03388018 0.002574301 -0.0045207217
-0.0320988 -0.005488088 -0.057962805 0.03293907 -0.08364058 0.018369038 -0.070777155 0.026230557
-0.0073322323 0.033350967 -0.08620141 0.046464626 0.042682294 0.0355919 -0.031442434 0.01095751
0.07079815 0.027475754 -0.057685696 0.040385563 -0.067712225 -0.042323034 0.060889322 0.009505567
0.014615985 -0.001982086 -0.03911638 -9.8933e-41 -0.054501887 -3.597841e-17 0.032035198 0.010734753
0.045007553 0.07918264 0.05752822 0.049839363 -0.019497333 -0.05803287 0.07141709 0.06584753
-0.08127632 -0.053945422 -0.005705641 0.001702882 -0.07306519 -0.0016815402 -0.006205876 -0.018138343
00000000: e7f9 83bc b32f 43bd a9c1 5b3d b06c 293d
00000010: aff5 c1bc 0bd7 07bc 727b 153c d923 28bc
00000020: d824 843d 51b0 059a ca7c 6bbd 91ed 23bd
00000030: 833d 8fbc f854 72bd d7ca b23d 3a2a 51bd
00000040: bb34 8c3d 4c51 e23b edf4 82bd 6f35 93bc
00000050: 325f 6c3d fe96 7e38 3183 7c3c 4995 9ebd
00000060: 59e0 9a3c 6821 ab3b e4f7 673d d95c 61bc
00000070: 0903 7b3d a5e6 7cbd 008f 79bd b631 93bb
00000080: 62de c1bb a31a 853c 2d5b aa3d 6017 973d
00000090: e637 63bc e05a 36bd a684 9a3b fdc7 1b3d
000000a0: c7dc eb3b dc6d eb3c 2f48 a1bd e346 953c
000000b0: 9bb2 a23d d519 b73b 4f05 8abd 5fb4 9b3d
000000c0: d3a3 25bd 8d56 8d3c 30b2 9a3d 1a7a 83bc
000000d0: a9e4 a83c 0f57 9c3c 5bff e33c d21f 0336
000000e0: 7efc 83bd 6d6e 953d 1446 8dbc ece6 8bbd
000000f0: f600 743d dac4 aebd 46e1 173d 4e9e b8bb
00000100: 80e5 b3bd 85f1 a4bd 3b7b 853d 44d4 b5a4
00000110: 2c7e 87bc 26e4 383d 3d84 26bd ebc1 b6bb
00000120: 67df 533c d456 5ebd 0514 54bd fc32 5c3d
00000130: 1f9b 943d 9902 adbc 8a2d 782a c1d3 363d
00000140: 36ea ee3a f040 81bd d08b 96bd af6d 353d
00000150: bb59 f33c 9094 43bc ed23 38bc f4de 3cbd
00000160: 18f5 8e3d 76e2 513c 7dfc 1e3c d1eb 52bd
00000170: cf80 af3d 93f4 af3c 9212 1b3d 6270 8a3d
00000180: d379 66bb b306 3a3c f91f 573c a3a8 bfbb
00000190: 17a4 7cba 5c56 8abc 33da b3bd a63c 4c3d
000001a0: 2ea8 d53c 0f31 3d3d d103 50bd ac04 333b
000001b0: 4285 8ebc 46e6 4d3d 43ae 023d c4ce 37bd
000001c0: 94f3 c53c 0217 763d fadc 8abd 834f 843c
000001d0: 20e5 61bd 0d13 673d 630f e8bc 9fca 8f3c
000001e0: 792c 8cbd aaea a83d bef5 16bd 0065 673b
000001f0: a036 8fbd 925d a7bc 51af 77bd f14a 643d
00000200: dae4 2398 7f02 5f3d a936 43bd 317b 64bd
00000210: 673e 503d f846 c93c 7a68 d93b 1e23 593d
00000220: 75cd 2ebd 08b1 6c3d c7ec 8c3d e187 c8bb
00000230: e129 3d3a 0c74 873d f91d 0c3d 8425 843c
00000240: 0931 303d 1e7f 233b 581c 093d 83f7 823d
00000250: 54cd cebb aac2 4dbd 5cce 31bc fcc7 81bd
00000260: eb1d 1e3c 6c46 98bc 29b9 023a ffb9 00bd
00000270: 522e 21b8 e697 5abd 21e2 8fbd d7d5 243d
00000280: 26e3 72bd 194d 44bd ae51 193d 9669 8fbd
00000290: 55a9 aebc ae55 973d c16c 003b 6aa2 84bd
000002a0: 832f d2bc 60a8 14bc 98e1 aebd af9f 6f3d
000002b0: 835d bebc 0f3b 603d 1574 4b3d d1ec 27bd
000002c0: f064 0a3c 9ee7 87bd cb61 3a3d 1cd1 2cbd
000002d0: f2cf 8d3d 868e 193b 8d9a a5bd c0fe 7738
000002e0: 992c 5d3d 6036 a03c 3a3d 293c cc06 843d
000002f0: ea58 823d 47d4 9d3c af22 813d ed78 f5bc
00000300: 8aba 9ebc 9342 ee39 f8c7 af3d edbd 753c
00000310: 634e 513d a734 36bc 9b2b 4abd 3263 bf3b
00000320: 2ec6 8abd 33f7 efbb ac8c af3c 7e7d 8abd
00000330: 5ef8 8bbc f2c5 0abd 9bb5 283b 9022 94bb
00000340: 087a 03bd 6bd5 b3bb 686a 6dbd 1eeb 063d
00000350: c14b abbd aa7a 963c 9df3 90bd 77e1 d63c
00000360: 3943 f0bb 069b 083d 5d8a b0bd b151 3e3d
00000370: a1d3 2e3d d0c8 113d c8c9 00bd 2187 333c
00000380: 9ffe 903d d514 e13c d647 6cbd 556b 253d
00000390: b5ac 8abd eb5a 2dbd 1567 793d 3dbd 1b3c
000003a0: e277 6f3c e3e5 01bb 7f38 20bd c913 0180
000003b0: 5f3d 5fbd cfeb 25a4 5737 033d d1e0 2f3c
000003c0: d759 383d 822a a23d b6a2 6b3d 5c24 4c3d
000003d0: dfb8 9fbc e0b3 6dbd 2043 923d 12db 863d
000003e0: 3374 a6bd e0f5 5cbd 63f6 babb 3d33 df3a
000003f0: 34a3 95bd 2067 dcba a95a cbbb dd96 94bc

fc3.bias f4 [64]
0.07902459 -0.061753344 -0.07139135 -0.011949608 0.005766858 1.5658816e-09 0.0029283273 -0.005882526
0.03192526 0.014700604 -0.052752584 -0.06795494 0.073257156 -0.015343271 0.024516467 -0.05928764
-0.035612095 -0.048274025 0.049199704 -0.050336428 -0.010880576 0.07953635 0.0015943061 -0.05268778
-0.025988886 0.067606606 0.017403968 -0.0827464 -0.034219507 0.06077904 -0.0073356293 -0.01753182
-0.001046965 0.070571065 -0.05344987 -0.004468347 0.015021236 0.01999708 0.01832317 -0.07559779
-0.052045647 -0.028323358 -0.07747115 0.014218965 0.05687665 0.06396849 -0.08132001 0.0659163
-0.05137289 0.06830777 -0.006918942 -0.01515378 0.016890217 -0.051670976 0.012462268 -0.06704128
0.00045211677 -0.07336752 -0.018138431 0.045479156 -0.012762195 0.0389638 -0.06624876 0.07755788
00000000: a5d7 a13d 13f1 7cbd a135 92bd 4ac8 43bc
00000010: e9f7 bc3b 9036 d730 2ee9 3f3b 34c2 c0bb
00000020: 10c4 023d cdda 703c 1813 58bd f62b 8bbd
00000030: d907 963d 5862 7bbc c2d6 c83c 99d7 72bd
00000040: fddd 11bd fcba 45bd a185 493d 922d 4ebd
00000050: 7244 32bc f4e3 a23d 09f8 d03a 24cf 57bd
00000060: a5e6 d4bc 5575 8a3d c492 8e3c f276 a9bd
00000070: c129 0cbd 71f3 783d b85f f0bb e49e 8fbc
00000080: 513a 89ba 9087 903d 40ee 5abd 366b 92bb
00000090: a11b 763c ebd0 a33c 791a 963c 04d3 9abd
000000a0: d12d 55bd 6306 e8bc 32a9 9ebd a9f6 683c
000000b0: 7df7 683d e901 833d 1b8b a6bd 20ff 863d
000000c0: 616c 52bd f2e4 8b3d 4bb8 e2bb 8f47 78bc
000000d0: 5a5d 8a3c f2a4 53bd 8a2e 4c3c f04c 89bd
000000e0: 160a ed39 b641 96bd 0c97 94bc 5a48 3a3d
000000f0: 8718 51bc 8198 1f3d 6ead 87bd aad6 9e3d

fc5.weight f4 [1, 64]
-0.08453647 -0.0857249 -0.12041837 1.7767628e-17 -0.1220275 0.002546927 -0.02054904 0.05285858
-0.075669885 0.032957684 0.029428562 -0.05322887 0.07078106 0.008475331 -0.059645116 -0.051854324
-0.03711648 0.046591666 -0.08519878 0.05112217 -0.010019419 0.008898503 0.020086484 -0.08340456
-0.05248545 0.08630495 0.01866508 -0.092140146 -0.02696937 -0.085426524 0.01638395 -0.100506626
-0.072875425 0.06501015 0.041302815 -0.0041454295 -0.124275886 0.07152303 0.023653898 -0.036791135
-0.040271692 -0.07508553 0.05148043 -0.05066882 -0.0749766 -0.05517373 0.040599383 -0.08791596
0.0025186029 0.09787101 -0.040925354 -0.0039660553 -0.10314704 -0.006245594 -0.04475092 -0.08495079
0.016828798 -0.07975393 0.07714155 0.04675303 -0.015449762 -0.092213705 0.08958973 0.09909282
00000000: 7521 adbd 8990 afbd e89d f6bd a0e0 a323
00000010: 8ee9 f9bd 58ea 263b 7656 a8bc 3d82 583d
00000020: d0f8 9abd a3fe 063d 2b14 f13c 8406 5abd
00000030: a9f5 903d 1ddc 0a3c 704e 74bd 3365 54bd
00000040: 7307 18bd e7d6 3e3d b37c aebd 7b65 513d
00000050: 7d28 24bc 07cb 113c 698c a43c 03d0 aabd
00000060: fcfa 56bd a6c0 b03d 83e7 983c f9b3 bcbd
00000070: deee dcbc 1af4 aebd a237 863c 6bd6 cdbd
00000080: b63f 95bd 0b24 853d 242d 293d 62d6 87bb
00000090: 5b84 febd ab7a 923d d2c5 c13c 4db2 16bd
000000a0: eef3 24bd 71c6 99bd 25dd 523d 1c8a 4fbd
000000b0: 558d 99bd d9fd 61bd 8a4b 263d 480d b4bd
000000c0: 250f 253b 9970 c83d 58a1 27bd aff5 81bb
000000d0: c13e d3bd d7a7 ccbb be4c 37bd aefa adbd
000000e0: 8cdc 893c 0756 a3bd 64fc 9d3d 1b80 3f3d
000000f0: 0021 7dbc 8ada bcbd d27a b73d 2df1 ca3d
