REEM/model/best-model/New Orleans/model_pop_best.pth (torch, 18836 bytes, 7 tensors)

fc1.weight f4 [100, 5]
00000000: 5cc6 62bd e0ce 363e 2a52 e63e 7993 d63c
00000010: 5702 b13d c4b4 9b3e c0a0 07be 62db 94bd
00000020: c646 8abe a87d a4bd a13c 273e cf70 c5be
00000030: f369 b83e c73d a33e d3a7 a4bd f4d5 30bd
00000040: 37cb 54bd 4017 293f 3850 233c 1bde 0bbe
00000050: d5dd 1cb0 6c84 87ad 6b70 c7a7 4025 962a
00000060: 7240 a435 052c 0a3e 2919 2b3e dc1a a1bd
00000070: 5b19 2cbd 0302 653e 7c0b 3a24 1ac3 3426
00000080: b191 39a5 2c8a 6ba7 a267 fb2c 662a 843e
00000090: 17bb 19bf 07c0 c63e 3beb 7abe cdd8 143e
000000a0: e1e6 793d 4585 c83e 7269 d2bd 9808 653e
000000b0: c23a 38be c0a2 c2be 56f6 fb3d 9d90 f03d
000000c0: 1829 7abe d6ce 043f fffb 0b3d 0906 a93e
000000d0: a378 153d 07cc ad3e dd55 2cbe 45c5 a63e
000000e0: e994 a13e 7673 223e 3953 6bbe 6d97 943e
000000f0: b297 033c 55eb dbbc bb3a 8eb9 c72e 58bd
00000100: 1242 223b c3d9 253e 215d 2a3e 97b7 093e
00000110: 585d b6bd a180 93bc 9187 d5be 2a66 af3e
00000120: dbb1 d33d a1fc 9bbe f32c 0ebe 0fea 283e
00000130: ae9c 633e ad12 c23c 2357 4e3e 67a6 bfbd
00000140: 6344 54bd 11b5 333e d069 c33b fb91 43bf
00000150: fcd1 4f3e 645b 9b3e 759b ffbe 82ab 66bd
00000160: 6015 9ebe 4143 acbd 73a8 a33e c203 44be
00000170: 305c cf3d 7dd0 36bd 3ef8 343e 27de f83d
00000180: c35c 813e efd5 223a eb10 c13e 6b7a b83e
00000190: 9075 9c3e e926 85be e962 dd3e 76ef 8fbe
000001a0: c613 74be 8732 69bd 3730 5fbe a2df 5b3f
000001b0: 7ed5 f0bd 6343 093e f247 e63d bcd8 d6bc
000001c0: 9afd 633e a8e9 b03e 62fa bc3d 2614 09bd
000001d0: 700d bc3e 4385 483e 08e7 48bf bb35 243e
000001e0: 7b40 f3be 8eeb b23e 101c 5a3e 23ff c23e
000001f0: 643e 983c a433 c2be 6687 773e 2fe2 9a3e
00000200: 3b81 df3e de94 48be ea38 73be 8f47 88be
00000210: 6d37 cd3e 8651 c53e e30f 3e3e ae88 9f3e
00000220: 70fe 973d 3bee b23e 0a1b b83e f5a1 723e
00000230: 4f56 65a7 be40 682a 1cce 15a5 170f f6aa
00000240: af54 0127 7d78 c4bd 7f3b 25be b848 cc3e
00000250: c99c bf3e 20fd 2d3e 5399 63be 605f ab3e
00000260: 8879 3c3d 35c4 ccbd d235 863d 8e1f 93be
00000270: 7202 ad3e 1662 b2bd 79b1 cbbe 2028 fa3c
00000280: a3d7 acae fee5 8f30 8fb1 a7ad a809 18b1
00000290: f771 65af 7527 d7be 513d 8e3e 8768 6b3e
000002a0: e60c 903e 9745 11be 549b 0cbe 9758 27bd
000002b0: c90b 4cbc 9245 ea3d 55b8 d13c 5b35 32be
000002c0: 9144 c6be ba66 753c 3348 87be a24d a63e
000002d0: 530d 893e 7c6f f0be 292e eb3e 3a68 febd
000002e0: 32b5 9e3d d3f1 b43c ec9f c4be 8a58 f73e
000002f0: 362c 913e b080 b8be 49c4 d2bc 40ba f2bd
00000300: 4e24 793e f051 23be 5aeb fb3d 9fa9 373d
00000310: 9f4c 50bd 457d 533e 57ad bb3d 49d0 973d
00000320: 477e 963e a62f b1be eaee 0e3f b14e 8ebd
00000330: 6792 6d3b 2eac 1ebd f078 35bc b3d4 0c3f
00000340: 3883 993e 564b 0bbe 19aa 713e 67b7 a7be
00000350: 9184 f43e 29eb 173f 915c 98be 98a2 803d
00000360: 141d 13be 8674 eb3e c7a7 56be 869b 3e3e
00000370: eadc c2be 78c5 52bd e9ad 703e 7377 273e
00000380: cdd4 3ebd 1f3c e9bc 8989 b0be 8769 973e
00000390: fbfd 0b3e 3c33 bbbd 9a55 bdbe 6764 1c3e
000003a0: be5a 2a3e 2c13 d93e b96c bb3d 7a3e 5e3e
000003b0: 3397 213e 115c 8a3d d6a9 1ebd 5d68 6d3e
000003c0: 7862 963e 1584 59be 8d78 5b3e 8a9a bb3e
000003d0: 5e4a a03d 2701 223e 6061 393e 6fa5 563e
000003e0: 89ad a33e 82b1 643e a82b 3e3e 946f 9e3c
000003f0: e6b2 6c3e 0f23 d93b 56d2 1fbc 2483 59be
-0.05536495 0.17852354 0.4498456 0.026193367 0.086430244 0.3041135 -0.13244915 -0.072684065
-0.2700712 -0.080317795 0.16331722 -0.3856263 0.36018333 0.3188307 -0.080398224 -0.04317279
-0.051951613 0.660511 0.009967856 -0.13658945 -5.706771e-10 -1.540653e-11 -5.535548e-15 2.66712e-13
1.2237708e-06 0.13493355 0.16708817 -0.07866451 -0.04201637 0.22364049 4.034205e-17 6.2714457e-16
-1.6095554e-16 -3.2687704e-15 7.1453546e-12 0.25813597 -0.600511 0.3881838 -0.24503796 0.14535828
0.0610112 0.39164177 -0.10274018 0.2236656 -0.17991164 -0.38014793 0.12302844 0.11746333
-0.24429739 0.51878107 0.03417587 0.33012417 0.036492 0.33944723 -0.16829629 0.3257238
0.31558922 0.15864357 -0.22980966 0.2902178 0.008031772 -0.026845613 -0.00027128108 -0.052778985
0.002475862 0.16196351 0.16637088 0.1344894 -0.08904523 -0.018005671 -0.4170499 0.34257632
0.103366576 -0.30466178 -0.13884334 0.16495536 0.22227737 0.023690546 0.20150428 -0.093579106
-0.05182303 0.1754954 0.0059635416 -0.76394624 0.20294946 0.30343163 -0.49923292 -0.056315906
-0.30875683 -0.08411265 0.31964454 -0.19142058 0.10125005 -0.044632424 0.17672822 0.12151747
0.25266084 0.0006211688 0.3770822 0.36030897 0.30558443 -0.2600625 0.43239525 -0.28112382
-0.23835668 -0.056932952 -0.21795736 0.8588811 -0.117594704 0.13404612 0.11244191 -0.026226394
0.2226471 0.34553266 0.09227444 -0.03346648 0.36729002 0.19582085 -0.78477526 0.16036122
-0.47510132 0.3494534 0.21299767 0.3808528 0.018584438 -0.37930024 0.24172744 0.3025069
0.43653283 -0.19588038 -0.2375218 -0.26617095 0.4008135 0.3853876 0.18560748 0.31158966
0.07421577 0.3494738 0.3595813 0.23694594 -3.1826922e-15 2.0628201e-13 -1.2993522e-16 -4.370885e-13
1.7948253e-15 -0.09593294 -0.16135977 0.3989923 0.37424305 0.16991091 -0.22226457 0.33471203
0.04601434 -0.09998361 0.06553234 -0.28735012 0.33790928 -0.08710115 -0.39783838 0.030536711
-7.859959e-11 1.0469987e-09 -1.9064554e-11 -2.21244e-09 -2.0867917e-10 -0.4202229 0.27781156 0.22989093
0.2813484 -0.14186703 -0.13731128 -0.04085597 -0.012453982 0.11439051 0.025600592 -0.17403166
-0.38724187 0.014978105 -0.2642227 0.32481104 0.26767978 -0.46960056 0.45933655 -0.124222234
0.07749404 0.022087967 -0.3840326 0.48309737 0.28354043 -0.3603568 -0.025728362 -0.118519306
0.24330255 -0.15949225 0.12300749 0.044839498 -0.05085432 0.20653255 0.09163921 0.07412774
0.29393217 -0.34606665 0.55833304 -0.06948603 0.0036250593 -0.038738422 -0.011076197 0.55012053
0.29982924 -0.13602957 0.23600043 -0.32757112 0.4775739 0.593432 -0.29758123 0.06281012
-0.14366561 0.45987338 -0.2096244 0.18614015 -0.3805917 -0.051457852 0.23503841 0.1635416
-0.04658966 -0.02847105 -0.3447993 0.29572698 0.13671105 -0.091406316 -0.3697937 0.15272675
0.16636178 0.4239744 0.091515966 0.2170352 0.15780334 0.067558415 -0.038736187 0.23184343
0.29372 -0.21241792 0.21432705 0.3664134 0.078266844 0.15820752 0.18103552 0.20961545
0.31968334 0.22333339 0.18571341 0.019340314 0.2311512 0.0066264938 -0.009754738 -0.21241432

fc1.bias f4 [100]
00000000: 9b7f d03e f515 523e 0949 c83e 44e7 bc3c
00000010: 7a93 8ab5 5e49 1a3e 22ea ebb5 7f48 863e
00000020: cafa 6ebe 1dbb ab3d 47e2 3ebe 286c a83e
00000030: b255 a6bc b401 f7bd 1ee1 8f3e a7a8 56bd
00000040: 8f83 7abc 4b4c 863e 92da 073e 9a14 8e3e
00000050: ddaf 813e 6cab 393e 0377 9bbd 7597 1bbe
00000060: 507e 8ebe 89d5 cd3e 7333 083e c851 b83e
00000070: e7c8 9fb5 5f71 523d ceb8 36bd fed9 ca3e
00000080: cdea 4bb1 b22d 15be bdc0 9f3e 9aeb d93e
00000090: ad9b 223e b112 6cbc 6f77 d03e 675f be3e
000000a0: e8f6 c73d 923f 82bd 4116 5dbe 79a4 2e3d
000000b0: 304e 813e 0242 483e 9c3f 903e 3d5d 6c3e
000000c0: 6b25 1ebe fc5b 54be a0bc ac3e b4ae c8bd
000000d0: c6b3 c13e 8914 f0bc 42b2 c8bb 24fe 90b3
000000e0: 986b 74bd e39c e4bc 0c53 583e 4071 ed3e
000000f0: acc3 4d3d 526b 7b3e be64 333e 5441 643d
00000100: 7445 b13c fbc1 883b 5fe3 68b6 72a9 643e
00000110: 5635 a23e 73c1 b23d 1282 b13e 7525 be3e
00000120: 773c 03b3 086c 49be 56c0 e03d 764e a63e
00000130: 7edb cb3d 86c3 95bc 61fd 6fbd 4189 233c
00000140: 811e 1a3e 3259 523e ed52 a5bc 85c4 d1b8
00000150: 61d1 e33e 1f2d 853e 7040 f33c 5c82 3abc
00000160: 56c6 35be e6e0 4f3e 93a5 72bc f34a e93e
00000170: c7b8 4a3e 0fa8 13b9 1bde a23e 8028 04be
00000180: 5d2c 58be d79d 3bbe f73e 0fb2 0115 56b9
0.40722355 0.20516188 0.3911822 0.023059495 -1.0324723e-06 0.1506705 -1.7577006e-06 0.26227185
-0.23337856 0.083852984 -0.18641005 0.32895017 -0.020304535 -0.12060872 0.28101438 -0.052406933
-0.015290155 0.26230082 0.13266972 0.27750093 0.25329486 0.18131799 -0.07591059 -0.15194495
-0.27830744 0.40201977 0.13300876 0.35999894 -1.1904893e-06 0.05137765 -0.044609837 0.3961944
-2.9673857e-09 -0.14568213 0.31201735 0.42562562 0.15879698 -0.014408753 0.4071612 0.3718216
0.097638905 -0.06359781 -0.2159052 0.042637322 0.25254965 0.1955643 0.2817353 0.23082443
-0.15443961 -0.20738214 0.3373766 -0.09798947 0.3783247 -0.029306667 -0.0061247656 -6.7517504e-08
-0.059672922 -0.02790684 0.2112543 0.46375465 0.050235435 0.24552658 0.17518899 0.055726364
0.021639563 0.004173515 -3.4703041e-06 0.22330263 0.31681317 0.08728304 0.34669548 0.37137952
-3.0555807e-08 -0.19670117 0.10974185 0.32481736 0.09953974 -0.01828171 -0.05859125 0.009981454
0.15050699 0.20541838 -0.020181144 -0.00010002501 0.4449568 0.26010987 0.029693812 -0.011383619
-0.1775144 0.20300636 -0.014809984 0.45564994 0.1979705 -0.00014081619 0.31810078 -0.12906075
-0.21110673 -0.1832193 -8.338012e-09 -0.00020416455

fc2.weight f4 [30, 100]
00000000: b095 b03c ef43 523d 7ab2 bcbc 8f83 0025
00000010: 8384 4f27 1c90 293d 45d8 e7a6 13fe 3126
00000020: e0f0 1dbd 69a2 0626 09e6 ecbb 461f 64bd
00000030: 3622 64bc 021d 3fbc 3a0f 353d 69c4 80bc
00000040: 3e6a 4926 8fa1 55bb 3ec0 033c 58b5 09bd
00000050: 93d0 423c d921 72ad f4be 3b3d 3c09 80bd
00000060: 4f29 edbd 5ce4 a9bd 2f9b 7bbd 700b 69bc
00000070: 9438 c126 2eae e4bc 53ef 43bd b67d 673d
00000080: 635e 1e27 ba59 03bd c2fd 4d3d 75c4 0cbd
00000090: 3349 a224 65a6 afbb ad6d e9bd f1bd 543d
000000a0: 3b24 0a27 58bd 55bd 7466 b1af 982a 54a7
000000b0: 7224 cabd 0a9c 1ebd ed52 f3bd a50a f5bd
000000c0: 034b a6bc c340 813d 39c8 87bd fc6f ebbc
000000d0: d24e 183d e214 8b26 a30b 5ea6 d304 aca4
000000e0: bbd8 d43c 2819 5d3b 178b a43c d848 7abd
000000f0: 2250 8c3d 2c08 08bd d4e2 02bd c176 7bba
00000100: 5269 823d b3db 74bd 4485 afa3 9f47 b9bc
00000110: bea6 a0bd 1b65 87bb e948 e5bb 327d 9e3c
00000120: 3303 b726 6b25 b2a4 9f58 893c d5e0 c7bd
00000130: f8ed 643d ab0d bda5 733a faa6 6e09 32bd
00000140: ac39 8a3d 83fd 123d 097f a0bd 173d 5f26
00000150: 95e3 4f3d 0a72 c2a6 bd12 073d ba80 d526
00000160: ee33 cbbd d902 3b3d a1d7 ac25 5393 8e3a
00000170: c25b 82bb 108a 3fa6 bf91 d8bc 8beb 5fbd
00000180: 718a 8c26 ff18 a0bd a675 ac26 ff56 f3a6
00000190: 65b7 bc3c 4409 903c 0516 173d 6fad 09a6
000001a0: 0488 3326 4d9b 51bd 1a9f 7aa6 4ffa 1c26
000001b0: 2145 a7ba 2a11 47a6 692d 293d a7b5 48bd
000001c0: 62e6 3927 2878 2226 8a90 20bd a801 d63b
000001d0: e741 e1a6 6adf 303c b54c f538 a031 94bd
000001e0: 9511 64bd f56e 5ea5 80f4 1e3c 5bd0 afb7
000001f0: 5594 1f3b fb18 e9bd 3ad8 a8bd 40b2 d5bc
00000200: c97c 05a7 491f 9ebd 3b86 f9bc e778 cebd
00000210: 2996 c3a6 7b0c 8dbd e09f a93b 9226 3d3c
00000220: 043d 74a6 d3b2 30bc 96ba c33c e3ac 683d
00000230: a666 02a6 24e4 f6bc 24df 5627 13e5 2aa6
00000240: 313a 8f3c dfbb 15bc cbf4 823d 201b 9cbd
00000250: a47f 85bc 43c6 24bd b22d d73b 0cf9 d2b9
00000260: 2ac9 873d a32d 33a7 ecde 8124 13d4 f125
00000270: 8282 67bd e0d6 7ea8 51ad 62bc 8e53 a6bc
00000280: da9a d2bd cb74 e2bd 7c38 6a3d 56d3 86b7
00000290: 11f7 cabd 2c1d 8fbd 2266 d6a6 0c25 033d
000002a0: aecb 403d eb03 bfbd dffe e5bc a287 103d
000002b0: f599 be26 12b8 6625 01ed 40bc 67d4 5c3b
000002c0: 6912 13bd 7e65 85a2 e492 d223 237f 93bd
000002d0: e45d 87bc 7849 823d eeef 2e3b 204e cca3
000002e0: 06b6 64bd 1499 2a27 10f7 363b d97f eba4
000002f0: 2762 8028 527b 86bd 586b fb26 ed51 b3bc
00000300: e312 38bd fd79 0da6 75ca 98bd f997 3335
00000310: 73ae 58a6 bced 6dbd ac72 2527 7e99 1b27
00000320: 20a0 3038 4c8a fc30 184e fcad b225 7026
00000330: f52a 3825 6133 c4b2 9256 cc24 0c4e 2b27
00000340: 6c0e 8427 f673 8224 8285 8227 1977 97b9
00000350: aa35 8c26 2568 11a9 bd93 63b5 58f0 47ad
00000360: 3c5f 9526 5213 4528 07eb a9a8 1d7a 69b7
00000370: 906c d7ad 83f3 7626 ac94 9fa5 78bc 47a8
00000380: 2875 14a5 af58 b1b6 379b 3727 bd84 39b8
00000390: 571e 4b26 24ef 89a5 779b b2a9 2d93 0538
000003a0: 5780 8025 c4c4 ce26 e89e dbb3 4eea 97a9
000003b0: 31df f321 64a6 23a5 0018 3636 de62 85b6
000003c0: 7848 28a7 86a8 ce26 81ab f426 7b15 e8a6
000003d0: 41d0 29a6 2162 38a7 2df1 cdaf ccb8 9236
000003e0: 0b97 53a7 1d66 8ea7 6bba 9c38 4bbe 94a5
000003f0: 3cc8 25b5 5944 8026 8b7a a925 10f5 1ca6
0.021555752 0.051334318 -0.023034323 1.1146804e-16 2.8798856e-15 0.0413972 -1.6087465e-15 6.1753546e-16
-0.038559794 4.6710696e-16 -0.0072295708 -0.055693887 -0.013924172 -0.011664631 0.044203974 -0.015718656
6.987987e-16 -0.0032597517 0.00804144 -0.03362021 0.011890548 -1.3763623e-11 0.045836404 -0.06251761
-0.115801446 -0.08295509 -0.06142729 -0.014223918 1.3407401e-15 -0.027915087 -0.04783566 0.05651637
2.1978072e-15 -0.03206799 0.05029083 -0.034367044 7.0380305e-17 -0.005360412 -0.11397872 0.051938955
1.9170988e-15 -0.052182525 -3.226891e-10 -2.9444e-15 -0.09870233 -0.03872303 -0.11881051 -0.11964921
-0.02029944 0.063111804 -0.06629986 -0.028739922 0.037184544 9.650723e-16 -7.7037493e-16 -7.460128e-17
0.025982251 0.0033736918 0.020085854 -0.061104625 0.068512216 -0.03321092 -0.0319546 -0.0009592586
0.063677445 -0.059779834 -1.9029978e-17 -0.02261716 -0.078443035 -0.0041319258 -0.006997217 0.019346807
1.2699043e-15 -7.725858e-17 0.01676589 -0.0975968 0.055891007 -3.2795535e-16 -1.7363077e-15 -0.043466024
0.06749281 0.0358863 -0.0783673 7.745146e-16 0.05075415 -1.3492365e-15 0.032976855 1.4814735e-15
-0.09922014 0.045657013 2.998336e-16 0.0010877646 -0.0039782235 -6.6453546e-16 -0.026436685 -0.05466799
9.751976e-16 -0.078172676 1.1966786e-15 -1.6885093e-15 0.023036668 0.017582543 0.036886234 -4.776647e-16
6.2287436e-16 -0.051173497 -8.6951797e-16 5.4462604e-16 -0.0012761691 -6.9065256e-16 0.041303072 -0.049001362
2.5798798e-15 5.6367883e-16 -0.039200343 0.006530959 -1.5630374e-15 0.010795454 0.00011696798 -0.07236028
-0.05568083 -1.9293024e-16 0.009701848 -2.0958649e-05 0.0024349887 -0.11381718 -0.08244367 -0.026085973
-1.8525104e-15 -0.07720811 -0.030459514 -0.10081654 -1.3571544e-15 -0.06887146 0.0051765293 0.01154484
-8.4737197e-16 -0.0107848225 0.023892682 0.056805503 -4.5241925e-16 -0.030138083 2.981943e-15 -5.929105e-16
0.017483803 -0.00913903 0.06394347 -0.07622361 -0.016296215 -0.04022814 0.0065667266 -0.00040239876
0.06630166 -2.486598e-15 5.6322476e-17 4.1950543e-16 -0.056520946 -1.4146426e-14 -0.013835267 -0.020303514
-0.10283442 -0.11057433 0.057182774 -1.6072456e-05 -0.099104054 -0.06987986 -1.4876916e-15 0.032017753
0.047069244 -0.09326919 -0.028075634 0.0352856 1.3225629e-15 2.0011685e-16 -0.011775256 0.0033695938
-0.03590623 -3.615718e-18 2.2830456e-17 -0.07201984 -0.016524263 0.06361669 0.0026693302 -2.2150812e-17
-0.055837654 2.3675223e-15 0.0027918257 -1.02131587e-16 1.4253422e-14 -0.0656649 1.7445719e-15 -0.021889651
-0.044939887 -4.9084527e-16 -0.074604906 6.6903846e-07 -7.5176477e-16 -0.05808805 2.2960514e-15 2.159378e-15
4.2110798e-05 1.837472e-09 -2.8683764e-11 8.3317814e-16 1.597401e-16 -2.2840767e-08 8.861755e-17 2.3773326e-15
3.6652996e-15 5.657496e-17 3.6226998e-15 -0.000288897 9.728997e-16 -3.22868e-14 -8.477908e-07 -1.1365207e-11
1.0364765e-15 1.0939886e-14 -1.8864696e-14 -1.3916314e-05 -2.4490882e-11 8.5678415e-16 -2.7682847e-16 -1.1087587e-14
-1.2876648e-16 -5.285335e-06 2.5480494e-15 -4.423106e-05 7.047089e-16 -2.392776e-16 -7.931757e-14 3.184674e-05
2.2291427e-16 1.4347455e-15 -1.0226887e-07 -6.7463925e-14 1.6525399e-18 -1.4194372e-16 2.7134083e-06 -3.9752185e-06
-2.3353969e-15 1.43398e-15 1.6977387e-15 -1.6104056e-15 -5.891589e-16 -2.5588325e-15 -3.7460648e-10 4.3726523e-06
-2.9364013e-15 -3.952363e-15 7.473383e-05 -2.5802855e-16 -6.175867e-07 8.90031e-16 2.9399865e-16 -5.4455494e-16

fc2.bias f4 [30]
00000000: 78e0 a5bd d3b0 0a3d fcee 4236 1ade 3aba
00000010: 6f1c ecbb d5e5 ecbd 4dea 813d c5f5 b8bc
00000020: cdcb 193c 5bd9 083d 734b 913d 7c3e c73b
00000030: 210f e73c 308f 94ba e3d0 8abc beed 88bc
00000040: 9679 0abd e25c a83d cd18 a23c f279 623d
00000050: 91fa 1c3d 55b5 e83c d5ec d63d c588 ee3c
00000060: 157f 3dbc 4100 ed3d c4fc 393d 523f 303d
00000070: 5cb1 f0bc b514 183d
-0.08099455 0.03386004 2.904736e-06 -0.00071284326 -0.007205538 -0.115672745 0.063435175 -0.02257813
0.009386969 0.03341041 0.07094469 0.0060804468 0.028205456 -0.0011334177 -0.016945308 -0.016714927
-0.03380736 0.08220841 0.019787217 0.055292077 0.038324896 0.028406778 0.10494391 0.029117951
-0.011565943 0.11572314 0.04540707 0.043029137 -0.029381447 0.037129123

fc3.weight f4 [10, 30]
00000000: d6c1 203c 3a7f 1cbe 9a3f 9d26 97a7 f31f
00000010: 39b1 3828 cd54 62bd dc4f ef3d b087 8b3d
00000020: 7ef7 5024 baec a0bd 446a 043e daf8 963d
00000030: dbea 9cbd 9908 a8a6 3104 f23d 5bf3 8525
00000040: 69cb 99bd 340a 1ebe 7636 08aa 9dfe 6a3d
00000050: 4711 2ebe fdf2 173e 6a26 1ebe 9c05 49bd
00000060: 00b9 9a25 6b0a 813d 1897 0b3e 72f0 203e
00000070: ce50 4639 8d88 23be 6927 08a7 cc9a 9ba8
00000080: e6c6 6526 4cd7 c926 441b c6bb fcea a1a7
00000090: 0751 92bc 6826 5225 26d3 c8bc d10b 0228
000000a0: 588d 1228 08f1 7a26 8f9a 60a7 7340 85a7
000000b0: 28ac d826 2ae1 dda1 76e5 56a7 74ea 9bbc
000000c0: 0295 0927 3a69 5da4 04ee 9ebc 1d22 b426
000000d0: 4725 a1bc 10e0 e1a7 3ba2 3626 2218 9bbc
000000e0: fea7 36a8 3be2 d227 1dd8 dd26 3b0c 6c26
000000f0: 65e7 4627 a08c 0027 1f6d 9d28 2fda 5825
00000100: 203c 1f25 b6fe e125 e701 3abc 6030 cd27
00000110: 1173 f8bb 029b 23a8 10e6 3d28 424e 3627
00000120: 441b 17a7 754d ec26 acdf 26a7 417b 9ca7
00000130: 8317 20a7 dbff 3ebc 280b f5a7 d2cb f627
00000140: 31f1 3ebc 7d18 6627 23a9 1bbc cb75 3027
00000150: 6e03 2ba7 a275 67bc 0aec d6a7 1554 d6a7
00000160: b268 12a8 857e 81a7 959f 123e 15ac e23c
00000170: b4ef 2c27 2767 d426 424f a03b 45fc 163e
00000180: 9ac2 5a3d 1828 01bd 1835 9c3d 6e4a 07bd
00000190: 1b47 0abd d837 bdbd 5a4a 373e 2b0b 5aa8
000001a0: 3a1b cdbd d5eb edbc 3afa 043d b1d6 353e
000001b0: 7ef5 a227 7b78 a53d dd86 0f3d 4517 7cbd
000001c0: f1df 3f3e 011e 8a3d 3965 893c 86b9 24bc
000001d0: a915 d0bd 83e6 423c e716 f428 8d30 603d
000001e0: 2cea 25a7 4d36 0aa6 4b52 7f26 201f 2ba7
000001f0: ee23 81a6 53ab 3227 a015 bebc 5a5c 35a6
00000200: 6733 a0bc f7e2 49a7 39cd 5327 e43a 4e27
00000210: 92b7 42a5 cec7 50a4 db3d 37a7 feaa a526
00000220: ad85 9627 8cb5 e3bc 6e8e 5ea6 fca7 4e27
00000230: f44a f7bc b115 34a8 3d2c c6bc 2e9f 7ba6
00000240: 3bc0 cbab 8951 d8bc 2765 7fa6 c59a 82a7
00000250: 8481 bda6 9784 9d27 9e4c 8dbc 7214 d63d
00000260: 99a4 1aa7 2084 8ca8 3fe3 a13b 0461 02be
00000270: cc74 f0bd 65f1 febd 49b8 0dbc aff6 83bd
00000280: 2158 c2bc ffd2 063e 8cc4 a93a 556d 28a8
00000290: cec6 ba3d 87c4 f0bc 7b30 413e 407d 263e
000002a0: 6262 d826 984e cb3d e9d1 fb3d 414d 75bc
000002b0: 4c18 393d 7bcf a6bd 13ff 8a3c 9d2c 3d3e
000002c0: 72a0 d4bd 1696 8d3d 6d33 1fad 72f3 103e
000002d0: 8a93 d43c 3f22 58a7 6e87 bba6 e7f8 6b27
000002e0: f8ba b33b dc20 9025 db41 383e 5d6e a9a6
000002f0: 1ce8 e63d 7d27 ecb7 339a 0a3d 6df9 a326
00000300: 512a 06a7 c865 9e27 29ea 8b3d d2bf 10bd
00000310: 160d c8bd a487 933d 09c5 88a6 db29 8135
00000320: 02aa 533e 65b1 a328 3088 eb3c ad91 7d27
00000330: 7ea5 8a3c 301b 2f3e d748 dfa6 f5dd 97bc
00000340: 45e0 6b27 e92d e0bd f29e 0c3e fd6d c53d
00000350: 49ff bea7 038f f626 4733 9026 f230 563d
00000360: 7ef1 95bd 40c2 c63d b62c cca6 1a5e d13b
00000370: e225 143e a083 873d d38e ae3d 4abe a3a4
00000380: 9235 a03b dbea 61a8 6967 4e3d af3a e0bd
00000390: 56f7 0f29 7aad f13d bbf7 46be 2b05 56bd
000003a0: 7710 03be 27f1 c83d b493 52a5 59e9 3bbe
000003b0: 3d4b 7fbb 00a1 16be d91a 3fba e17f 353d
000003c0: 3f34 a727 07c6 05a8 b0f2 cba6 9818 57a7
000003d0: ce30 75a6 36a3 cba6 74c6 1fbc ec6a dca6
000003e0: d176 47a6 2aa8 efa7 a659 9027 dd8c 2726
000003f0: 8122 a028 6d8f 60a8 940f dfa5 80ab f626
0.009811839 -0.15282908 1.0911303e-15 1.0319176e-19 1.0252481e-14 -0.055256654 0.11685154 0.0681299
4.5312444e-17 -0.07857652 0.12931162 0.073716834 -0.076619826 -1.1659672e-15 0.11817206 2.3236726e-16
-0.075095005 -0.1543358 -1.2098121e-13 0.057371724 -0.16998778 0.14838786 -0.15444341 -0.049077615
2.6840102e-16 0.06300815 0.13631856 0.15716723 0.00018912854 -0.15970059 -1.8895156e-15 -1.727559e-14
7.9719893e-16 1.4005533e-15 -0.006045731 -4.4941247e-15 -0.017860902 1.8227609e-16 -0.024514746 7.219012e-15
8.135277e-15 8.706283e-16 -3.1170031e-15 -3.698479e-15 1.5034674e-15 -1.5035143e-18 -2.9822857e-15 -0.019032694
1.9093347e-15 -4.8010866e-17 -0.019400604 1.2499255e-15 -0.019671096 -6.2692974e-15 6.33638e-16 -0.018932406
-1.0139457e-14 5.853199e-15 1.5393533e-15 8.1895523e-16 2.760346e-15 1.7839801e-15 1.7477825e-14 1.8808937e-16
1.3811423e-16 3.9203877e-16 -0.011352993 5.695138e-15 -0.0075820764 -9.08193e-15 1.05414944e-14 2.5299997e-15
-2.097024e-15 1.6396784e-15 -2.315838e-15 -4.343233e-15 -2.2217206e-15 -0.01165768 -6.8013256e-15 6.84997e-15
-0.011654184 3.1932187e-15 -0.009500775 2.4488762e-15 -2.3732876e-15 -0.014127167 -5.9652846e-15 -5.9488094e-15
-8.12733e-15 -3.5941865e-15 0.14318688 0.027669946 2.3999738e-15 1.4738415e-15 0.004892261 0.1474467
0.053408243 -0.031532377 0.07627314 -0.033029966 -0.033759218 -0.09239167 0.17899457 -1.2103853e-14
-0.10014959 -0.029043118 0.032465197 0.1775768 4.5230196e-15 0.080796205 0.035040725 -0.06154563
0.1873777 0.06744004 0.0167719 -0.010053998 -0.10160381 0.011895779 2.7099374e-14 0.0547338
-2.3025295e-15 -4.795196e-16 8.8582425e-16 -2.374789e-15 -8.960912e-16 2.4795337e-15 -0.023203671 -6.292215e-16
-0.01955576 -2.8017391e-15 2.9393384e-15 2.8620168e-15 -1.6889014e-16 -4.527205e-17 -2.5429884e-15 1.1495522e-15
4.1778295e-15 -0.02779653 -7.721475e-16 2.8679307e-15 -0.030187108 -9.996711e-15 -0.024191016 -8.7298847e-16
-1.4477372e-12 -0.026406066 -8.8607984e-16 -3.625005e-15 -1.3149615e-15 4.372001e-15 -0.017248448 0.104531184
-2.1461022e-15 -1.5600422e-14 0.00494042 -0.12732321 -0.11741027 -0.12448386 -0.008649894 -0.064435355
-0.023723664 0.13166426 0.0012952252 -9.349581e-15 0.0911995 -0.029390587 0.1886615 0.16258717
1.5014678e-15 0.099271 0.122958966 -0.014972032 0.045189187 -0.081450425 0.016967332 0.1847405
-0.10382165 0.06913392 -9.049522e-12 0.14155367 0.025949258 -2.9994587e-15 -1.301244e-15 3.2747732e-15
0.005484935 2.5002284e-16 0.17993872 -1.1756645e-15 0.1127474 -2.815178e-05 0.033838462 1.1378004e-15
-1.8619175e-15 4.396416e-15 0.06831772 -0.035339184 -0.09768121 0.07203606 -9.490302e-16 9.62343e-07
0.20670322 1.8173568e-14 0.028751463 3.5189774e-15 0.016924616 0.17100215 -1.5493477e-15 -0.018538455
3.2734378e-15 -0.10946257 0.13732508 0.09640119 -5.3012374e-15 1.7108442e-15 1.0005906e-15 0.05229277
-0.073214516 0.09705019 -1.4167462e-15 0.0063893916 0.14467576 0.06616902 0.08523335 -7.1012344e-17
0.0048891986 -1.2540935e-14 0.05039159 -0.10948693 3.1966908e-14 0.11800666 -0.19430439 -0.052251022
-0.1279925 0.09811621 -1.826464e-16 -0.18350734 -0.0038954758 -0.14709854 -0.00072900724 0.044311408
4.6408457e-15 -7.4259234e-15 -1.4151735e-15 -2.9850576e-15 -8.5067593e-16 -1.4130193e-15 -0.009751905 -1.5294548e-15
-6.920302e-16 -6.651815e-15 4.0065226e-15 5.813067e-16 1.7778532e-14 -1.2465598e-14 -3.869489e-16 1.7116164e-15

fc3.bias f4 [10]
00000000: ab7d 973c 48da 43bc 5cc5 7fbc d6df 0f3e
00000010: 7895 ebbc f760 803d c14d 143d 2755 853d
00000020: 8e59 60bc 440a 7a3d
0.01849254 -0.011953898 -0.015611019 0.1405023 -0.028757796 0.062684946 0.036206964 0.06510382
-0.0136932265 0.061044946

fc_out.weight f4 [1, 10]
00000000: e89e 24be 444c 1abb c8fa 68bc ab9a c63d
00000010: aa22 32bd 8eba d73d e587 973e 5c72 6cbe
00000020: 3db0 2d34 ad4b f0bc
-0.16076243 -0.0023543993 -0.014219947 0.09697469 -0.04349009 0.10533629 0.29595867 -0.230905
1.6175996e-07 -0.02933296
