REEM/model/best-model/Tuscon/model_best_rating.pth (torch, 393464 bytes, 7 tensors)

fc1.weight f4 [512, 45]
00000000: 0acb 113c 0c54 c93d 3a7e 0f3e 018c e9bd
00000010: a4a4 ccbd 9548 3abd a50f afbd a2af 103d
00000020: 7c42 a5bb e413 973d 4643 d5bd 6eb1 943c
00000030: 3f68 c8bd 555b 773d bb9c 013e f303 e9bc
00000040: dd89 70bd ccac f73d c4ae 9f3d a434 043d
00000050: 82d1 ed3d 8b7d f83d 0208 473d 2cd5 573d
00000060: f0f3 a7bd 007c c239 6c36 afbd ca38 b53d
00000070: 8a4d 01be daaa 03be dd0c 7abd f22e 04be
00000080: dcc8 123e 9224 6e3d f69b 663d 3d1c 96bc
00000090: 53b9 983c 787d bdbd 38be 31bd 7933 943c
000000a0: d5f8 0abe 7f0a 74bc fe62 52bc ea0e 9c3d
000000b0: 27de 153e aeea 993b 4e34 62bc c1ef 0e3e
000000c0: 5339 a1bd 41f7 433d f6fd 533d 9e5f b6bd
000000d0: bcd9 8cbd 9cdc bd3c 9761 89bd c4d6 b1b9
000000e0: fb9e 0f3e 8ad5 55bc 4bc8 783d 4ac2 ce3d
000000f0: 69b4 c7bd d6d6 99bb c479 383b f58c 00be
00000100: 5dfb c1bd 7c57 ec3d 2e9f 06be 0d16 a23d
00000110: 0888 bebd 3ceb e4bc ae0a 07be cc8d 1e3d
00000120: e0c2 cb3d bdf2 b1bc 29fa 7dbd 2424 c4bd
00000130: 6b8f 0a3e a45d 58bd 18c5 b43d 94b1 8dbd
00000140: 6e5e 623c e9c4 433c 5cb3 d4bb 702e 00be
00000150: 9339 643d 6771 8c3d b096 2fbd 6a7f ff3d
00000160: 83f8 e2bb f453 8cbd e788 47bd 6f1c a4bc
00000170: c4b7 0a3d 58dc e5bd 7d72 aabd 06d7 d5bd
00000180: 1e40 a23b 2696 f9bc 2331 14be 44c2 d73c
00000190: 1a82 a9bd c507 073c 4a16 94bc 0fe4 68bd
000001a0: d3e8 d7bd a363 823d 49f2 13bd 29df d23d
000001b0: 7b0f 0d3e 609b c03c 2a78 06bd 9d52 953c
000001c0: e16f 063e d922 e4bd fb21 9b3d 5569 febd
000001d0: f0dd f33d 4a58 b53d 0ea1 043e 75b5 aebc
000001e0: 3e82 ac3d 06ea f3bd c03b f4bd 2f74 e2bd
000001f0: 0f7a db3d 83c3 823d d360 42bd d327 c93d
00000200: eabe b6bd a1a5 983d 443a 943d 7951 273d
00000210: 982c cfbd 6322 fe3d e9d2 b43d d06a 01bd
00000220: a483 173e ed56 b8bd 929c 8a3d cfe1 b43d
00000230: f858 43bd 03eb f2bd 2b4b 3bbd c14d f0bd
00000240: 9600 dabd d43c debc 8dfe 3ebd 4612 2cbd
00000250: ea14 9b3d be92 fb3d 524f c13b 5c72 86bc
00000260: 943b 263d 9a39 9dbc f952 5c3c 0678 af3d
00000270: 2e93 6cbd 1d3e 753d fef9 953c d09a 9b3b
00000280: a286 f63d 3819 2cbd f197 b9bd 6250 d9bd
00000290: 0432 013d 6f8c be3c 0c34 a3bd da04 5dbd
000002a0: 6972 eebd 474d 923b ee4a 04bd 89a1 80bd
000002b0: 3113 d63d 3589 2f3d 4c8e f2bd 3d80 db3d
000002c0: c7b6 063e f6c4 9abd 3939 f23d cd56 05bd
000002d0: 2652 063e 3fd8 e93d 2607 843d 79dc 003e
000002e0: f832 a63d 7f5a c4bc f9dc a43d 89ad 063e
000002f0: f897 9e3d 18a7 b6bb 1597 c0bd b30f b43d
00000300: a4bc d7bc 8a8d f8bd b659 d33d 0295 5fbd
00000310: 20a0 d23d 6117 dfbc c46c 3cbd c7e6 f13d
00000320: 64e7 e6bd d703 55bd 2e7f 0d3e 8f79 e9bd
00000330: 800f 5fbd a54d bbbd 0636 d23d bf10 5fbd
00000340: acde 94bd ec3e a4bd e59a 97bc 2a8d 1fbc
00000350: 2eb7 5dbd 82b9 17be b477 d03c fa72 b6bd
00000360: ae0a da3d 43de cbbc 0715 c43d 6fe1 90bb
00000370: 84a8 89bd ffcf d63d 82c5 02be 51f9 f5bd
00000380: 59c9 a53c b502 0eba 642e a73d a5bd de3d
00000390: 91da 96bd 1e4e d33c ac26 e0bd 9eda 033e
000003a0: 7861 643d abe6 0fbe eb90 c23d 5ec3 2fbd
000003b0: 52c6 85bd a236 04bc 2281 ab3b 1fd5 98bd
000003c0: 8a1b b83c 2c8b 7abd 83ff 043e e39e 84bd
000003d0: 42d8 d23c c554 f13d 26ae c63d 4b4c 03be
000003e0: a3d8 043e 5917 febb 9ccd e4bd 848d 16be
000003f0: ef63 b53d cb66 a6bd 1a0f c73d 1d77 f83d
0.008898506 0.09830484 0.14012995 -0.11403657 -0.0999234 -0.045479376 -0.08547906 0.035323747
-0.005043326 0.07376841 -0.10413222 0.018151011 -0.09785508 0.060389835 0.12657444 -0.028444266
-0.058725227 0.12093505 0.07797006 0.032276765 0.11612226 0.121333204 0.04859162 0.05269353
-0.08200824 0.0003709495 -0.08555302 0.08848722 -0.12627235 -0.12858143 -0.061047424 -0.12908533
0.14334434 0.058140345 0.05630108 -0.018324012 0.018643057 -0.09252447 -0.043394297 0.01809095
-0.13571484 -0.014895081 -0.012840984 0.07620032 0.14635526 0.0046971655 -0.013806416 0.13958646
-0.07872262 0.04784322 0.051755868 -0.08904956 -0.06877467 0.023176484 -0.06708067 -0.00033920084
0.1402549 -0.0130514 0.06073789 0.100956514 -0.097512074 -0.0046948 0.002814875 -0.12553771
-0.09471772 0.11540124 -0.1314666 0.07914362 -0.0930329 -0.0279442 -0.13187668 0.038709447
0.09949279 -0.021722192 -0.06200615 -0.09577206 0.13531272 -0.052823678 0.08826655 -0.06918636
0.013816459 0.0119488025 -0.006491108 -0.12517715 0.05571897 0.06857567 -0.042868316 0.12475474
-0.0069265976 -0.0685195 -0.048714545 -0.02003309 0.03386666 -0.11223668 -0.08322618 -0.10441403
0.004951491 -0.030467104 -0.14471869 0.02633775 -0.08276768 0.0082415985 -0.018077035 -0.05685812
-0.105424546 0.063666604 -0.036119733 0.10296471 0.13775437 0.023511589 -0.03282944 0.01822787
0.13128616 -0.11139459 0.07574841 -0.12422434 0.119075656 0.088547304 0.12952062 -0.02132676
0.08423279 -0.11909871 -0.11925459 -0.110573165 0.1071664 0.06384947 -0.04745562 0.09822049
-0.08923133 0.07453466 0.07237676 0.040849183 -0.101159275 0.124089025 0.088292904 -0.031596005
0.1479631 -0.09000955 0.06768145 0.08832132 -0.04769227 -0.11861231 -0.045725983 -0.117335804
-0.10644643 -0.027128614 -0.046629477 -0.042009614 0.075723484 0.12283848 0.0058993483 -0.016411953
0.040584162 -0.019192506 0.013447517 0.085678145 -0.05775755 0.05987369 0.018307682 0.0047486797
0.12037398 -0.042016238 -0.09062184 -0.10611035 0.03154184 0.023260323 -0.079689115 -0.053959705
-0.11642916 0.0044647786 -0.03229802 -0.062808104 0.10452879 0.04285546 -0.11843547 0.10717819
0.13155662 -0.075570986 0.118273206 -0.032553483 0.13117275 0.11418199 0.06446676 0.12584104
0.0811519 -0.023968933 0.0804996 0.13152136 0.077438295 -0.0055741183 -0.094038166 0.08792057
-0.026335068 -0.121363714 0.103198454 -0.054585464 0.10284448 -0.027232828 -0.046002164 0.118115954
-0.11274603 -0.052005615 0.13818046 -0.114001386 -0.05445814 -0.09145669 0.102642104 -0.05445933
-0.07269034 -0.08019814 -0.018506477 -0.009738246 -0.054129772 -0.1481686 0.025447704 -0.08908649
0.10646568 -0.024886256 0.09574323 -0.004421405 -0.06721595 0.10488891 -0.12770656 -0.12010444
0.020237612 -0.00054172735 0.08163145 0.108760156 -0.07365907 0.025794085 -0.10944876 0.12876365
0.055757016 -0.14052837 0.09500297 -0.042910926 -0.06531967 -0.008069666 0.0052338997 -0.074625246
0.02247407 -0.06116788 0.12988095 -0.06475618 0.025737885 0.11783747 0.09701185 -0.12822072
0.12973265 -0.007754248 -0.111720294 -0.14702421 0.088569514 -0.08125075 0.09719677 0.12132094

fc1.bias f4 [512]
00000000: 4f52 bc3d 898a 34bc c213 88bd 6f0b 503d
00000010: faf6 c23b 5637 c53d 894a 87bd 715d 863d
00000020: e2d7 9cbd 8a69 363c c55c 0e3c 9a21 fb3c
00000030: d48c a4bd c004 083d 9779 a83d 7891 9e3d
00000040: 24d1 543d e38e bfbd ff43 ff3d dd95 b4bd
00000050: fbca f3bd a288 e03d 02ef 093e 265e 9f3d
00000060: f6cf 923d afff 97bd 4088 edbd 767a a7bc
00000070: f926 fcbd 3a01 1c3d 0e53 86bd 56eb df3d
00000080: 5a5b 173e 8747 723c 6210 53ba cbb5 3abb
00000090: 0068 ae3d b94a 0fbe d407 e13d 553a c4bc
000000a0: 655d 17bc aee4 58b9 4849 e4bd 4ba0 d8bd
000000b0: ca4a 5abd 1ba0 81bd 72bb a23d af6c f83c
000000c0: a0a0 ed3d 09cd f0bd 3bb7 063d c79f f1bd
000000d0: dcb1 893d 5736 cc3d 5fe3 0dbe beb0 9abd
000000e0: e61b b0bd bcc5 bcbd 87bd e0bd b5fa 48bd
000000f0: d679 163e f993 983d dab1 eebd e32a 05be
00000100: 4af7 07be f5af 033c eb38 89bd a7b7 523d
00000110: abd5 babd c202 7c3d f825 0ebd 1188 bebd
00000120: 5b5b 0abc dbce 883d 6879 10be d488 dbbd
00000130: ef78 b0bd b4be 8fbd 6ecc 3f3d c180 8f3c
00000140: a5b4 37bd a698 1cbc 6e8b 113e f105 14bd
00000150: 37af bfbc 8236 d1bc d806 e2bd 4efa a4bd
00000160: 9ecf a7bd caf9 27bd 2fa9 d2bd 7031 ff3d
00000170: 4dcb b5bd 28d4 3e3d 46d8 143e 0a2f 163e
00000180: 9bfa 12be 02a4 93bd 29a9 29bd 5633 db3d
00000190: 2491 473d e49f ed3d e4db d43d b333 7abd
000001a0: bb2b b53d c47c 8f3d 6596 df3b d888 fa3d
000001b0: ef44 5e3d 7c8e e03c 6ed8 72bd c403 02be
000001c0: 927c a93d ecbd 173c b7f9 75bd e76a b03d
000001d0: d6a2 253d 1cdc c93d 1d57 1b3d dd53 733d
000001e0: d6d2 ce3d 77a2 f43d 0b08 143e 6bf1 2dbc
000001f0: 2209 e03c aa5e 9fbd e19c 7b3b 0f3e 393d
00000200: 8aab 433d 8239 a63c a1a4 48bd f93d 05be
00000210: 2c9d 4f3d e7bd a03d a75e e93c 5661 07be
00000220: 5d9c 4bbd ee7b b53d 1413 08be fb17 1e3b
00000230: 9709 043d 0c73 e4bd 53c7 8b3d 9ac9 9e3b
00000240: 7ea9 41bd d8aa be3c 81a2 01be 69f5 f3bd
00000250: 9335 123e ad42 8c3d 600b 55bd 2e34 e5bd
00000260: c3e5 bd3d 3fb8 fb3c 94b5 9cbd 7fd0 bbbd
00000270: 7e95 a23a e22e 3bbd e287 b83d c8b1 edbd
00000280: a894 993d 0f63 ef3d 8bdd e6bb ba5b 46bd
00000290: f5cf 02be cf1c bb3d 8554 9abd fcea 9cbd
000002a0: f68d 143d 48ad d9bb 1794 e03d 2623 f03d
000002b0: c2e9 e43d 1745 a23b 303b 38bb 0870 dabd
000002c0: ee95 a4bd 9221 143b 39b5 0f3e d56a 0b3d
000002d0: f2e5 26bd 00eb e1bc d130 bfbd 95a8 f63b
000002e0: a210 e03d 8d39 ddbd eef8 dabc c97c 98bd
000002f0: 9b95 04be c59a 9b3c b00d b23d e932 e23d
00000300: 5b95 d13c de42 993c bfe0 a53d b2cc b33d
00000310: 2904 093c 7b88 0b3e 9532 d9bc e687 38bb
00000320: f620 dbbd 348c 10be b0e7 9e3c b478 ea3d
00000330: 66c8 f3bc 6a2b c5bd 4129 0dbe 8742 013d
00000340: d4c9 5ebd 62bc b63d 3b6d d7bd 8895 633d
00000350: 6220 a5bd 8467 08be 4251 0c3d 13be a73c
00000360: 06ac 183e ad72 153e 8925 883d f106 073e
00000370: 56a2 01be 2a8b b33d 30d7 c33d aeb9 6dbd
00000380: 3998 0abc 8a52 b7bd c046 0fbe 925b 16be
00000390: 895d a6bd d943 a9bd 5147 27bd 8a33 103e
000003a0: cd71 b4bc 4b38 d33d 6d3f 59bd 7fd0 2fbd
000003b0: 4325 d0bd 7a3b 083e 9cbe 1b3d ada6 9abd
000003c0: f722 673d 3410 aa3d 19cb a63d 82e6 fc3d
000003d0: 0035 d7ba 9959 29bd caea 243d 0539 b33d
000003e0: 640b 773d 053c b33d 0ed3 cdbc 5758 c0bc
000003f0: 65b7 d2ae 684e 133e c238 9abd 85e0 093b
0.091953866 -0.0110193575 -0.066443935 0.050792154 0.005949852 0.09629695 -0.06606013 0.06560791
-0.07658364 0.011133561 0.00868911 0.03065567 -0.08034673 0.033207655 0.082263164 0.0774259
0.051957265 -0.09353425 0.12464141 -0.08817647 -0.1190395 0.10963561 0.1347008 0.07781629
0.07168572 -0.07421815 -0.11598253 -0.020444136 -0.12312121 0.038087107 -0.0655881 0.10933559
0.14780942 0.014787561 -0.00080514525 -0.0028489705 0.0851593 -0.13993348 0.10987821 -0.023953596
-0.009238576 -0.00020684555 -0.1114679 -0.105774485 -0.05329398 -0.06329366 0.079459086 0.030325262
0.116029024 -0.11757857 0.032889586 -0.11798053 0.06723377 0.09971302 -0.13856266 -0.07553242
-0.08599071 -0.09217402 -0.109736495 -0.049067218 0.14694914 0.074500985 -0.11655016 -0.13004641
-0.13277927 0.008037557 -0.06700309 0.051444676 -0.09122785 0.061526068 -0.03470418 -0.09303296
-0.008444632 0.066800795 -0.14108813 -0.10719457 -0.08616816 -0.070187956 0.04682582 0.01751745
-0.04485001 -0.009557879 0.14213344 -0.03613848 -0.023398979 -0.025538687 -0.110364616 -0.08055554
-0.08193897 -0.0410097 -0.102861755 0.12460601 -0.08876667 0.046589047 0.14535627 0.14666381
-0.14353411 -0.072090164 -0.04142109 0.10703151 0.0487224 0.11602762 0.10393503 -0.06108446
0.088462315 0.07006219 0.0068233483 0.12233132 0.05426496 0.027411692 -0.059288435 -0.12696749
0.08275713 0.0092615895 -0.0600526 0.0861414 0.040438496 0.09856436 0.037924875 0.05940615
0.100988075 0.1194505 0.14456193 -0.010616641 0.027348105 -0.077817276 0.0038393068 0.0452252
0.047771014 0.020291094 -0.048985127 -0.13011922 0.050687 0.07848721 0.028487517 -0.13220724
-0.049709667 0.08861528 -0.13288528 0.002412318 0.032235708 -0.11154756 0.068251275 0.00484581
-0.04728078 0.023274824 -0.12659647 -0.11912043 0.1427825 0.06848655 -0.0520128 -0.11191593
0.09272339 0.030727504 -0.07651821 -0.09170627 0.0012404171 -0.045699008 0.090102926 -0.11606175
0.07499057 0.11688816 -0.007045453 -0.04842732 -0.12774642 0.09136354 -0.07535652 -0.07662007
0.036268197 -0.006642971 0.10965746 0.11725454 0.11177398 0.004952084 -0.002811145 -0.106658995
-0.08036409 0.0022603017 0.14033975 0.03403743 -0.040746637 -0.027577877 -0.09335483 0.0075274208
0.109406725 -0.108019926 -0.026730027 -0.07445676 -0.12947695 0.018994698 0.08694017 0.110448666
0.025583914 0.018708643 0.080995075 0.08779277 0.008362808 0.13626282 -0.026513377 -0.0028157174
-0.10699646 -0.14115983 0.019397587 0.114488035 -0.029758643 -0.09627421 -0.13785268 0.031557586
-0.054391697 0.0892265 -0.10518881 0.055562526 -0.08062817 -0.13320738 0.03425718 0.020476377
0.14909372 0.14594527 0.06647784 0.13186242 -0.12659582 0.08766778 0.09562528 -0.058038406
-0.008459144 -0.0895129 -0.13991833 -0.14683369 -0.08123309 -0.08264894 -0.040839497 0.1408216
-0.02202692 0.103134714 -0.053039003 -0.042923447 -0.10163357 0.13303939 0.038023576 -0.07551322
0.05642983 0.08303872 0.081442066 0.123486534 -0.0016418993 -0.041345213 0.040262975 0.0875111
0.060313597 0.08751682 -0.025125053 -0.023479624 -9.582272e-11 0.14385378 -0.07530357 0.0021038365

fc2.weight f4 [128, 512]
00000000: cdaf c5bc 49ed 0d3c 3898 223c 9e32 f5bc
00000010: 4c73 fdbb 83c3 b2bc 4503 253c 16da 8d3b
00000020: 2f44 72bc 36fe 443a 2abb 95bc c008 053a
00000030: d039 d53c baf4 bbbb dbed 373c d117 c239
00000040: 1f8e 11bd 2c24 ebbc 6905 6fb6 b8b3 ddbb
00000050: 1842 79bc bb28 ca3b 3906 11bd b76c 34bb
00000060: 590b 803c 9536 5cbc ce6c 833c 0c65 843b
00000070: ea64 66ba a8e7 fabb 2d8f 49bb 23ba 923b
00000080: 8b11 28bb 1d1c d63c ad0e c7bc aa14 cabb
00000090: 461a 8cbc ead5 b1bc 7288 953c 2992 c43b
000000a0: d220 d4b7 1a1b eb3c bc10 323c 8a9e 8dbc
000000b0: ff87 903c e464 83bb a49b ff3c 6549 683a
000000c0: ca34 303c 2836 eebc ed1d ac3c 8546 05bd
000000d0: e3df 063d eea3 843a e34c 853b d720 90bc
000000e0: 25f4 ef3b 3fe3 a13b 971b 0e3d b001 8a3c
000000f0: d5a3 5b3c ad9e dc3c 8d3e f2bc ca6e 6f3b
00000100: d0c4 05bc 35ec fbbc 05f7 833b 2a1c f03b
00000110: 968a c6bc 2c2d 8abc 2aac f7bb 3f52 233c
00000120: 66da bbbc 28e0 3d3c 2110 833b 24d7 9fbb
00000130: da32 f9bc 04e1 58bc 047e ab3c b8ac 94a9
00000140: 159f af3a 91b0 813b 9d77 df3c b0ce 123b
00000150: 4527 c1bc c587 02bd 406f b83c 180d 003d
00000160: 40fc 96b5 8d63 d33c ac15 0a3d 150d 85b9
00000170: d61f 01bd 4e07 113d 6e17 04bd fd05 d8bc
00000180: 4978 13bd 0b83 ea3c 6a1d b9bc fdc9 9c2f
00000190: dc16 8737 3997 94bb 5e53 123d 511f a3bc
000001a0: 2d81 21bc f559 183b dd80 8abc eb13 dabc
000001b0: e253 973c 2665 b83c 14de 0abd 408f 26b8
000001c0: 474f 41ba 602c 373c 5f04 253a 89b6 9bbc
000001d0: d948 56bc 9612 df3c ca05 81bb f1d9 c23b
000001e0: e0fa 48af dd45 54bc 65ea 803c b222 013d
000001f0: d03c 123d faca 04bd df85 c4bc e286 0abc
00000200: dce5 c6bc 2641 18bb 1b53 0e3d ea95 d2bc
00000210: 4715 9ebb e9ce 153c 4ceb d3bc 9834 6fbc
00000220: c1ed d939 2e2e d0bc cc7a 60bc 72c6 863c
00000230: 3ae3 4138 abc0 49ac eaac ea3c d8d2 e13c
00000240: 3db2 223c ce7b 503b fb8d e03c f0b8 1c36
00000250: 8f98 613c 723c b23c 50d5 433c 8b0d 5fbc
00000260: d24f 09bd 7dbe e93c af21 6fbc e522 b0bc
00000270: 8065 083d c218 06bc 5761 4cbb c851 d5bc
00000280: c4cc b3bb a62b b2bc 248f c93c d1a7 6c3c
00000290: da49 04bc 14d6 98b4 5642 e0bb 334e fb3b
000002a0: d4a3 cebc debd b23b 96dc eebc 73a4 cebc
000002b0: d21e 07bd 1f5e 8cbb 9c25 753b b598 303c
000002c0: 0de0 093d d57a 9a35 97b9 703b 9c26 c73b
000002d0: 2759 233c ccfe c1bc 675c 8fbc 201b b937
000002e0: fc5d febc 3272 533b 01a5 f9bc c0de d2b3
000002f0: b44d 853c 63d6 113d d912 fc3b 52a1 c4bc
00000300: 7323 213b 16c3 ee3c 5f1c 0a3c bb53 58bb
00000310: 17e4 443b eb05 09bd f0fd 253c 2a66 e4bc
00000320: 9259 a33c 94a0 e13c 58c1 d53c c479 253b
00000330: ebf6 c83c cdab 00bd 65ae 8c3c 05fa d1bc
00000340: 835d 7c3c 5211 c3bc 292e 07bc ce39 273c
00000350: edb9 1b3c 33da f03c 8053 2cbc aa12 15bb
00000360: 4c39 b1bc d23d 3c3c 8539 153d 315c 723c
00000370: 496d b3ba 6525 b7bc a20a 303b 790a 67bc
00000380: 2efe a6b7 cb51 6a35 5951 dfbb 57a3 f83c
00000390: 20f8 c8bc 7eed e8bc cbc3 95bc 4b21 483b
000003a0: e61a c0bc ffc9 073d 5d46 fc3c a9cf 973c
000003b0: 1272 0c31 4f87 ecbc 1e81 f6bb c508 00bd
000003c0: 5f4c 843a 7ec7 0abd 8dbe f03c 0bf1 a6bb
000003d0: d0f4 333c 3c99 c73c 97d7 ccbc 8eee 1bbc
000003e0: 17b4 aabb d453 56ba af74 b93c 57ba 91bc
000003f0: 77dc 4db4 e01f d3bc f19a ba3c 5d1c eb3b
-0.02413168 0.00866253 0.009923987 -0.029931363 -0.0077346917 -0.021821743 0.01007158 0.0043289764
-0.014786764 0.0007514687 -0.018277723 0.0005074851 0.026028544 -0.005735961 0.011226143 0.00037020308
-0.035535928 -0.028703772 -3.5616924e-06 -0.006765809 -0.015213512 0.006169406 -0.035406325 -0.002753062
0.015630411 -0.013440748 0.016043093 0.004040366 -0.0008788841 -0.00765701 -0.0030755505 0.0044777556
-0.0025645222 0.026136452 -0.02429899 -0.006167014 -0.017102372 -0.021708447 0.018253539 0.005998869
-2.5287653e-05 0.028699446 0.010868248 -0.017287511 0.017642973 -0.00400983 0.031202145 0.00088610343
0.010754773 -0.029078558 0.021010363 -0.032537956 0.03292836 0.0010119656 0.0040680035 -0.017593784
0.0073228055 0.00494042 0.03469428 0.016846508 0.01340576 0.026931131 -0.029570842 0.0036534541
-0.0081646 -0.03075228 0.0040272498 0.007327576 -0.024236005 -0.016867243 -0.0075583654 0.009968339
-0.022931289 0.011589088 0.0039997254 -0.0048779417 -0.030419756 -0.013237242 0.020934112 -6.602482e-14
0.001339885 0.003957816 0.027278716 0.0022401027 -0.023578295 -0.03186776 0.022513986 0.031262487
-1.1249285e-06 0.025804305 0.033712074 -0.00025377484 -0.0315245 0.035407357 -0.032248907 -0.026370043
-0.036003385 0.02862694 -0.022597034 2.8519756e-10 1.6103899e-05 -0.0045346287 0.035724036 -0.019912394
-0.009857458 0.0023246978 -0.01690715 -0.026620826 0.018472616 0.022509169 -0.033903196 -3.9710896e-05
-0.0007374179 0.011180013 0.0006294902 -0.019007938 -0.013078892 0.027230542 -0.0039374577 0.005946391
-1.8279023e-10 -0.01295611 0.015736768 0.03152723 0.035702527 -0.032420136 -0.023989616 -0.00845501
-0.024279527 -0.002323219 0.034747224 -0.02570625 -0.004824314 0.0091435695 -0.025869034 -0.014599942
0.00041566606 -0.025412645 -0.013701152 0.016452048 4.6226407e-05 -2.867077e-12 0.028646905 0.027566358
0.009930191 0.0031812075 0.027411452 2.335346e-06 0.013769283 0.021757338 0.011952713 -0.013614069
-0.03352339 0.028533215 -0.014595433 -0.021501014 0.033299923 -0.008184614 -0.0031185949 -0.026039973
-0.0054870564 -0.021749329 0.024604388 0.014444307 -0.008074248 -2.846797e-07 -0.0068438454 0.007669234
-0.025224604 0.005454763 -0.029157918 -0.0252249 -0.032988377 -0.004283681 0.003740645 0.010778596
0.033660937 1.1509643e-06 0.0036731714 0.0060776006 0.009969986 -0.023681067 -0.017500116 2.206635e-05
-0.031050675 0.003226411 -0.030474188 -9.819405e-08 0.016272403 0.035604846 0.0076926765 -0.024002705
0.002458778 0.029145759 0.008429616 -0.0033008892 0.0030043179 -0.03345291 0.010131344 -0.027880747
0.019940171 0.02754239 0.02609317 0.002524958 0.024531802 -0.031413842 0.017173002 -0.025631914
0.015403154 -0.02381197 -0.0082507515 0.010206653 0.009504777 0.02940092 -0.010517955 -0.002274672
-0.021633767 0.0114893485 0.036431808 0.014792488 -0.0013689186 -0.022356698 0.0026861806 -0.014101618
-1.9907104e-05 8.729082e-07 -0.0068151173 0.030351324 -0.024532378 -0.028433558 -0.018281838 0.0030537422
-0.023450326 0.033151623 0.03079527 0.018531637 2.0437523e-09 -0.028873114 -0.007522716 -0.031258363
0.0010093561 -0.033881657 0.029387737 -0.0050946525 0.010983661 0.02436506 -0.025005145 -0.009517325
-0.0052094567 -0.00081759435 0.022638647 -0.01778905 -1.9172317e-07 -0.025772035 0.02277896 0.007175012

fc2.bias f4 [128]
00000000: a58c 3539 2948 0b3d 71a5 8f3c 1f85 84bc
00000010: ffc2 75bc bcfb fe3c 2fb7 f5bb 73e3 cbbc
00000020: 9390 a2bc b21b acbc afa5 9bbc 2121 86bc
00000030: 530a f83c 5d8b 1abc 7425 e53c f4db 7c3c
00000040: ee18 523a 9ac9 cb3c 5fc5 3f3c 5af7 28bd
00000050: 3121 b0bc 1330 d6bc f464 6dbb 46ec 323d
00000060: c229 12bd d12f 0d3c fef1 19bd 66d7 743c
00000070: 47db 4f3c 504b f63c 6a4a 0ebb 8992 443b
00000080: cf06 98bc 1add 1abd c71e babc e608 0c3c
00000090: e891 0dbd d811 643c 7e3f 48bc c3ef 60bc
000000a0: 1133 0ebd 4108 313d 3724 95bc 811d 923c
000000b0: 48ce 01bd fdba b6bc 0722 bb3c 96f3 bf3b
000000c0: b2a6 a83c 535f d5bc bb89 9dbc d96d 9939
000000d0: 2658 f13c 3494 379b 2d4f e53a 2569 6b3c
000000e0: 61e4 0dbc fee1 12bd bd25 06bc b3d2 bb3c
000000f0: 2f1a 713c b4f0 e93c 4856 0abd e8ef 173c
00000100: 887e 693b 3a1d 16bd 1321 293d d343 0dbd
00000110: dcb7 ce3c 8270 b13c 2445 cc3c fba1 f9bc
00000120: 4a60 07bd 74ea 003d c798 8f3b 0bff 313d
00000130: 0145 1cbd ff74 0abd 6de3 9cba 4774 b2ba
00000140: c5ac 0e36 52a5 cbbc 54d9 bfbc 3008 babc
00000150: f639 28bc 81ae 4dbc ed86 aa3c a406 1a3d
00000160: e9df e63c 4d2b 163d 59f8 b93c 0922 11bd
00000170: 2a18 2bbd 4d04 623c de1a 2dbc 6cf2 e6bc
00000180: 8811 20bc 496f fa3c fd68 513a a73c 733c
00000190: 3919 a5bc 2d77 f73c f5c8 293d 6b12 053d
000001a0: a6fb fdbc f312 133d 91d0 313b 26fa 44bb
000001b0: bb2f 87bc 70d1 403a 26f0 fe3c 1946 103c
000001c0: 760b 0bbd e036 05bd 4929 543c 6c16 c93c
000001d0: 20ee 093b bd2b 273d d589 b4bc ef76 da3c
000001e0: 8253 c6bc b3a6 b83b d22f d03c 9369 043d
000001f0: ff8a 203b 2e25 9b3c 031f 293c 9ffc 55bc
0.000173139 0.034004364 0.017534943 -0.016176758 -0.015000104 0.031125896 -0.007498644 -0.02488873
-0.019844329 -0.0210093 -0.018999903 -0.016373219 0.03027836 -0.009432641 0.02797196 0.0154333
0.0008014579 0.024876405 0.011704772 -0.041251518 -0.021500202 -0.02614597 -0.0036223503 0.04368236
-0.035684355 0.008617357 -0.037584297 0.014943933 0.012686557 0.030065209 -0.0021711835 0.0029994568
-0.018557934 -0.037808515 -0.022719754 0.008547043 -0.034562975 0.01392027 -0.012222169 -0.013729039
-0.03471667 0.043220762 -0.018205745 0.017836334 -0.031690866 -0.02230596 0.022843374 0.005857895
0.020587299 -0.02604643 -0.019230714 0.00029264277 0.029460978 -1.5185292e-22 0.001749491 0.01436833
-0.008660407 -0.035860054 -0.008187708 0.022927618 0.014715715 0.028557159 -0.03377369 0.009273507
0.0035628397 -0.036648966 0.041291308 -0.03448851 0.025234155 0.021660093 0.024935313 -0.030472746
-0.033050813 0.031473592 0.004382226 0.04345612 -0.038151745 -0.033802982 -0.0011969634 -0.0013614976
2.1260214e-06 -0.024859104 -0.02341906 -0.022708982 -0.010267725 -0.012553812 0.02081629 0.03760399
0.02818294 0.03666239 0.02270143 -0.03543285 -0.04177109 0.013794971 -0.010565488 -0.028191768
-0.009769805 0.030570643 0.0007988362 0.014846004 -0.020153629 0.030208195 0.041451413 0.032488268
-0.031003784 0.035906743 0.0027132372 -0.0030056327 -0.016502252 0.00073554274 0.031120371 0.008805775
-0.033946477 -0.032523036 0.012949296 0.024546824 0.0021046475 0.040813196 -0.02203838 0.02666804
-0.024209742 0.0056351065 0.025413428 0.032327246 0.002449691 0.018938627 0.010322335 -0.013060718

fc3.weight f4 [64, 128]
00000000: cdf5 dbbc 7df2 3cbd 2ca2 593d 7dd7 283d
00000010: d42f c1bc 2fc9 08bc b5aa 033c bbe9 26bc
00000020: 00fb 833d f648 5eb4 0dd1 6abd 17a4 27bd
00000030: 5474 8fbc 649d 64bd 4df5 b23d 6a91 81bd
00000040: ba19 8c3d a97c 843c 0ce8 82bd 6552 8ebc
00000050: ad36 6c3d 9e51 6d39 17fb 7c3c eaab 95bd
00000060: 9484 9a3c b9d6 643c 4986 673d 9a3f 62bc
00000070: 87d1 963d 9c54 7ebd bb2a 8cbd 6485 28bc
00000080: 244c c8bb 99e2 843c 1f9d aa3d b80e 973d
00000090: 0996 71bc 691d 36bd 2165 593c 5187 4c3d
000000a0: 7162 9e3c fdb3 ed3c 8fb3 a1bd cb74 953c
000000b0: 7c89 a23d c9d1 b63b e43f 86bd 0ea6 9b3d
000000c0: 97a8 24bd ab33 e63c a963 9b3d 8c69 dbbc
000000d0: c229 ae3c 1590 dd3c f57d 053d 12e4 913a
000000e0: 7a7f 84bd 0006 953d 3b9d 8fbc 3334 8cbd
000000f0: 6e6f 7b3d 4828 afbd 0f73 143d 32e9 6dbc
00000100: 5015 b4bd 9352 a5bd 1188 843d 6616 9eb6
00000110: 0ed1 dfbc ed37 1e3d d441 25bd d0c8 b4bb
00000120: ca08 3c3c db44 88bd 52e5 56bd 92c1 5b3d
00000130: 6683 943d 7f73 afbc 1c29 e537 1d63 363d
00000140: 3597 0d3c 8a9d 9abd 9d5d 96bd 6bf0 343d
00000150: 6339 f03c e220 42bc 6aa0 39bc 2eec 3cbd
00000160: f1aa 943d 5a6e 4e3c 6e43 1f3c d3c5 52bd
00000170: 9200 b03d c0e2 af3c 173a 163d a8ff 893d
00000180: d801 67bb a3ed 4d3c 8c70 3c3c ea3c c2bb
00000190: 3aa0 94ba 9536 aabc d138 b2bd a4c7 4b3d
000001a0: 61bc d43c 00c5 6e3d 30a8 4dbd b547 283c
000001b0: d2dc 90bc 7ccf 7f3d 5624 033d 81cc 4ebd
000001c0: 732b c83c e1f8 713d a447 8bbd 6e5f 8a3c
000001d0: b397 62bd 93ae 663d 4b4d e8bc be04 8f3c
000001e0: bd6d 89bd bd01 a93d aaa9 19bd abe9 c2b6
000001f0: e169 90bd 8ff7 a9bc 2cac a3bd 2b4b 8b3d
00000200: 4c66 07b4 b10d 5c3d feeb 44bd 4841 65bd
00000210: 8226 503d 1dc7 c83c 877d 173c 9cb6 593d
00000220: ab4e 2fbd a18e 8f3d 09ac 8c3d 9298 d6bb
00000230: 7b23 273a 82bd a03d 3022 0b3d 9625 dc3c
00000240: 1bf6 2f3d 45b4 213c 5f1a 093d 4752 823d
00000250: 3096 d2bb 6f58 4fbd cd94 33bc e328 87bd
00000260: 828e 063c f512 f2bc f01c 193a dbeb 00bd
00000270: ceb9 1fbb 787c 5bbd fd8b a6bd d6b3 263d
00000280: 7662 73bd 41b4 44bd 9fef 183d 70b6 90bd
00000290: ad99 afbc 8559 973d e9e5 113c dd09 9ebd
000002a0: 92f5 22bd cde6 26bc dcf8 aebd f67d 703d
000002b0: bdcc bfbc bcb6 5f3d 91cc 493d 872e 28bd
000002c0: 71f0 0a3c 2759 a1bd 5580 3a3d e504 5ebd
000002d0: 11a5 8d3d 1135 35ba 25aa aabd 7766 343b
000002e0: 9414 5d3d a6df 9f3c c374 243c 85b8 833d
000002f0: 532a 803d 5920 9c3c 565d 803d 8d56 2abd
00000300: f232 9fbc 7442 cc39 e876 a73d 00eb d13c
00000310: d2a3 813d bd55 6dbc be9c 4bbd d539 be3b
00000320: e323 88bd d2c8 88bc 0ebc b13c f8b7 8abd
00000330: 5bf6 92bc 3a7a 0bbd f0ef 233c 4d2d 99bb
00000340: 666c 33bd 98b6 6abc a9a0 6ebd b7f3 053d
00000350: f29e abbd 7cdc 963c e93a 91bd 5437 d63c
00000360: 1e5e fcbb 29d5 073d bbd7 b0bd 8e74 3f3d
00000370: 09bc 2e3d 613f 113d 961d 0bbd d36d 1d3c
00000380: b4b7 903d 225b e03c 5dee 78bd 3323 253d
00000390: 03fb 8abd 5abe 3bbd a676 793d fb8f 193c
000003a0: 4a23 6f3c 0898 12bc 396d 1bbd e558 061e
000003b0: b361 61bd 9328 85b6 feef 023d 2567 503c
000003c0: ffc2 373d e501 a93d aa2d 6b3d 406b 493d
000003d0: cdf7 a0bc 2705 6ebd 7612 923d 62b2 863d
000003e0: 63ed a6bd fe35 5dbd f5be c4bb 7ab4 093c
000003f0: 6dca 8fbd 83c0 e2ba 56cc 91bc 5815 eebc
-0.026850605 -0.046129692 0.053133175 0.04122113 -0.023582377 -0.008348747 0.008036305 -0.010187562
0.06444359 -2.0701904e-07 -0.057328273 -0.040927973 -0.017511524 -0.055814162 0.08738194 -0.06326564
0.068408445 0.016172724 -0.06391916 -0.017373273 0.05766933 0.00022632486 0.015440724 -0.07308181
0.018862046 0.0139672095 0.05652455 -0.013809109 0.07364183 -0.06209241 -0.06844088 -0.010285709
-0.0061125923 0.016221331 0.0833075 0.07375854 -0.014745244 -0.04446164 0.01326874 0.049933735
0.01933405 0.02901649 -0.07895576 0.018244168 0.07936379 0.0055792076 -0.06555155 0.07600032
-0.040199842 0.02810081 0.07587368 -0.026783727 0.021260146 0.027046243 0.032590825 0.0011130592
-0.06469627 0.07276535 -0.017531028 -0.06845894 0.061385565 -0.08552605 0.03624254 -0.01452093
-0.087931275 -0.080723904 0.06471265 -4.7113745e-06 -0.027321365 0.038627554 -0.04034598 -0.005517103
0.011476705 -0.06653758 -0.05246479 0.0536514 0.07251625 -0.021417378 2.731807e-05 0.044528116
0.008642008 -0.075495794 -0.07342074 0.044174593 0.02932424 -0.01184866 -0.01132975 -0.046123676
0.07259167 0.012599552 0.009720666 -0.05145819 0.08593859 0.021470428 0.036676493 0.06738216
-0.0035248902 0.012568864 0.011501443 -0.0059276717 -0.0011339255 -0.02077798 -0.08702243 0.04975094
0.025968732 0.058293343 -0.050209224 0.010271003 -0.01768342 0.062453732 0.032017075 -0.050488
0.02443478 0.05907524 -0.06800774 0.016891208 -0.055320453 0.05631883 -0.028357169 0.017458316
-0.06710384 0.08252285 -0.03751532 -5.808853e-06 -0.07051445 -0.020747928 -0.079918236 0.068014465
-1.261007e-07 0.053723995 -0.048076622 -0.05597046 0.050817974 0.024509007 0.009246237 0.053152665
-0.042799633 0.07009626 0.068687506 -0.0065489495 0.00063758314 0.07848646 0.03396815 0.026873391
0.042959314 0.00986964 0.033472415 0.063633494 -0.006426595 -0.050621446 -0.01096077 -0.065995954
0.008212687 -0.029550055 0.0005840799 -0.03147493 -0.0024372223 -0.0535855 -0.081321694 0.04069885
-0.05942007 -0.048023466 0.037337895 -0.07066047 -0.021435583 0.07390121 0.0089049125 -0.07716725
-0.039784975 -0.010186863 -0.0854356 0.058713876 -0.023413057 0.05461763 0.049267355 -0.041059997
0.008480177 -0.078783326 0.045532543 -0.054203887 0.069162495 -0.00069125096 -0.08333234 0.0027526894
0.053974703 0.019515824 0.010037604 0.06431679 0.06258073 0.019058393 0.062678024 -0.041586448
-0.019433472 0.00038959424 0.081769764 0.025624752 0.06330074 -0.014485774 -0.049710028 0.005805234
-0.0664747 -0.016697321 0.021696117 -0.067733705 -0.017939737 -0.03405211 0.010005936 -0.0046745897
-0.04380455 -0.01432576 -0.058258686 0.032703128 -0.08379926 0.018415682 -0.07091314 0.02614943
-0.0077016493 0.03316227 -0.08634897 0.046742015 0.042659793 0.035460833 -0.033963762 0.009608704
0.070662886 0.027387206 -0.060774196 0.04031677 -0.06786158 -0.04583583 0.060904168 0.0093727065
0.014595816 -0.00894738 -0.03794596 7.112284e-21 -0.055024814 -3.9684323e-06 0.031967156 0.012719904
0.044863697 0.082523145 0.057416596 0.049174547 -0.01964941 -0.058110382 0.071324274 0.065769926
-0.08150747 -0.05400657 -0.006004209 0.008404845 -0.070210315 -0.0017299805 -0.01779763 -0.029062912

fc3.bias f4 [64]
00000000: ad97 a23d c046 7dbd 1197 91bd cbd6 b5bc
00000010: ffbd cc3b 8b99 5539 f1be 613b 894d 73bc
00000020: 61d2 043d 8c9c 683c 7336 5abd 1fa7 a4bd
00000030: 5183 933d 471d 82bc 1eef cb3c 5839 72bd
00000040: fc11 14bd 218d 40bd bc47 4a3d 53cd 4fbd
00000050: dab5 29bc c524 a03d 45de d43a 6b04 5abd
00000060: c36e d3bc eb19 883d fc0b 8d3c f9d3 a9bd
00000070: 0de3 5bbd b298 7a3d 443d 01bc f8af e8bc
00000080: 79b9 e3bb d783 8f3d 4737 5fbd 5f9f 83bb
00000090: ae72 793c abb3 993c 38fb 913c 4848 9abd
000000a0: f5e5 52bd fb2e e4bc 0174 9fbd 5aa7 673c
000000b0: dcc6 6a3d 099b 833d 30d7 a7bd d6ac 8b3d
000000c0: 6735 82bd 960e 883d a39e d2bb 9452 d3bc
000000d0: 146f 8d3c e2ed 51bd 0a39 523c d7be 88bd
000000e0: f4e8 a83b cd15 95bd a5bb 98bc 6dc6 363d
000000f0: cd82 48bc f9a1 213d 451e a1bd ced2 9d3d
0.07939086 -0.06183505 -0.07108892 -0.022197148 0.0062482352 0.00020370462 0.0034446085 -0.014850029
0.032427195 0.01419748 -0.053274583 -0.08039688 0.07202781 -0.015883101 0.024894293 -0.05913672
-0.036149964 -0.04700959 0.049384817 -0.05073292 -0.010358298 0.07819513 0.0016240558 -0.05322687
-0.025809651 0.066455685 0.017217629 -0.08292384 -0.05368333 0.061180778 -0.007888142 -0.028404221
-0.0069496003 0.07007568 -0.054496076 -0.0040168012 0.015225096 0.01876243 0.017819986 -0.07533318
-0.051488835 -0.027854433 -0.07785798 0.014139021 0.057318553 0.06426055 -0.08195341 0.06820075
-0.06357842 0.06643407 -0.0064276024 -0.025796212 0.01726488 -0.051252253 0.012830982 -0.06677025
0.0051547233 -0.07279549 -0.018644163 0.044622827 -0.012238217 0.03946111 -0.078671016 0.077062234

fc5.weight f4 [1, 64]
00000000: 1a73 adbd fe3f afbd ad62 f6bd 4d55 6436
00000010: 7794 f9bd f12b 233c d69b a8bc 014e 853d
00000020: 9b03 9bbd b6b1 063d 90bc f03c 7a13 86bd
00000030: 8d8f 903d 583d 0a3c a52f 74bd 7034 53bd
00000040: c181 16bd b701 2e3d 3aef aebd 7df8 503d
00000050: 99b5 27bc c941 e43b 7936 a53c 2882 acbd
00000060: c812 4fbd 0bd9 ab3d 0986 8e3c 36b5 b3bd
00000070: 486c 39bd ac30 afbd de31 873c 1edb e7bd
00000080: 64d6 aebd bffb 843d 91f8 203d e9c1 89bb
00000090: c0c5 febd 7d00 8e3d a719 c13c 72d2 0bbd
000000a0: 65c9 24bd c9db 99bd 42cd 513d d63f 4fbd
000000b0: 4aff 9abd d566 61bd e791 233d da29 babd
000000c0: 5260 223c c6c9 c53d 7ad8 27bd 8ecd 47bc
000000d0: ad2c d3bd 004c cabb f4a4 35bd 05c2 adbd
000000e0: 5a68 e23c a549 a2bd bdb3 9d3d b2ea 343d
000000f0: 577f 7dbc efe7 bcbd 225b d13d 9fe5 ca3d
-0.084692195 -0.085571274 -0.1203054 3.40243e-06 -0.121865205 0.009959207 -0.02058212 0.06509019
-0.07569047 0.032884322 0.029386789 -0.065466836 0.0705863 0.008437477 -0.05961575 -0.05156368
-0.036744837 0.042482104 -0.085417226 0.051018227 -0.010236167 0.00696585 0.020167576 -0.08423263
-0.05055502 0.08391007 0.017397897 -0.087747976 -0.04526928 -0.08554205 0.01650327 -0.1132109
-0.085369855 0.06493329 0.03929955 -0.004204024 -0.124400616 0.06933687 0.023571802 -0.034136243
-0.040231127 -0.07512624 0.05122114 -0.050597988 -0.07568224 -0.05502971 0.039934065 -0.09090014
0.00991066 0.09657626 -0.040977933 -0.012195004 -0.103112556 -0.0061736107 -0.044346765 -0.08484272
0.02763765 -0.07924203 0.07700298 0.044169135 -0.015472255 -0.09223925 0.1022246 0.09907078
