code/REEM/model/best-model/Philadelphia/model_best_rating.pth (torch, 393464 bytes, 7 tensors)

fc1.weight f4 [512, 45]
000000 e9 f4 06 3c 8d 24 c7 3d f5 63 0e 3e a7 a6 ea bd
       0.008237102 0.097237684 0.13905318 -0.11457568
000010 f1 80 ce bd 98 d4 3c bd be e0 b0 bd 40 51 0d 3d
       -0.10083187 -0.046101183 -0.08636616 0.034501314
000020 cd da c9 bb 6c ff 94 3d fc 67 d7 bd 3f bb 8a 3c
       -0.0061601163 0.0727528 -0.1051788 0.016934989
000030 c6 af c9 bd 4e 09 74 3d 14 db 00 3e 23 fd f1 bc
       -0.09847979 0.059579186 0.12583572 -0.02953965
000040 b7 72 73 bd eb 64 f5 3d 00 06 9e 3d 84 39 00 3d
       -0.059435572 0.11982139 0.07715988 0.03130485
000050 28 a9 eb 3d 2b 2a f7 3d b5 6d 43 3d 71 ca 54 3d
       0.11506873 0.1206859 0.047712047 0.051950876
000060 4d da a9 bd 16 ec 17 ba 92 12 b1 bd 4f 11 b3 3d
       -0.08293591 -0.00057953724 -0.0864612 0.08743536
000070 4d 28 02 be d5 a7 04 be 9f c3 7c bd 5f c9 04 be
       -0.12710686 -0.12954648 -0.061709996 -0.12967442
000080 04 01 12 3e 96 c9 6a 3d 91 65 62 3d 51 03 a0 bc
       0.142582 0.057321154 0.055272643 -0.019532831
000090 42 69 92 3c 50 57 bf bd 15 8c 35 bd a2 76 8e 3c
       0.017872456 -0.093428254 -0.044323046 0.017390553
0000a0 43 c8 0b be d0 6b 7d bc b0 30 62 bc cc 2c 9a 3d
       -0.13650613 -0.015467599 -0.013805553 0.075280756
0000b0 a0 b8 14 3e 9b fd 7a 3b a2 c8 70 bc d3 00 0e 3e
       0.14523554 0.0038298133 -0.014696272 0.13867502
0000c0 d0 bd a2 bd 84 81 42 3d 59 1d 52 3d e8 2e b3 bd
       -0.0794636 0.047486797 0.05129752 -0.08749181
0000d0 e6 5c 8e bd 11 e7 b5 3c e5 75 89 bd 67 8f be ba
       -0.06951313 0.022204908 -0.0671194 -0.0014538587
0000e0 23 fb 0f 3e b1 90 5c bc 19 a4 77 3d 3c c5 cd 3d
       0.14060645 -0.0134622315 0.06045923 0.10047385
0000f0 10 0d c3 bd 7b 9a b2 bb 8d 5c 0c 3b d9 03 fd bd
       -0.09523976 -0.0054505444 0.002141747 -0.123542495
000100 62 6c c3 bd d6 e1 eb 3d 58 6a 05 be 47 fa a0 3d
       -0.09542157 0.11517684 -0.13028848 0.078602366
000110 f0 fd bd bd cc 4c d5 bc e8 fe 05 be c4 f1 1b 3d
       -0.0927695 -0.026037596 -0.1308552 0.038072363
000120 0b 04 c5 3d 77 32 b5 bc ae 30 7a bd 0b 41 c5 bd
       0.09619912 -0.02211879 -0.06108158 -0.096315466
000130 2b 86 09 3e c4 5b 57 bd 8a 62 b4 3d 82 84 91 bd
       0.13430087 -0.05257775 0.08807857 -0.07105352
000140 de a7 5f 3c 5a 44 25 3c 79 c4 05 bc 98 6e fe bd
       0.0136508625 0.010087097 -0.0081645185 -0.12423438
000150 75 4a 5d 3d 97 5d 8b 3d 4d 81 2e bd 59 6e fd 3d
       0.054026086 0.0680496 -0.04260378 0.12374563
000160 b7 8e 09 bc 4a 68 8c bd 14 22 3f bd b2 4f a5 bc
       -0.008395842 -0.06855829 -0.04666336 -0.020179603
000170 c7 e0 09 3d 1d 97 e1 bd 0c 20 a9 bd 8a f8 cf bd
       0.03366163 -0.11015151 -0.082580656 -0.10154827
000180 80 c3 e0 3b b2 f7 eb bc b7 71 13 be 28 4f fc 3c
       0.006859243 -0.028804634 -0.14398848 0.030799463
000190 fb 82 a9 bd 10 cc 0f 3c 99 e8 70 bc d0 51 69 bd
       -0.08276936 0.00877668 -0.014703893 -0.056962788
0001a0 47 c8 d2 bd b5 05 89 3d a5 0d 0a bd 73 e6 d5 3d
       -0.10292106 0.06690542 -0.03370442 0.10444345
0001b0 c5 9d 0e 3e bc 4a be 3c 4b 43 05 bd 83 03 a3 3c
       0.13927372 0.023228996 -0.03253488 0.019899135
0001c0 b7 00 06 3e 37 74 df bd 14 30 a0 3d 85 ef fa bd
       0.1308621 -0.10910838 0.0782167 -0.12252716
0001d0 c7 34 f4 3d 16 da b8 3d b7 9d 04 3e 41 91 ae bc
       0.11924129 0.090259716 0.12950788 -0.021309497
0001e0 fe 9d af 3d 21 dd f3 bd 45 79 ee bd bc 1b df bd
       0.085750565 -0.11907411 -0.11644224 -0.10893962
0001f0 32 af de 3d 50 d4 83 3d e9 59 3a bd 24 97 c7 3d
       0.108732596 0.0643698 -0.0454959 0.09745625
000200 22 c4 b5 bd 2b 66 9c 3d 6f 6f 94 3d 31 84 2e 3d
       -0.088753 0.076366745 0.07247817 0.042606536
000210 9a 3c ca bd 8d 00 00 3e dd 19 b6 3d 43 a0 eb bc
       -0.0987484 0.1250021 0.08891652 -0.028762942
000220 92 44 19 3e c4 b2 b0 bd 19 d2 90 3d f1 04 b9 3d
       0.14967564 -0.08627847 0.07071323 0.090341456
000230 c8 0a 37 bd 56 de ed bd 2d 36 2b bd cf d6 e9 bd
       -0.044688016 -0.11614673 -0.041799713 -0.114179246
000240 09 e7 d5 bd e8 04 c9 bc 15 28 30 bd 6e 21 1d bd
       -0.10444457 -0.024538472 -0.043006975 -0.03836196
000250 ac 3a a0 3d cc 7e 00 3e b9 cb f8 3b 45 aa 47 bc
       0.07823691 0.12548369 0.007592645 -0.0121865915
000260 9b bb 2f 3d 0b 04 8a bc ac 15 80 3c 82 5d b5 3d
       0.042903524 -0.016847631 0.015635334 0.08855726
000270 e8 e4 5e bd 44 c7 7f 3d 18 77 b4 3c b6 3c d0 3b
       -0.05441752 0.062445894 0.022029445 0.0063548936
000280 cc cc fc 3d 89 fc 21 bd 20 36 b2 bd ec fe d2 bd
       0.123437494 -0.039547477 -0.0870173 -0.10302529
000290 51 e3 11 3d 1e c3 d7 3c bb e1 9b bd 68 fa 4a bd
       0.035617176 0.026338156 -0.07611414 -0.049555212
0002a0 bd 8d e6 bd b8 48 14 3c 3b 52 f3 bc 75 93 76 bd
       -0.11257503 0.009050541 -0.029702296 -0.06019922
0002b0 fe 8b d9 3d 00 8d 39 3d c2 41 ec bd a8 9d df 3d
       0.106224045 0.045300484 -0.1153598 0.109187424
0002c0 0e aa 09 3e 9a 13 96 bd 67 a7 f8 3d cb df fa bc
       0.13443777 -0.073279575 0.121413045 -0.03062429
0002d0 d8 d1 05 3e a9 77 e9 3d 20 bc 83 3d 11 9c 00 3e
       0.1306833 0.113997765 0.06432366 0.12559535
0002e0 d3 4b a5 3d c0 f8 c8 bc 68 af a4 3d b4 72 06 3e
       0.08071103 -0.024532676 0.080412686 0.13129693
0002f0 f4 b1 9d 3d d4 8b cf bb ac e3 c0 bd b7 c6 b3 3d
       0.076999575 -0.0063338075 -0.09418425 0.08778136
000300 66 f9 d7 bc b0 6c f8 bd 94 86 d2 3d 21 32 5f bd
       -0.02636404 -0.121301055 0.10279575 -0.054491166
000310 d1 79 d2 3d 60 80 df bc 47 84 3e bd 7f 28 f1 3d
       0.10277141 -0.027282894 -0.04651287 0.11775302
000320 36 2b e6 bd 2f 26 55 bd 6c 1a 0d 3e 11 99 e9 bd
       -0.112387106 -0.052038368 0.1377961 -0.11406148
000330 1a 6a 60 bd 8d 1c bb bd 17 bc d1 3d a5 2d 60 bd
       -0.054788686 -0.09136305 0.102409534 -0.05473103
000340 d2 98 95 bd 44 0e a4 bd c5 b2 98 bc 27 f6 1f bc
       -0.07304539 -0.080105335 -0.018639931 -0.009763277
000350 a8 f1 5d bd f7 56 17 be d0 69 d0 3c a5 a8 b6 bd
       -0.05418554 -0.14779268 0.02544108 -0.08918885
000360 e3 31 d9 3d 25 1e cd bc ef dc c3 3d 7b 03 9c bb
       0.10605218 -0.025038788 0.09563624 -0.004761157
000370 bc 43 8a bd 22 1a d6 3d d0 c6 02 be d4 de f5 bd
       -0.067512006 0.10454203 -0.12771153 -0.12005392
000380 44 21 a3 3c 45 6f 8a b9 36 77 a7 3d 19 a4 de 3d
       0.019913323 -0.00026404313 0.081770346 0.10871143
000390 32 2b 96 bd 40 2d d3 3c ea 0b df bd 32 e3 03 3e
       -0.073324576 0.025778413 -0.10890944 0.12879637
0003a0 3d 45 65 3d 7b 8a 0f be d8 cb c3 3d af 90 2e bd
       0.055974234 -0.1401767 0.095603645 -0.04261845
0003b0 41 98 85 bd 79 31 f6 bb a4 5b 9f 3b eb 12 98 bd
       -0.06523181 -0.007513222 0.0048632193 -0.07425483
0003c0 d4 2f ba 3c 8b a5 79 bd cd 47 05 3e 7c 4f 84 bd
       0.022727884 -0.06094889 0.13015671 -0.06460473
0003d0 16 6e d3 3c 5e d5 f0 3d 99 b8 c6 3d 93 8d 03 be
       0.025809329 0.117594466 0.09703178 -0.12846975
0003e0 b9 d8 04 3e 1a 0e f8 bb 37 74 e4 bd d6 88 16 be
       0.12973298 -0.0075700404 -0.11154979 -0.14700636
0003f0 27 63 b5 3d d3 7a a6 bd eb 87 c6 3d 97 7a f8 3d
       0.088568024 -0.081288956 0.09693893 0.12132757

fc1.bias f4 [512]
000000 e2 36 b8 3d 5a b2 11 bc 80 14 7e bd 28 c0 46 3d
       0.08994843 -0.00889262 -0.06203127 0.0485231
000010 7c af 81 3b 48 53 c6 3d 36 b7 85 bd fb 48 73 3d
       0.003957687 0.096838534 -0.06529085 0.05939577
000020 3c af 94 bd 1c 88 11 3c 07 d1 48 38 5c 2d d6 3c
       -0.07259986 0.008882549 4.7878388e-05 0.026144676
000030 7e 68 96 bd 7b ef 01 3d 55 64 98 3d 17 fb 99 3d
       -0.07344149 0.031722527 0.07441012 0.07518595
000040 25 bc 62 3d c5 76 c1 bd af 62 fe 3d 97 9d b2 bd
       0.05535521 -0.094464816 0.12421166 -0.08721464
000050 76 c1 f1 bd 18 18 e1 3d 78 5e dc 3d bc 43 95 3d
       -0.11804478 0.10990924 0.10760206 0.0728831
000060 bf b7 6f 3d 0e 35 79 bd 40 35 ea bd ad ed 4c bc
       0.058524843 -0.060841613 -0.11435938 -0.012507838
000070 61 54 f8 bd b0 ba 1e 3d 39 d6 24 bd 98 31 a9 3d
       -0.12125469 0.038752258 -0.04024336 0.082614124
000080 11 69 16 3e 38 83 5b 3a 92 73 86 ba 90 60 be b1
       0.14688517 0.000837374 -0.0010257831 -5.5407057e-09
000090 78 81 a6 3d ca 8b 03 be 5d 18 e4 3d a5 41 b4 bc
       0.08130163 -0.12846294 0.111374594 -0.022003958
0000a0 fe 98 c2 bb 52 0f b9 3a 87 c7 e1 bd be 9b a8 bd
       -0.0059386482 0.0014118946 -0.11024385 -0.082328305
0000b0 db 42 eb bc e3 52 7d bd c3 4e a6 3d 5f 10 0b 3d
       -0.028718403 -0.061846625 0.08120491 0.03395116
0000c0 25 73 e4 3d 3c f8 ec bd a6 74 fc 3c 3d 20 c8 bd
       0.111547746 -0.115707844 0.030817341 -0.09771774
0000d0 d3 59 81 3d 0a e3 95 3d fd ba 0b be 3f 6a 96 bd
       0.06315961 0.07318695 -0.13645549 -0.073444836
0000e0 82 5c ad bd 37 80 b0 bd 86 d6 e2 bd 7b 4b 41 bd
       -0.0846491 -0.08618205 -0.11076073 -0.047191124
0000f0 a2 a1 11 3e f9 a1 47 3d ca 45 e8 bd a2 36 04 be
       0.14221814 0.048738454 -0.11341436 -0.12911466
000100 87 7e 03 be 12 b3 23 3c 07 4c 83 bd 9b 07 4b 3d
       -0.12841235 0.009991424 -0.064109854 0.0495678
000110 ff 07 ad bd 27 33 81 3d c9 f7 13 bd d7 48 bf bd
       -0.08448791 0.06308585 -0.03612498 -0.09340065
000120 1f 9d 0d bc 65 69 8c 3d 49 5a 10 be 8c 19 d7 bd
       -0.008643418 0.0685604 -0.14096941 -0.105029196
000130 40 8e ac bd df bc 36 bd 60 76 38 3d 48 79 9c 3c
       -0.084255695 -0.044613715 0.045034766 0.0191008
000140 68 29 b1 bc 5a 7b d5 bb 9c 26 10 3e da 49 18 bd
       -0.02162619 -0.006514949 0.14077228 -0.037179805
000150 a6 c5 b4 bc 05 3a cb bc 43 4b e0 bd 62 10 89 bd
       -0.022066902 -0.02480794 -0.10951855 -0.06692578
000160 b0 61 a2 bd 19 a3 20 bd d0 82 c9 bd 3b 9a c8 3d
       -0.07928789 -0.039218042 -0.09839404 0.09795042
000170 6c fc 9e bd 38 53 1f 3d 2c 49 11 3e 85 c4 14 3e
       -0.077629894 0.038897723 0.14188069 0.14528091
000180 bf bb 12 be f6 23 92 bd 9a 00 8f bc 28 f1 d6 3d
       -0.14329432 -0.07135765 -0.017456342 0.10495216
000190 8d ce 4f 3d 9b 96 e7 3d 87 80 b8 3d 5f 68 71 bd
       0.05073409 0.113080226 0.0900889 -0.058937427
0001a0 49 be b3 3d de 8f 84 3d 6f 6c 1c 37 2e 5f c3 3d
       0.087765284 0.06472753 9.323571e-06 0.095396385
0001b0 a5 f0 5d 3d d9 cf 4e 3c 4b 89 74 bd d0 6b f4 bd
       0.054184575 0.012622797 -0.059701245 -0.11934626
0001c0 f1 34 68 3d 22 e3 3e 3c c6 7e 0f bd c4 29 a7 3d
       0.056691114 0.011650832 -0.03503301 0.08162263
0001d0 29 f4 8d 3c 32 7a 9f 3d cb 7d 5c 3c d5 6b 6f 3d
       0.017328339 0.07786979 0.013457726 0.058452446
0001e0 46 70 cf 3d 0d 77 ef 3d 17 28 0e 3e 91 6d 26 b9
       0.10128836 0.11692629 0.1388248 -0.0001587181
0001f0 2e 0d e1 3c 09 af 54 bd 12 45 87 3b 5c 0c b0 3c
       0.027472105 -0.05192474 0.004128107 0.021490268
000200 de e1 4c 3d c6 ac a1 3c 2d c2 41 bd 2b bc 03 be
       0.05002009 0.019735705 -0.04730432 -0.12864749
000210 09 63 49 3d 8d a3 a3 3d 63 83 55 3c ff b6 04 be
       0.049166713 0.07990179 0.013031813 -0.12960432
000220 f4 5a 40 bd f2 4e b3 3d 2f b2 d8 bd 69 9e b0 3b
       -0.04696174 0.08755292 -0.10580861 0.0053899777
000230 98 13 fd 3c 76 1d e6 bd 22 4f 7f 3d 5c f2 bb 3b
       0.030893132 -0.11236088 0.062331326 0.0057356786
000240 cf 60 3f bd 07 9b 92 3b 54 39 da bd 9f d3 e6 bd
       -0.046723183 0.004474047 -0.10655466 -0.11270832
000250 e7 ef 09 3e ea 19 30 3d 3c 3f 39 bd 0c 62 ae bd
       0.13470422 0.042993464 -0.04522632 -0.08514795
000260 aa c9 c1 3d cd 83 1b 3c 98 4c 9a bd c1 cf b7 bd
       0.094622925 0.009491873 -0.0753414 -0.08975173
000270 45 ba 38 b9 aa 6e 3c bd 3e 19 b6 3d e1 ba b6 bd
       -0.00017616998 -0.046003975 0.08891533 -0.08922363
000280 95 3c 98 3d 22 65 b8 3d 12 31 0b bc 4d 28 3f bd
       0.0743343 0.090036646 -0.008495586 -0.046669293
000290 0d 7f fc bd c7 d5 b9 3d 62 6f 84 bd c3 e3 9f bd
       -0.123289205 0.09073978 -0.06466557 -0.07807114
0002a0 b0 ed 13 3d 6b 8b a8 bb 36 d7 a9 3d 02 02 ed 3d
       0.03611535 -0.005143573 0.08293001 0.115726486
0002b0 09 2e e0 3d c9 94 2b 3c d4 31 78 bb 99 63 d0 bd
       0.109462805 0.010472485 -0.0037871497 -0.10175247
0002c0 b7 cb 93 bd 76 2b 83 3b 64 e9 10 3e 8e 51 45 3c
       -0.0721659 0.0040029837 0.14151531 0.01204337
0002d0 1b f0 0b bd a5 c2 ec bb 6e a9 c3 bd 3f d1 9b 37
       -0.03416453 -0.007225352 -0.095538005 1.8574878e-05
0002e0 a8 93 af 3d b7 8c a6 bd 15 94 c8 bc e0 16 91 bd
       0.08573085 -0.08132308 -0.024484674 -0.07084441
0002f0 41 f9 02 be 1f 7d 4c 3b db c8 ac 3d 61 5f eb 3d
       -0.12790395 0.0031202508 0.08436748 0.114928015
000300 61 be cb 3c 2c 53 c0 3c d7 88 a0 3d 99 31 7c 3d
       0.024871053 0.02347716 0.078386 0.061570738
000310 33 30 e7 3b bc 8f e2 3d 1b a7 be bc aa 57 a2 ba
       0.0070553063 0.110625714 -0.023273041 -0.0012385745
000320 cd 0b c5 bd b5 03 0b be e6 54 21 3b 0d b5 b4 3d
       -0.096213914 -0.13575633 0.0024617254 0.08823595
000330 de bf e3 bc 6c 4c c5 bd 9f 98 09 be 10 8f e8 3c
       -0.02780145 -0.09633717 -0.13437127 0.02838853
000340 22 e3 e3 bc f4 f2 80 3d 59 76 c5 bd ee 3d 34 3d
       -0.027818266 0.0629634 -0.09641714 0.044004373
000350 ca 8c a8 bd 04 59 d9 bd 07 d1 12 3d ad 4e a6 3c
       -0.082299784 -0.106126815 0.035843875 0.020301187
000360 1b a2 1a 3e 0e 74 1f 3e eb 49 28 3d a4 a0 d6 3d
       0.15100901 0.15571615 0.04108612 0.104798585
000370 5e a2 02 be 27 14 b6 3d ea b5 8d 3d f3 bb 69 bd
       -0.1275725 0.088905625 0.06919463 -0.057064008
000380 d1 70 2c bc 9a 2c b5 bd 3e 24 0a be 36 3d 13 be
       -0.010524944 -0.08846398 -0.13490388 -0.14378819
000390 ed 15 9f bd 24 8c a9 bd 5f dc 2a bd d5 c2 e8 3d
       -0.07767854 -0.08278683 -0.04171407 0.11365286
0003a0 d0 02 b3 bc 49 be 9c 3d dd d4 55 bd 02 d7 24 bd
       -0.021851927 0.076534815 -0.052204955 -0.04024411
0003b0 e7 bb 99 bd 82 cd 08 3e 16 84 16 3d 4e 6b 98 bd
       -0.07506543 0.13359645 0.03674706 -0.07442342
0003c0 c6 66 51 3d 55 9d a7 3d 31 00 63 3d af 85 ff 3d
       0.051123403 0.081843056 0.055420104 0.1247667
0003d0 2a 6c f5 b9 6b 2a 20 bd b6 74 f9 3c d9 05 b6 3d
       -0.0004681063 -0.039102953 0.03045116 0.08887834
0003e0 1f 84 28 3d 33 82 af 3d cf 06 b9 bc 33 c4 ae bc
       0.041141625 0.085697554 -0.022586254 -0.02133379
0003f0 d4 11 01 00 64 37 14 3e 62 c9 4a bd ca 93 11 3b
       9.8231e-41 0.14474255 -0.04950846 0.0022213333

fc2.weight f4 [128, 512]
000000 7c 4f a3 bb 9f f2 44 38 4b f5 e1 38 25 db 11 bc
       -0.0049838405 4.6956e-05 0.000107745254 -0.008902346
000010 3b 70 bb b7 94 dd 6f bb 36 4b f6 38 0e 70 88 34
       -2.2344399e-05 -0.0036600577 0.00011744203 2.5413505e-07
000020 08 76 5b ba 91 ba 81 27 f5 ff 01 bb d6 36 32 24
       -0.0008371775 3.600697e-15 -0.00198364 3.8644045e-17
000030 19 97 ca 3b 7f eb 2a b6 59 73 62 39 63 09 8c 21
       0.006182563 -2.546905e-06 0.0002159601 9.489254e-19
000040 c2 fe 58 bc e7 4f 03 bc 7f 13 01 80 27 2b 13 b7
       -0.013244333 -0.008014656 -9.883e-41 -8.77193e-06
000050 03 95 78 ba 6b 1b 95 36 01 47 57 bc 82 ac 88 b1
       -0.00094826537 4.443738e-06 -0.013139487 -3.977733e-09
000060 00 8d 8b 3a ae 87 0d ba 12 aa 9b 3a 34 bc 15 34
       0.001064688 -0.0005398941 0.0011876246 1.3945174e-07
000070 ec 33 c0 a8 aa 0d af b7 0f ca 45 b2 e0 2b b6 34
       -2.13388e-14 -2.0867988e-05 -1.1512852e-08 3.3932065e-07
000080 de 82 08 b1 b3 e9 cc 3b c0 a6 a6 bb 3d ac 94 b6
       -1.9864994e-09 0.006253445 -0.005085796 -4.430795e-06
000090 0c 93 c9 ba a0 e4 6b bb 17 5c 01 3b 5c 35 71 36
       -0.0015378906 -0.0035994425 0.0019738728 3.5942858e-06
0000a0 df f2 16 89 0e 43 03 3c 36 a5 3d 39 2f 43 d2 ba
       -1.816979e-33 0.008011593 0.0001808599 -0.0016041751
0000b0 8a 7d e3 3a 5c 0f 0c b4 0a 5a 21 3c 97 ce d2 28
       0.0017356139 -1.3044104e-07 0.009848127 2.3404278e-14
0000c0 d5 e8 32 39 9a b4 07 bc 18 0b 54 3b 0e 13 32 bc
       0.0001706214 -0.008282805 0.0032355245 -0.010868801
0000d0 f7 09 37 3c 37 54 ea 29 50 f9 1e 34 1b 10 e1 ba
       0.011171809 1.04062965e-13 1.4805596e-07 -0.0017170937
0000e0 d4 d7 80 37 86 54 4f 35 4d e4 4d 3c ee e3 bd 3a
       1.5359292e-05 7.7236507e-07 0.012566638 0.0014487484
0000f0 54 c8 0b 3a 3a 49 de 3b 17 8a 0d bc dc e1 73 33
       0.00053322804 0.0067836316 -0.00863888 5.6783264e-08
000100 ed 5c 06 b8 59 d1 1b bc 54 83 11 34 6d 6d 81 37
       -3.2034633e-05 -0.009510362 1.3551954e-07 1.5428954e-05
000110 fe 63 a5 bb c5 d2 be ba 14 41 a0 b7 fd ef e7 38
       -0.0050473204 -0.0014558664 -1.910379e-05 0.0001105964
000120 14 1b 8c bb df 44 86 39 16 fb 08 34 7d b0 3a b5
       -0.004275689 0.00025609785 1.2757332e-07 -6.9547224e-07
000130 cf c2 17 bc 26 8d 03 ba 37 81 51 3b bf 13 01 00
       -0.009262755 -0.0005018286 0.0031967887 9.8919e-41
000140 9e 01 22 2c eb 9d f9 33 35 07 e6 3b 91 60 0d 30
       2.3022482e-12 1.1623691e-07 0.007019902 5.143273e-10
000150 74 71 98 bb c7 a1 29 bc 7e 5e 84 3b 23 19 22 3c
       -0.0046521965 -0.010353512 0.0040395847 0.009893688
000160 bf 11 01 00 25 cb c5 3b 7c 1a 41 3c dc 38 47 9e
       9.8202e-41 0.0060361796 0.0117860995 -1.05467305e-20
000170 2a 59 25 bc 76 4a 57 3c a4 6b 2e bc 84 f8 d1 bb
       -0.010092059 0.013140311 -0.010645781 -0.006407799
000180 57 37 5f bc bd 6a 02 3c 00 e5 85 bb 10 13 01 00
       -0.013624034 0.007960019 -0.004086137 9.8674e-41
000190 a8 1a 26 04 60 c6 ca b4 89 7e 5b 3c a4 d3 30 bb
       1.9525446e-36 -3.776977e-07 0.013396868 -0.0026981616
0001a0 00 34 d9 b8 e7 73 4d 30 54 a0 c0 ba 6d 72 d7 bb
       -0.00010357052 7.474327e-10 -0.0014696219 -0.00657492
0001b0 64 36 07 3b d3 47 84 3b b9 93 43 bc b1 c5 8e 8d
       0.0020631785 0.0040368824 -0.011937075 -8.799018e-31
0001c0 40 1e 51 a7 0e 73 5d 39 fa c9 07 26 0a 0e 16 bb
       -2.9020975e-15 0.00021119064 4.7111263e-16 -0.0022896552
0001d0 34 36 f8 b9 51 f3 e4 3b c8 7a ee b3 78 92 61 36
       -0.0004734263 0.0069870134 -1.11050724e-07 3.3612869e-06
0001e0 a7 12 01 80 22 0c ed b9 b5 9b 8f 3a dc 61 25 3c
       -9.8527e-41 -0.00045213202 0.0010956438 0.010094132
0001f0 29 35 5b 3c 3c 95 30 bc 58 7e a0 bb 3c a6 28 b8
       0.013379374 -0.010777768 -0.004897874 -4.020914e-05
000200 c5 42 a6 bb e9 22 4c b0 fd 95 4e 3c 43 b5 c3 bb
       -0.0050738775 -7.426438e-10 0.012609002 -0.005972536
000210 22 5f 2a b5 81 18 8a 38 74 2c c7 bb 30 63 4f ba
       -6.346837e-07 6.584917e-05 -0.0060782973 -0.00079112034
000220 52 5f 89 22 6e 82 bd bb fd fa 1a ba f1 9d ac 3a
       3.723485e-18 -0.0057833707 -0.0005912034 0.0013169629
000230 03 84 04 0f 59 13 01 80 3d a6 02 3c 45 80 ec 3b
       6.533527e-30 -9.8776e-41 0.007974205 0.0072174394
000240 09 ca e2 38 cf ff 87 32 d1 01 e9 3b 61 12 01 00
       0.00010814152 1.5832397e-08 0.0071108122 9.8429e-41
000250 25 a0 1e 3a 8f 9a 6d 3b 9e e1 9d 39 59 65 16 ba
       0.0006051085 0.0036255454 0.0003011347 -0.0005737148
000260 33 ab 3e bc b0 53 01 3c eb 19 4f ba 58 b1 64 bb
       -0.011637497 0.007893488 -0.00079002854 -0.0034895744
000270 5c cb 3b 3c f4 89 08 b8 30 91 61 b2 06 d6 ca bb
       0.011462059 -3.2553406e-05 -1.31297355e-08 -0.0061900644
000280 a7 8a f1 b5 b4 52 6d bb 5f d0 ac 3b e6 a3 45 3a
       -1.7996252e-06 -0.0036212625 0.005273863 0.00075393764
000290 3c be f9 b7 8f 11 01 00 12 d4 1f b7 c0 f5 b0 37
       -2.9771698e-05 9.8134e-41 -9.526515e-06 2.1095271e-05
0002a0 84 93 b9 bb bf 86 e6 35 22 a4 08 bc 1b 95 b9 bb
       -0.005663337 1.7175552e-06 -0.008339914 -0.0056635267
0002b0 0c ce 37 bc 79 3a 79 b4 ee dd 96 33 51 20 35 39
       -0.011218559 -2.3211204e-07 7.025288e-08 0.00017273544
0002c0 61 71 40 3c 2b 13 01 80 c7 06 80 33 92 27 85 36
       0.011745782 -9.8712e-41 5.961697e-08 3.9683155e-06
0002d0 2a 29 e8 38 9a 70 9a bb 61 7a dc ba b2 61 a9 07
       0.000110702895 -0.00471313 -0.001682114 2.5485714e-34
0002e0 99 7b 1f bc c8 3c 9b 32 4d 6c 18 bc 7a 13 01 80
       -0.009734058 1.8072015e-08 -0.009303165 -9.8822e-41
0002f0 a3 0c a5 3a ca e8 59 3c b0 a8 b4 37 bf c0 a0 bb
       0.0012592267 0.01330013 2.1536223e-05 -0.0049057896
000300 3a f0 b3 30 6b 7f 08 3c 1e 69 25 38 bd 16 c0 b2
       1.3092241e-09 0.00833116 3.9436964e-05 -2.2362082e-08
000310 d6 52 1e 32 c4 c2 3d bc 5e e4 fe 38 de a2 f3 bb
       9.215645e-09 -0.01158208 0.000121542005 -0.0074351868
000320 52 ae 31 3b 49 f5 eb 3b ef fa cb 3b 72 29 ea 30
       0.002711196 0.007200871 0.006224982 1.703752e-09
000330 9e 57 ab 3b 34 f9 23 bc 9a dd cc 3a cb 21 c2 bb
       0.0052289506 -0.010008145 0.0015630007 -0.0059244386
000340 07 1b 83 3a 4b ff 9c bb 6d eb 0f b8 db 03 05 39
       0.0010002562 -0.0047911755 -3.4313114e-05 0.00012685305
000350 2b d8 ae 38 8a 84 0b 3c 19 e5 1d b9 fb 08 25 b0
       8.337231e-05 0.0085154865 -0.00015058032 -6.003941e-10
000360 2d 4a 69 bb 43 3d 80 39 68 f3 64 3c 7e d6 5b 3a
       -0.003559719 0.00024459706 0.013974048 0.0008386149
000370 9d 7f 4c ac d0 7f 81 bb f1 1e 57 31 c8 2c 31 ba
       -2.9060983e-12 -0.003952004 3.1304206e-09 -0.0006758687
000380 e8 a8 92 86 c0 12 01 80 9d 12 1b b7 0a ee 16 3c
       -5.516728e-35 -9.8562e-41 -9.243054e-06 0.009212026
000390 5d 5a ab bb df 2b 00 bc ae 1b 02 bb be e2 38 32
       -0.005229278 -0.00782296 -0.0019852924 1.0761765e-08
0003a0 93 f8 95 bb 96 e4 39 3c 40 58 1c 3c 9d cf 08 3b
       -0.0045767515 0.011346003 0.009542525 0.00208757
0003b0 28 12 01 80 bd 4a 05 bc b6 26 9b b7 f4 0b 22 bc
       -9.8349e-41 -0.008135495 -1.8495466e-05 -0.009890545
0003c0 f3 aa e3 29 46 4c 43 bc 73 5c 0b 3c a8 46 85 b5
       1.011048e-13 -0.0119200405 0.008505928 -9.929836e-07
0003d0 4e 05 49 39 2f fa a7 3b ef 05 b5 bb 5c 3d b0 b8
       0.0001917083 0.0051262598 -0.005524389 -8.403763e-05
0003e0 18 9e 9f b5 5b 7f 29 a8 60 a9 86 3b 67 c5 ea ba
       -1.1892434e-06 -9.409e-15 0.0041095465 -0.0017911614
0003f0 bd 12 01 00 1e 1b c5 bb ed 42 89 3b 70 81 5f 37
       9.8558e-41 -0.0060151955 0.0041888864 1.3321973e-05

fc2.bias f4 [128]
000000 ab 4a fb 1a 9a 2a 07 3d 1b d1 8e 3c e5 03 8f bc
       1.039318e-22 0.032999612 0.017433694 -0.017457912
000010 d3 e5 79 bc 18 8c f5 3c ff cb e2 bb 57 1b ce bc
       -0.015252548 0.029974028 -0.006921291 -0.025159521
000020 1a e5 9a bc ef 01 54 bb 08 c7 a7 bc a0 db 85 bc
       -0.018908072 -0.0032349785 -0.020480648 -0.016340077
000030 5a 95 01 3d ab 3c d1 bb 18 20 f4 3c fb a4 cc 3c
       0.031636573 -0.006385406 0.02980046 0.024981013
000040 a9 4d 5b ba 93 23 38 3c 4e 9e 26 3c da 21 2b bd
       -0.0008365759 0.01123895 0.010169579 -0.04178033
000050 93 b8 ac bc 7e 6e c5 bc bb 4c 84 bb 2b 51 42 3d
       -0.021084106 -0.024100538 -0.0040374673 0.04744069
000060 ab ff 07 bd c4 80 3e 38 2e b8 1d bd d7 d6 59 3c
       -0.03320281 4.5419452e-05 -0.038505726 0.013295851
000070 51 a7 94 3b 90 7c ec 3c 2e 82 26 bb c5 b9 a2 3a
       0.004536547 0.02886799 -0.0025407183 0.0012414983
000080 3d e8 8a bc ac c8 14 bd 1a d2 c1 bc 58 66 f2 3b
       -0.016956443 -0.036324188 -0.023659755 0.007397454
000090 43 82 0b bd 07 8d 5c 3c 08 14 b1 b9 1c 77 1c ba
       -0.034059774 0.013461358 -0.00033774995 -0.00059686764
0000a0 83 6e 0d bd 51 45 41 3d 4d 76 9e bc 42 e6 8f 3c
       -0.03452922 0.047185246 -0.01934352 0.01756585
0000b0 38 9f fe bc 4c c8 a7 bc c5 91 bc 3c 2c e7 8c 3b
       -0.03108178 -0.020481251 0.023018727 0.004300019
0000c0 ce 42 a1 3c 97 f9 ca bb 2a b1 a2 bc 1c 13 89 1f
       0.019685175 -0.006194304 -0.019859869 5.805337e-20
0000d0 ee 7b f8 3c df ce 1d b9 4a 89 c0 3b 08 fc 40 3a
       0.030332532 -0.00015049752 0.005875741 0.00073617743
0000e0 8a e0 e2 bb eb b7 17 bd a8 ab 13 bc e5 2d ca 3c
       -0.00692374 -0.037040632 -0.009013094 0.024680087
0000f0 82 77 97 3c 28 f3 f4 3c ce 06 0a bd 31 95 96 38
       0.018489603 0.029901102 -0.033697896 7.1803464e-05
000100 68 4d 0f 3b 34 4f 1c bd 5c cd 1e 3d cf 32 4b bc
       0.0021866206 -0.03816147 0.038770065 -0.01240225
000110 6a c6 b9 3b 0d 3b 81 3c 02 e8 cd 3c 12 e5 fb bc
       0.0056694048 0.015775228 0.025135044 -0.030748878
000120 56 9a 38 bc ca 19 4e 3c 15 74 da 3b a4 3c 39 3d
       -0.011267265 0.012579391 0.00666667 0.045223847
000130 b4 d6 11 bd 1f f1 02 bd f2 97 3c ab 7b 7f cd ba
       -0.035605147 -0.031968232 -6.7001884e-13 -0.0015678251
000140 50 12 01 00 bc f5 16 bc 81 fa ad bc f9 2b a9 bc
       9.8405e-41 -0.009213861 -0.021237614 -0.02065085
000150 e3 5a 1a bc 5a e0 50 bc c9 2b bf 3c 8c 97 28 3d
       -0.009421083 -0.012748802 0.023336308 0.04116015
000160 21 c9 db 3c 26 91 0a 3d 6d bb a9 3c 18 a9 05 bd
       0.026829304 0.03382983 0.020719254 -0.032631963
000170 89 45 2a bd 84 25 83 3c 73 a2 3f bc da 62 c8 bc
       -0.04157022 0.0160091 -0.011696446 -0.024461199
000180 5e 58 ef bb 87 0c 05 3d 05 82 45 3b 54 cf 51 3c
       -0.0073042354 0.03248265 0.0030137312 0.0128057785
000190 63 cb ac bc 5d 88 e1 3c de 31 2c 3d 93 73 00 3d
       -0.021093076 0.027530843 0.042039745 0.03136022
0001a0 cb f2 05 bd 02 1c 81 3c 08 b6 8e 3b 8f fb 1e b2
       -0.03270225 0.015760425 0.004355196 -9.254008e-09
0001b0 27 2a 66 bc 38 1e 4b 27 c5 0b f2 3c 1d b1 d7 3b
       -0.014048136 2.818829e-15 0.029546628 0.006582393
0001c0 a2 c7 02 bd b3 32 fb bc 7d 56 6a 3c 40 65 dd 3c
       -0.031928666 -0.030663824 0.014302847 0.027025819
0001d0 15 62 83 3b 4e 69 21 3d ac 2a bd bc e8 66 cf 3c
       0.004009495 0.039407067 -0.023091637 0.025317624
0001e0 f8 80 c3 bc 25 59 7d 3b 4f a7 e2 3c 37 68 88 3c
       -0.023865208 0.003865787 0.02766767 0.016651256
0001f0 d2 2c ce 39 c4 43 8f 3c 8c 28 76 3c e9 89 f6 b9
       0.00039324776 0.017488368 0.015024316 -0.00047023527

fc3.weight f4 [64, 128]
000000 32 81 dc bb 1a 3b 42 bd e3 63 5b 3d bc 0e 28 3d
       -0.0067292685 -0.047419645 0.053562056 0.041029677
000010 9a eb c1 bc f5 d7 0b bc 3b 66 c1 3a 2d dc 28 bc
       -0.023671914 -0.008535375 0.0014755198 -0.0103064
000020 b2 d1 83 3d d0 13 01 00 05 99 6b bd f8 54 28 bd
       0.064364806 9.8943e-41 -0.057518978 -0.041096658
000030 e9 74 92 bc 66 e9 6c bd ab 7f b1 3d 91 2e 8d bd
       -0.017878013 -0.057839774 0.08666929 -0.068936475
000040 4c ee 8b 3d 1f 66 9f 3a ff 80 83 bd a2 11 8d bc
       0.06832561 0.0012161172 -0.064210884 -0.017220322
000050 47 38 6d 3d d4 72 79 3a 6b 71 78 3c 05 cb 9b bd
       0.057915 0.0009515707 0.01516376 -0.07607082
000060 1c 48 a6 3c 2d 85 29 3a 08 52 66 3d 00 ce 66 bc
       0.020298056 0.0006466683 0.056230575 -0.0140872
000070 ba 86 47 3d be 38 80 bd 67 8c 51 bd f0 ec 5c bb
       0.04871247 -0.06260823 -0.05115929 -0.0033710562
000080 77 57 cd bb 6c 73 84 3c 54 17 aa 3d 65 50 94 3d
       -0.00626653 0.016168319 0.08305231 0.072418965
000090 e9 7c 7f bc d2 7e 36 bd bc 10 05 3a 85 92 d2 3c
       -0.015593746 -0.04455454 0.0005076041 0.025704632
0000a0 9f 33 bb 3c 91 ed df 3c 97 7d a1 bd 35 47 92 3c
       0.022851763 0.02733496 -0.078852825 0.01785622
0000b0 9f 4c a2 3d 98 8b ab 3b ed 8a 89 bd 3d 13 9b 3d
       0.079247706 0.0052351467 -0.06715951 0.07572029
0000c0 fc 89 26 bd c5 ab f8 3b 05 47 9a 3d f9 06 db bb
       -0.040658936 0.007588836 0.07533077 -0.006684181
0000d0 9a 73 a9 3c 08 d1 e0 3b 4e 1d f3 3c 84 08 a9 2a
       0.020685006 0.006860856 0.02967706 3.002634e-13
0000e0 30 df 84 bd 95 fd 94 3d 6d b6 84 bc 34 ad 8c bd
       -0.06487882 0.072749294 -0.016200269 -0.068689734
0000f0 be 71 76 3d 79 ee af bd f2 74 10 3d 20 67 4a ba
       0.060167067 -0.08590407 0.035267778 -0.00077210553
000100 35 94 b3 bd af 55 a5 bd 4f 1f 8a 3d 8a 11 01 80
       -0.087685026 -0.080729835 0.06744253 -9.8127e-41
000110 05 fc e6 bb a2 3f d5 3c 00 75 26 bd 34 08 ad bb
       -0.007049086 0.026031319 -0.040638924 -0.005280519
000120 2d fa 7e 39 fa 18 2b bd 6f 72 50 bd f2 6e 5b 3d
       0.00024316525 -0.041771866 -0.050890382 0.053572603
000130 a8 a4 93 3d 33 5f b1 bc 18 3a e0 09 4a d6 35 3d
       0.0720914 -0.02165184 5.398067e-33 0.044393815
000140 eb ff 41 38 15 a9 4b bd 8c 68 97 bd 22 c0 34 3d
       4.6253128e-05 -0.049721796 -0.073929876 0.044128545
000150 3b 90 f2 3c 7e d2 3a bc 62 63 3c bc 85 b9 3e bd
       0.02960979 -0.011402724 -0.011498304 -0.046563644
000160 ff b9 80 3d b8 18 49 3c e0 bb 14 3c 0f 34 55 bd
       0.06285476 0.01227396 0.009077996 -0.0520516
000170 ed e4 af 3d 5b 2a ae 3c 95 41 07 3d cd 9f 87 3d
       0.08588586 0.021260431 0.03302153 0.066222765
000180 16 0c 82 bb f0 6e 13 3c 6e 1e bb 3b 91 c3 cb bb
       -0.003968726 0.0089986175 0.0057104146 -0.0062183817
000190 a6 0d 98 ba 65 52 95 bc 77 4a b4 bd ed 7c 4c 3d
       -0.0011600747 -0.018227765 -0.088032655 0.049923826
0001a0 21 5d d3 3c 88 80 09 3d 18 bb 3d bd 2b e9 09 39
       0.025801243 0.033569843 -0.046321005 0.000131522
0001b0 1f 62 95 bc e7 b8 18 3d 6b 6e 01 3d 8a ea 45 bd
       -0.018235264 0.03728571 0.031599443 -0.048319377
0001c0 4a c8 c0 3c 17 be 73 3d 30 6c 8b bd c0 76 83 3c
       0.023533005 0.059507456 -0.068077445 0.016047835
0001d0 98 d7 63 bd c2 5a 66 3d 6d e8 e9 bc fa e0 8d 3c
       -0.055625528 0.056238897 -0.028553212 0.017319191
0001e0 32 a6 8d bd 15 75 a8 3d 28 09 19 bd 2d 35 d5 24
       -0.06916465 0.082254566 -0.037362248 9.246411e-17
0001f0 e9 a9 90 bd 66 b6 a1 bc cd df ab bd 46 43 2e 3d
       -0.07063658 -0.019740295 -0.08392296 0.042544626
000200 9f 13 01 00 ac d6 5a 3d 59 2d 3b bd c0 65 62 bd
       9.8874e-41 0.053427383 -0.045697544 -0.055272818
000210 b7 02 51 3d 4c 15 cb 3c 79 96 0c 3b 58 2c 59 3d
       0.05102798 0.024790429 0.0021451993 0.053020805
000220 ba 67 2c bd 36 61 36 3d e3 5a 8d 3d 9f c9 a2 bb
       -0.04209111 0.0445263 0.06902101 -0.0049678828
000230 ce 9d 93 3a 93 f1 98 3d 1b 0e 0f 3d 6e 41 0d 3d
       0.001126224 0.074679516 0.03492556 0.034486227
000240 0e c0 31 3d e6 cf b4 38 e0 67 09 3d 44 8e 82 3d
       0.04339605 8.621793e-05 0.03354633 0.06374791
000250 25 1e c8 bb fd 1d 48 bd 9b a0 30 bc 68 a7 7e bd
       -0.006107109 -0.048856724 -0.010780479 -0.06217137
000260 26 2f 2c 3c a7 4a 0d bc d6 b0 4f 39 d7 2c 00 bd
       0.010509288 -0.008623756 0.00019806935 -0.031292763
000270 a7 69 80 39 6b 0d 58 bd 1d fb 61 bd 43 b8 b5 3c
       0.0002449278 -0.05274717 -0.05517112 0.02218259
000280 8c a8 70 bd 42 94 43 bd 56 65 1a 3d 0f c4 8c bd
       -0.05875449 -0.04774881 0.037694298 -0.06873333
000290 5e 92 a6 bc fd 75 98 3d 03 60 6a 38 30 1f 52 bd
       -0.020333465 0.074443795 5.5879365e-05 -0.051299274
0002a0 8e 0e e9 bc a3 13 0d bc 78 94 ad bd 24 c4 70 3d
       -0.028449323 -0.008610639 -0.08475584 0.058780804
0002b0 3f c1 ba bc 29 23 62 3d d0 fb 49 3d 5d d6 26 bd
       -0.022797225 0.055209313 0.049312413 -0.040731777
0002c0 3a 88 09 3c 81 7e 58 bd 7f 08 3a 3d 43 83 f2 bc
       0.008394295 -0.05285502 0.04541826 -0.029603606
0002d0 89 66 91 3d 6e 29 1c 32 61 69 a4 bd 29 7e 88 31
       0.07099635 9.089815e-09 -0.08027912 3.9724637e-09
0002e0 16 a1 5e 3d 8b c5 a3 3c 1a 13 31 3c cd 6c 85 3d
       0.054352842 0.019991657 0.010807777 0.06514893
0002f0 e7 63 89 3d c2 fe a2 3c 49 24 84 3d 15 05 96 bc
       0.06708508 0.019896869 0.06452233 -0.01831297
000300 65 f5 9f bc e6 cb 4c 3a 1a 4a b4 3d f3 fa c1 3b
       -0.019526193 0.00078123657 0.08803196 0.005919808
000310 13 fd 1b 3d 13 02 ec bb 92 d3 49 bd b5 2b ba 3b
       0.038083147 -0.0072023957 -0.049274035 0.00568148
000320 c0 46 28 bd c3 55 3c bb 17 ee ad 3c b5 92 89 bd
       -0.041083097 -0.0028737641 0.021231694 -0.06717435
000330 77 24 85 bc a3 1a 08 bd 3a 18 ed 38 1d d9 88 bb
       -0.01625274 -0.033228528 0.00011305553 -0.0041762725
000340 20 cf a5 bc e8 67 3e ba b3 a9 6a bd 91 73 09 3d
       -0.020240366 -0.0007263408 -0.057290744 0.03355748
000350 9a 45 aa bd 1b bd 9a 3c 89 15 90 bd 88 91 da 3c
       -0.08314057 0.018889 -0.070353575 0.026680723
000360 9b 5c a2 bb 6a 3e 0a 3d 63 22 b0 bd 19 27 3b 3d
       -0.004954887 0.03375093 -0.08600309 0.045691583
000370 66 58 2f 3d 9d 69 13 3d 0a 6d 06 bd 68 4e 65 3c
       0.042808913 0.035989393 -0.03281883 0.013995744
000380 84 3d 92 3d 26 9a e8 3c 1f e2 84 bd d1 f4 26 3d
       0.071406394 0.028393816 -0.06488442 0.04076082
000390 67 5d 89 bd 8b 90 26 bd f2 82 7c 3d f9 cc 1c 3c
       -0.06707268 -0.04066519 0.061648317 0.009570354
0003a0 52 8c 76 3c 5d bd e1 ba 66 47 10 bd c9 13 01 80
       0.015048103 -0.0017222572 -0.03522434 -9.8933e-41
0003b0 34 72 5b bd aa 13 01 80 61 de 03 3d c2 4f 30 3c
       -0.05357571 -9.889e-41 0.0321945 0.010761203
0003c0 f8 29 3d 3d a9 83 a7 3d 7a 9d 6d 3d a1 d5 4d 3d
       0.046182603 0.08179409 0.05801151 0.05025256
0003d0 4d d3 9a bc a4 6c 6c bd e2 38 93 3d 36 8c 87 3d
       -0.018899584 -0.057720795 0.07188584 0.0661854
0003e0 93 f3 a6 bd 21 cf 5c bd fb 15 91 bb 21 41 1f 38
       -0.08151927 -0.05390847 -0.004427669 3.796921e-05
0003f0 19 51 8f bd 99 6c 58 bb 49 da 92 bc 5d 85 07 bc
       -0.0699789 -0.0033023714 -0.017926352 -0.008271542

fc3.bias f4 [64]
000000 6b 7a 9f 3d 2c 9c 7d bd 36 5f 94 bd 56 3a 7d bb
       0.07787021 -0.061916515 -0.072447225 -0.0038639507
000010 87 2c 96 3b 19 be 61 1c 3f 7a e4 3a 92 e5 3c bb
       0.004582945 7.469195e-22 0.0017431452 -0.0028823358
000020 60 cf fb 3c 0d 2e 82 3c a0 09 53 bd 06 de 5e bd
       0.030738533 0.0158911 -0.05152285 -0.054410957
000030 c0 2f 99 3d 30 c7 66 bc fb 85 c0 3c 16 39 7a bd
       0.07479811 -0.014085576 0.023501387 -0.061089598
000040 e9 eb 0e bd 97 81 39 bd 81 ab 47 3d 46 c6 48 bd
       -0.03489295 -0.045289602 0.048747543 -0.049017213
000050 82 06 38 bc a1 f6 78 3d ed da d2 3a b6 61 54 bd
       -0.01123202 0.06078208 0.0016086973 -0.051850997
000060 8c c8 d0 bc 79 73 8f 3d 3e 15 9e 3c 92 94 a9 bd
       -0.025486253 0.070044465 0.019297238 -0.08280291
000070 10 aa 43 bd b8 4f 74 3d 3e 1a c8 bb c7 a9 ff bb
       -0.047769606 0.05964634 -0.006106644 -0.0078022215
000080 99 b4 df b9 2b f1 92 3d dd 2e 60 bd 04 ab b5 bb
       -0.0004266843 0.071749054 -0.054732192 -0.0055440683
000090 e0 0c 79 3c bb b4 9c 3c 44 de 9f 3c 15 12 9e bd
       0.015200824 0.019129148 0.019515164 -0.077182926
0000a0 66 4f 59 bd 81 5a f0 bc 7e 60 9b bd e8 f7 64 3c
       -0.053054236 -0.02934003 -0.07586764 0.013975121
0000b0 23 cd 63 3d 32 2f 82 3d 1a de a4 bd ba 7a 8b 3d
       0.055615555 0.06356658 -0.08050175 0.068105176
0000c0 83 0f 1d bd 49 56 96 3d 84 59 02 bc 71 01 c8 bb
       -0.03834487 0.07340676 -0.0079559125 -0.0061036875
0000d0 fd 00 88 3c c4 69 57 bd 96 d4 3f 3c 15 d4 8a bd
       0.016602034 -0.0525911 0.011708399 -0.06778733
0000e0 82 91 92 35 1d fe 97 bd 74 c8 8a bc cb c8 3e 3d
       1.0920196e-06 -0.07421515 -0.016941287 0.04657821
0000f0 e4 9e 54 bc 0b ad 1a 3d 14 0d 58 bd 4e 43 a1 3d
       -0.012977336 0.037762683 -0.052746847 0.078741655

fc5.weight f4 [1, 64]
000000 0a a3 ac bd e6 bc b2 bd 98 f8 f6 bd cd 11 01 00
       -0.08429535 -0.08727436 -0.12059134 9.8221e-41
000010 e2 7a f9 bd 70 b2 e6 38 d8 ca a8 bc 10 39 23 3d
       -0.12181641 0.00011000491 -0.020604536 0.03984934
000020 00 b5 9a bd 8c 61 07 3d aa db f1 3c e1 5d 24 bd
       -0.07554054 0.033052012 0.02952369 -0.040128592
000030 4d 6e 8f 3d db a3 0b 3c a3 29 74 bd 8e e8 54 bd
       0.0700346 0.008522953 -0.05961002 -0.051979594
000040 68 a3 17 bd a2 65 53 3d ad 88 ae bd 5a 76 4f 3d
       -0.03702107 0.051610596 -0.085221626 0.05064998
000050 7a c0 25 bc d0 d7 da 3b 8b 35 a4 3c 17 13 a2 bd
       -0.010116691 0.006678559 0.020045063 -0.07913797
000060 ce 99 51 bd ee 78 b7 3d eb 42 90 3c 0a 7e b9 bd
       -0.05117207 0.089586124 0.017610034 -0.09057243
000070 84 5f 18 bd c9 5f ae bd b5 ff 87 3c 3e fd b0 bd
       -0.037200466 -0.08514363 0.016601423 -0.08642052
000080 ae 90 72 bd 3c 98 85 3d a8 23 1f 3d 69 be 80 bb
       -0.05922001 0.06523177 0.038852364 -0.0039289487
000090 df df fd bd 39 72 8f 3d 62 0a c3 3c 02 9a 12 bd
       -0.12396216 0.07004208 0.023808662 -0.035791405
0000a0 62 8d 25 bd 0d 24 9a bd 48 ca 53 3d d2 21 4e bd
       -0.040418036 -0.075264074 0.051706582 -0.050325222
0000b0 35 83 99 bd 48 44 64 bd cb 64 30 3d 04 6a ba bd
       -0.07495729 -0.05572918 0.043064874 -0.09102252
0000c0 71 2f e0 38 6b 7d d3 3d 62 c6 27 bd 6f 9f cb b8
       0.00010689989 0.10326656 -0.040960677 -9.709491e-05
0000d0 d6 b2 d3 bd 07 4a d5 bb f3 4e 38 bd 3d 5c ae bd
       -0.103368446 -0.006509069 -0.044997167 -0.08513687
0000e0 d2 1c ee 3b d0 d3 a5 bd 57 6c 9e 3d 4b 11 3e 3d
       0.0072666192 -0.08097041 0.07735508 0.04640321
0000f0 d5 69 7c bc 91 8b bc bd 29 eb 9a 3d ef 95 cb 3d
       -0.015406092 -0.09206308 0.075643845 0.09940707
