code/REEM/model/best-model/Tuscon/model_pop_best.pth (torch, 18836 bytes, 7 tensors)

fc1.weight f4 [100, 5]
000000 0c 52 ff bc bd 25 41 3e 17 ea 7c 3e b8 49 6e 3c
       -0.031167053 0.18862052 0.24698673 0.014543943
000010 7c 14 79 3d 77 b1 cf 3e 14 ba c7 bd 24 e5 76 be
       0.06081055 0.40565082 -0.097522885 -0.24110848
000020 27 5c ad be 24 73 05 be 1b b0 87 3e ee b4 82 be
       -0.3385937 -0.13032204 0.26501545 -0.25528663
000030 a2 d5 b8 bc d7 ba 94 3e ce 0a 3c be 09 28 33 3d
       -0.022562806 0.29048797 -0.18363497 0.043739352
000040 f3 0d 6b bd 80 7f ad 3e f6 97 0e 3c 14 ff 9a bd
       -0.05738635 0.33886337 0.0087032225 -0.075681835
000050 83 6d be 3e dd 27 b3 be e3 f5 8e be e5 7b ed be
       0.37192926 -0.3499135 -0.27921972 -0.46383587
000060 00 6f b7 3e 64 25 3a 3e fa c2 14 3e 28 97 cb be
       0.35826874 0.18178326 0.14527503 -0.3976376
000070 f8 f2 96 bd a6 71 82 3e 13 b3 09 a8 31 80 e2 a8
       -0.07370561 0.25477332 -7.643858e-15 -2.5146635e-14
000080 d4 db 5a 28 47 4c 3d ab 3b cd 04 b0 e7 58 9a 3d
       1.2149099e-14 -6.7252145e-13 -4.831297e-10 0.07536488
000090 c3 0a b4 be f8 b4 b0 be 78 84 b1 be d5 c8 8a 3e
       -0.3516446 -0.34513068 -0.34671378 0.27106348
0000a0 2a d6 5c bd de a7 f3 3b 04 ca a6 ba 28 45 96 3c
       -0.05391518 0.007435783 -0.0012725 0.018343523
0000b0 2e 52 13 bb 53 91 13 b8 42 38 bd 30 07 50 07 28
       -0.0022479403 -3.5182875e-05 1.3767549e-09 7.511359e-15
0000c0 0e 5d ae 32 68 6e 84 2c a0 5d 7b 3d d8 47 b9 3e
       2.0298582e-08 3.763923e-12 0.061368585 0.36187625
0000d0 c6 d7 f8 bc 52 25 ba 3e 78 25 2c be ab 7c c4 3e
       -0.030376326 0.36356598 -0.16811168 0.38376364
0000e0 b1 cd 7c 3e 52 44 4e bd 00 c3 82 be 6b 04 a7 3e
       0.2468784 -0.050358124 -0.25539398 0.32620558
0000f0 27 3b d5 3c 30 8c 6e bc 78 89 dd bc 74 a7 0e be
       0.026029183 -0.0145597905 -0.02704309 -0.13931066
000100 7f 59 fa 3d f6 e3 b1 3e d9 ab 4f bd a6 67 d2 3d
       0.12224101 0.34744233 -0.050700996 0.102736756
000110 66 6b 1b be 47 96 12 be 60 56 b0 be 0a 16 84 3e
       -0.15177688 -0.14315139 -0.344409 0.25798064
000120 91 49 c9 3c a3 67 b7 be 25 0e 13 be ff ea 40 3e
       0.024571212 -0.35821256 -0.14360864 0.18839644
000130 d6 67 14 3e 49 a5 30 be 98 59 1c 3e c4 ed 1b be
       0.14492735 -0.17250551 0.15268552 -0.15227419
000140 cc 74 f2 3e 2d 8b a1 be eb 6c 2d be 2b 1f d9 be
       0.47354734 -0.31551495 -0.1693608 -0.42406592
000150 5a 82 58 3e 45 d1 4a 3d 67 f2 85 be 68 38 07 be
       0.21143475 0.04951598 -0.261615 -0.13205111
000160 9f 2d b3 be 23 5a ed bd 35 27 c3 3e cf da 13 be
       -0.34995744 -0.11589458 0.3811585 -0.14438938
000170 f1 c5 70 be d8 04 cb bd ea 86 6a 3e 0f d5 22 3e
       -0.23513009 -0.09913033 0.22903028 0.15901588
000180 48 60 87 3e 56 90 a6 be d9 da b9 3e 9d 80 c8 3e
       0.26440644 -0.32531995 0.3629978 0.39160624
000190 17 2b bd 3e 2c 10 49 be 94 8e a8 3d 6c 2d 97 be
       0.36946937 -0.19635075 0.082303196 -0.29526842
0001a0 73 7a a7 be e7 79 d5 3b 0d 04 8e be 8a 37 b0 3d
       -0.3271061 0.006514776 -0.27737466 0.08604343
0001b0 fe f1 a6 be 0e 1d 20 3e c9 f8 1c 3e d3 e4 0e 3c
       -0.326065 0.15636083 0.15329279 0.008721548
0001c0 45 c8 28 be c1 c5 95 3e c8 94 0d 3e 2d 51 c0 b5
       -0.16482647 0.29252437 0.13826287 -1.432874e-06
0001d0 d0 38 d4 39 3e 4e ae 29 e2 9f b8 b7 d6 8d a5 b6
       0.0004047812 7.740725e-14 -2.200896e-05 -4.933895e-06
0001e0 57 07 a5 be 05 2c 0c 3f 21 ed d7 bd 02 7e 0b 3f
       -0.32232162 0.5475467 -0.105432756 0.5448915
0001f0 fe ca 13 3e fe 9d de be 69 40 81 3e 5e fa 98 3d
       0.14432904 -0.43479913 0.25244454 0.07469629
000200 b0 24 d4 3e c6 6d b3 be fc 90 89 be b3 33 ba bc
       0.4143424 -0.35044688 -0.26868427 -0.02272973
000210 4e 9c 30 3e 1b 63 bd 3e 56 b5 8b 3e 8e 64 c8 3e
       0.17247126 0.36989674 0.27286786 0.39139217
000220 aa 6f 51 3d fd 6a c4 3c 4b 71 99 3e 8f 3e 51 3e
       0.05113188 0.023976797 0.29969248 0.2043402
000230 2a 95 f2 a9 8b 1b 9a 2d 71 69 50 28 3d a5 28 2e
       -1.0772835e-13 1.7520005e-11 1.1569183e-14 3.834554e-11
000240 c1 91 68 29 db bf 0f be 3d 73 71 3d 6c 4b 3c 3e
       5.164077e-14 -0.14038031 0.05894779 0.18388146
000250 91 8d ac 3e d4 60 7e 3e bd 5f 30 bd f5 a7 0c 3d
       0.33701757 0.24841624 -0.043060053 0.034339864
000260 d5 18 9a 3a d0 30 14 bd 5c ae 15 af 1d 9d a5 be
       0.0011756668 -0.036179364 -1.3613416e-10 -0.3234643
000270 6f 70 5a 3e 34 4d 79 be 22 90 ed be 3b db 41 3c
       0.21331953 -0.24345857 -0.46399027 0.011832054
000280 ef 16 d1 2b 5b c6 1b 2b 3e b5 91 2a f0 41 3f 2d
       1.4856709e-12 5.5342336e-13 2.5882936e-13 1.0871734e-11
000290 d2 92 f5 a9 88 f9 8d be d8 b5 eb 3e 47 56 d0 bd
       -1.0905655e-13 -0.2772944 0.46037173 -0.10172706
0002a0 3e cb c3 3e f7 fa cc bd 94 55 23 be db 82 67 bc
       0.38241 -0.10008805 -0.15950614 -0.0141303195
0002b0 44 cd 14 be 9b fc df 3d d7 f2 2b bc 1d 57 24 be
       -0.14531428 0.109368525 -0.010494909 -0.16048856
0002c0 2d 4b 87 be 2c 17 b7 be 62 30 8f be 2f 8d b8 3e
       -0.26424542 -0.35759866 -0.279666 0.36045215
0002d0 40 11 3a 3e 02 77 cb be 5d c5 25 be 99 74 a7 be
       0.18170643 -0.39739233 -0.1618857 -0.32706144
0002e0 4f 11 5f 3e 2e 69 34 be 1b 92 20 bd c2 91 30 3e
       0.21783946 -0.17618248 -0.039201837 0.17243102
0002f0 02 06 80 3e 54 67 04 be a1 02 ce bc 56 77 15 bd
       0.25004584 -0.12930042 -0.025147738 -0.03649076
000300 8f ec 87 bd 07 ac 3b be d5 df cc 3d a6 53 e3 3d
       -0.06636917 -0.18327342 0.1000363 0.11099939
000310 73 6b a2 3c b0 f9 49 bd 9c 58 ba 3d a7 2d 95 3d
       0.019826626 -0.049310386 0.09098932 0.07284098
000320 b2 1b a3 3e a7 cf ee be de e7 6a 3d cf b9 cc be
       0.31857067 -0.466428 0.057350032 -0.3998551
000330 06 d2 79 be 39 07 b1 bd 4b d0 03 3e ae c1 09 3e
       -0.24396524 -0.08643956 0.12872426 0.13452789
000340 fb b9 88 3e d2 f7 b0 bd 9e 9a 8a bd b9 4a 4b 3e
       0.26704392 -0.08641018 -0.06767772 0.19852723
000350 3f 4b 09 3d 11 04 f9 3e 5f 80 d6 bb 7b 2a 4c b7
       0.033519026 0.48635915 -0.0065460647 -1.2169238e-05
000360 7e b5 44 29 bb 9f f5 35 b9 a8 e4 bb 4a 86 4a ae
       4.3678162e-14 1.830041e-06 -0.006978121 -4.6048755e-11
000370 9e 36 ed be 7c b3 1d 3d 94 b5 9e bd 98 02 1c 3e
       -0.46330732 0.038501248 -0.07749477 0.15235364
000380 b5 4d 17 be 5e 07 dc bb 78 f1 59 be 28 99 e2 bb
       -0.14775737 -0.0067147454 -0.2128352 -0.0069152303
000390 2c a4 d6 3d 31 a6 a7 bd 59 dc dc be 39 80 32 3e
       0.10480532 -0.08185995 -0.43136862 0.17431726
0003a0 2c 04 ae bd 68 fc cf 3e f6 47 c5 3d b8 b4 88 3e
       -0.084968895 0.40622258 0.09632866 0.26700377
0003b0 71 20 10 3e e9 b6 06 be ed cd 51 bd 17 fb 94 3e
       0.14074875 -0.13155712 -0.051221777 0.29097816
0003c0 01 97 4d 3e ba 98 29 be b8 c4 94 be 87 e1 a3 3e
       0.20077135 -0.16562167 -0.29056334 0.32008
0003d0 80 21 c5 3e 26 f5 52 3e 3e 08 18 3e 3a 42 f3 3d
       0.3850212 0.20601329 0.14846894 0.11877866
0003e0 99 64 9b 3e 0d 0e 8c 3e 83 f8 96 3e 0f ac 43 3d
       0.30350187 0.2735447 0.29486474 0.04777151
0003f0 d5 81 7e 3d f4 83 55 bb 66 f7 46 bd 45 ce b5 b6
       0.062135536 -0.003257987 -0.04857578 -5.4182333e-06

fc1.bias f4 [100]
000000 ea 4c d1 3e 22 2b 3a 3e 61 19 c8 3e 00 ab 88 3c
       0.40878993 0.18180516 0.39081863 0.016683102
000010 ec fd 54 bd 10 15 0f 3e 85 c2 eb b7 ca 63 49 3e
       -0.05199997 0.13972878 -2.8104763e-05 0.19666973
000020 55 2d f6 bc b4 42 12 33 de 6e 1c be df f8 9e 3e
       -0.030050913 3.405394e-08 -0.15276667 0.3104925
000030 fc 21 14 bd 27 9b 18 be 30 25 68 3e b8 e0 ba bd
       -0.036165223 -0.14902936 0.22670436 -0.09124893
000040 67 fa f5 bd 38 b3 83 3e d7 76 d1 3d a4 19 8d 3e
       -0.12010651 0.2572267 0.10227745 0.27558625
000050 03 75 83 3e 4b 1f 94 3d 75 80 d5 bd 2e da d3 b9
       0.2567521 0.07232531 -0.10424892 -0.00040407613
000060 1e 4d d5 bd 7c 83 c7 3e 7a 04 1a 3e 03 10 a7 3e
       -0.104150996 0.38967502 0.1504077 0.32629403
000070 72 64 b2 b7 95 09 46 3d 10 53 43 bc 92 df bf 3e
       -2.1266027e-05 0.048348982 -0.011921659 0.37475258
000080 e4 d5 1d b4 60 86 03 bd 01 aa a0 3e 60 5a da 3e
       -1.4699577e-07 -0.03211057 0.31379703 0.42647076
000090 60 58 3e 3d ab ea 37 bd 49 87 c5 3e 39 d6 c5 3e
       0.046471 -0.04490153 0.38579777 0.3864
0000a0 dd 4a 1c bd 33 78 ad bd b7 1e 31 be fc ba e6 bb
       -0.038157333 -0.08470192 -0.17296873 -0.0070413332
0000b0 b5 f8 6f 3e 0a 37 44 3e 83 d5 8c 3e 4b 8a 61 3e
       0.23434718 0.1916162 0.27506647 0.22025411
0000c0 b4 40 44 be ec 97 58 be 9d c1 b1 3e 11 de 5e ac
       -0.19165307 -0.21151704 0.34718028 -3.167137e-12
0000d0 de 04 c7 3e ac e3 26 b3 05 fa fd b5 fa 8a 56 b6
       0.388709 -3.8856953e-08 -1.8922734e-06 -3.196938e-06
0000e0 bc 7b 54 bd b3 a2 40 b1 c6 5b 58 3e 11 0b e8 3e
       -0.051875815 -2.803216e-09 0.21128759 0.45320943
0000f0 6c b3 81 3b e4 fd 74 3e 60 89 09 3e 8e 7f d5 3b
       0.0039581563 0.23924977 0.1343131 0.00651545
000100 76 0f e9 3c 67 e4 06 bd ba 29 e5 2e 77 3b 52 3e
       0.028449755 -0.032932665 1.04211265e-10 0.20530497
000110 c6 4e a2 3e 13 8a c0 3d c5 69 aa 3e bd 11 be 3e
       0.31700724 0.094013356 0.3328382 0.37122908
000120 aa b3 09 b6 0c 36 a8 b7 d8 70 ff 3d 0c e8 aa 3e
       -2.051917e-06 -2.0052328e-05 0.12472695 0.33380163
000130 d0 d4 0b 3e a6 7d 6d bc 37 5b e2 bc 5a c9 6f 3c
       0.136554 -0.014495289 -0.027631385 0.014635408
000140 c8 9f 0d 3e 75 18 76 3e 13 6c a6 bb 31 ad a2 b5
       0.13830483 0.24032767 -0.0050788014 -1.2120346e-06
000150 9a 77 e4 3e 5a 3d 61 3e f9 7a 5b 3d c9 19 e0 bc
       0.446225 0.2199606 0.053584073 -0.027356045
000160 1d 90 2e 35 29 05 53 3e 41 82 38 bb e6 f7 e3 3e
       6.5029764e-07 0.20607437 -0.002815381 0.4452507
000170 70 60 58 3e 68 f5 dc 33 1d 5b b0 3e f5 78 17 be
       0.21130538 1.02891875e-07 0.34444514 -0.14792235
000180 0e 95 a3 b1 71 42 7e be af 17 98 b5 ae 37 2f b4
       -4.76087e-09 -0.24830033 -1.1331775e-06 -1.6318401e-07

fc2.weight f4 [30, 100]
000000 71 db b4 3c dd 2c 73 3d f6 59 bd bc 83 5a 22 a6
       0.022077294 0.059368957 -0.023114186 -5.6327707e-16
000010 33 53 87 3d f6 a2 37 3d 4b de 3f a7 29 b0 d4 bb
       0.06607666 0.044833146 -2.662708e-15 -0.0064907265
000020 41 9b ce 28 b4 80 8a a9 a1 8a 11 bc 9e 2a 58 bd
       2.2937925e-14 -6.1507575e-14 -0.008883149 -0.052775018
000030 12 7c e4 bc 22 35 b7 bd b9 f2 ee 3c 3d 67 70 bc
       -0.027891193 -0.08945681 0.029168474 -0.014673051
000040 95 81 18 bd e6 04 bc ba 52 e6 85 3d f0 ea 08 bd
       -0.037232954 -0.0014344722 0.06538071 -0.03342718
000050 5b a5 91 3c f8 6d 4a bd 76 92 39 3d 03 ff 80 29
       0.017779043 -0.04942128 0.04530569 5.7285794e-14
000060 d1 37 b1 b8 f6 34 ac bd 4a 3a 82 bd 2f 71 5e bc
       -8.450414e-05 -0.08408539 -0.06358774 -0.01357679
000070 f1 21 05 a9 16 ac ef bc fd 84 24 a8 e6 00 67 3d
       -2.9561372e-14 -0.029256862 -9.132666e-15 0.05639734
000080 fc 12 eb 29 bf 8c 4d b9 a4 7f 4c 3d c4 72 0c bd
       1.043939e-13 -0.00019602755 0.049926415 -0.034289137
000090 3b f1 4c 3c fb 70 0f bc f3 3e e7 bd 40 b8 57 3d
       0.012508686 -0.008754964 -0.112913035 0.05266595
0000a0 31 d1 2e 3d 6a 90 49 bd 10 73 18 2a f7 f8 91 28
       0.04267997 -0.04920999 1.3540232e-13 1.6206205e-14
0000b0 22 cf ca bd dd a1 26 bd 97 36 f5 bd 3e b7 f1 bd
       -0.09902789 -0.04068171 -0.11973303 -0.11802529
0000c0 97 ed c6 bc e7 5d 80 3d 87 94 85 bd 5f bd 44 a6
       -0.024283214 0.062679105 -0.0652247 -6.8257806e-16
0000d0 26 97 16 3d 2e 77 8b 29 96 29 36 29 dd f9 24 a9
       0.03676524 6.1935144e-14 4.0448188e-14 -3.6632037e-14
0000e0 d1 ea bc 3c a9 42 e2 29 e5 ab ab 3c 7c 21 7c bd
       0.023061188 1.004798e-13 0.02095599 -0.06155537
0000f0 61 ec 8e 3d 84 43 fd bc c2 9b 0a bd a5 5f 44 bd
       0.069786794 -0.030915983 -0.03383995 -0.047942776
000100 4d a1 80 3d 98 9f e2 bc b4 41 6e 29 5d c3 a5 bc
       0.06280766 -0.02766399 5.2903604e-14 -0.020234758
000110 14 d5 9f bd 94 b7 bb bb 1a 3d f9 bb 42 b2 cb 3c
       -0.07804313 -0.0057286713 -0.007606161 0.024865273
000120 82 6e b2 29 58 b2 22 aa 3d 12 6b 3c 9f b7 d0 bd
       7.923958e-14 -1.4450366e-13 0.01434761 -0.10191273
000130 98 7b 55 3d e8 50 bf a5 15 23 10 aa 02 0f 22 bd
       0.05211982 -3.3188043e-16 -1.2801941e-13 -0.039565094
000140 2a 97 8e 3d b4 5c fc 3c 97 07 3c 29 a7 b6 72 29
       0.06962426 0.030805923 4.175097e-14 5.389322e-14
000150 57 9f 55 3d 8e a3 7d 36 86 0b 77 3d d0 9f f6 a9
       0.05215391 3.779514e-06 0.060313724 -1.09523176e-13
000160 b0 a5 b3 a9 9b aa 3c 3d cb 09 36 a7 12 47 11 3b
       -7.977939e-14 0.04606114 -2.5262883e-15 0.0022167605
000170 ed 03 79 bb 7c bb 73 29 c8 4a df bc a7 4f 67 bd
       -0.0037996725 5.4119456e-14 -0.027257338 -0.056472447
000180 92 cb 61 a9 fd 0e 0c bd 50 65 b9 a8 63 1c 0e aa
       -5.0136605e-14 -0.03419398 -2.0583063e-14 -1.2621982e-13
000190 39 5d 90 3c e9 68 84 3c 39 0b 01 3d 00 47 66 aa
       0.017622577 0.016163306 0.031504843 -2.0452737e-13
0001a0 3f 16 31 bd e0 2a 81 bd 9d ff 0e aa 9d be f7 bc
       -0.043234106 -0.06307006 -1.2700817e-13 -0.030242259
0001b0 a4 f8 4f aa 15 11 e1 a7 63 97 13 3d d7 98 6a bd
       -1.8471558e-13 -6.2468566e-15 0.036033046 -0.057274666
0001c0 ae 36 b4 bc 01 99 5b bb 7c 6a 28 bc c9 3d 80 3a
       -0.02199873 -0.0033507945 -0.010279294 0.0009784038
0001d0 a7 f9 6b bd 1c ce 13 3c 1f f9 a7 3b 7c 75 a1 bd
       -0.057611134 0.009021308 0.005126133 -0.078837365
0001e0 85 ef ce bd 92 00 ee bc ed 33 9e 3b 42 67 8f a8
       -0.101042785 -0.029053006 0.0048279674 -1.592097e-14
0001f0 1b e4 1b 36 d6 3d f3 bd b5 e9 b3 bd 71 b0 04 bd
       2.3229575e-06 -0.11877029 -0.087848105 -0.03239483
000200 24 49 1d aa 46 87 aa bd 5d 62 f2 29 09 15 d3 bd
       -1.3969777e-13 -0.083265826 1.0764022e-13 -0.103067465
000210 92 19 7b a8 b5 39 0d b9 c7 73 66 b9 5c 21 cf 3b
       -1.3938844e-14 -0.00013468305 -0.0002197764 0.0063211154
000220 4d 95 82 3c 8d 64 68 bc 00 18 97 3c f8 d7 53 3d
       0.015940333 -0.014184129 0.018444061 0.051719636
000230 06 e5 04 bd 64 30 f4 bc 8d 3d 6a 26 97 68 a2 29
       -0.032444976 -0.02980823 8.1268476e-16 7.2123886e-14
000240 4f cb 55 3c 6a 33 79 bc 18 93 72 3d d1 67 ad bd
       0.013048961 -0.015210012 0.05922231 -0.08467067
000250 d9 ce d0 bc fc 0c 3f bd a1 71 20 3a 43 1e 63 a9
       -0.025489258 -0.046643242 0.00061204477 -5.0430373e-14
000260 38 68 7c 3d 6e 24 22 aa b8 ca 90 26 ac ac b6 a7
       0.06162283 -1.440113e-13 1.0046954e-15 -5.070236e-15
000270 37 6d 79 bd 51 0e 3f a8 28 98 a3 bc d2 92 d3 bc
       -0.06089517 -1.0605734e-14 -0.019970015 -0.025826845
000280 ca 50 e9 bd 2f 94 f5 bd fe 29 57 3d ed ce 46 bd
       -0.113923624 -0.119911544 0.05253028 -0.048537184
000290 7a 20 d7 bd bc 1a a8 bc 63 c6 bf 28 07 d7 d9 3c
       -0.10504241 -0.02052056 2.1291296e-14 0.02659179
0002a0 2e ca 2a 3d a2 7d c1 bd 44 05 09 bd 36 d6 1e 3d
       0.04169672 -0.09447791 -0.033452287 0.038778506
0002b0 b9 19 df 28 8e 57 c0 a9 1b ce 83 bc 61 41 57 bb
       2.4769129e-14 -8.541701e-14 -0.01608949 -0.0032845365
0002c0 ec 14 23 bd 2e b0 78 a5 a3 d2 f6 a6 7e 00 81 bd
       -0.039814875 -2.1570263e-16 -1.7126772e-15 -0.06298922
0002d0 12 a3 c0 bc ea f3 46 3d 55 e6 8e 29 81 57 48 27
       -0.023515258 0.04857246 6.346023e-14 2.7803012e-15
0002e0 11 d1 81 bd 7b 87 35 2d a3 e8 7f 3b ce 04 bc 29
       -0.063387044 1.03187415e-11 0.0039048574 8.3497106e-14
0002f0 7d 9d 38 2a 88 b8 93 bd 80 78 d8 a7 4c 79 e7 bc
       1.6397123e-13 -0.07212931 -6.008269e-15 -0.028256081
000300 23 7c 53 bd 07 57 8c 28 b3 1b a4 bd 63 ac 1c 3d
       -0.051632058 1.5580864e-14 -0.08013096 0.03825034
000310 65 a8 9f a9 d9 5d aa bc dd fd 11 2a 73 d4 23 29
       -7.09023e-14 -0.020796703 1.2966664e-13 3.637754e-14
000320 c4 65 9e 3a e5 ac 5a 3a d2 3d 49 bb 14 fe a5 b9
       0.0012084772 0.00083418033 -0.0030707014 -0.00031660555
000330 10 a6 3f 2d b9 30 a1 b8 0a aa 49 27 05 84 93 30
       1.0893966e-11 -7.6861535e-05 2.7986532e-15 1.073318e-09
000340 2e be 2e 29 4c 09 26 a9 5c 15 3f ba 9e 22 d7 bb
       3.8800716e-14 -3.6867468e-14 -0.00072892546 -0.006565406
000350 ad c3 61 ab 6f 1c 56 31 f2 a1 30 2a d8 ab 02 b8
       -8.020761e-13 3.1157261e-09 1.5688126e-13 -3.1154457e-05
000360 05 77 e1 aa 28 55 d6 b8 d8 be 67 39 9f 00 06 ba
       -4.0050615e-13 -0.00010220177 0.00022100972 -0.0005111787
000370 9d 05 fe ba 0a 93 1e 2b 68 66 5a b9 5b d7 51 28
       -0.0019380335 5.6336934e-13 -0.0002082825 1.1648528e-14
000380 65 a9 9f bb 48 1d 74 b9 b0 f2 cb ba a7 0b ff ba
       -0.0048724883 -0.00023280561 -0.0015559997 -0.0019458429
000390 00 23 8c a9 40 67 65 b9 1c 15 8b 29 d9 1f 13 38
       -6.2233205e-14 -0.00021877605 6.176502e-14 3.507719e-05
0003a0 bb f7 56 29 db 0c f9 ba 37 57 10 ba 4f 33 86 b8
       4.7732417e-14 -0.0019001024 -0.000550616 -6.399175e-05
0003b0 60 2c 29 b4 67 f6 66 bb 2d d1 9d 3a b7 3e 4f ba
       -1.5755495e-07 -0.0035242082 0.0012040489 -0.00079057686
0003c0 e2 5c b8 aa 2e 06 84 ba 91 0c ac ba 42 f9 cd 29
       -3.2749416e-13 -0.0010072642 -0.0013126304 9.147068e-14
0003d0 58 24 1b bb d9 57 59 b9 d1 27 3d ba e8 7a a2 3a
       -0.0023672786 -0.00020727458 -0.0007215711 0.0012396248
0003e0 49 66 b4 b9 0d f4 99 b8 14 68 d8 3b c5 ed e0 27
       -0.00034408484 -7.3410665e-05 0.006604204 6.243028e-15
0003f0 56 63 99 b9 aa 24 00 a9 18 24 eb a8 30 6c 84 29
       -0.00029256445 -2.845351e-14 -2.6105894e-14 5.880745e-14

fc2.bias f4 [30]
000000 1f aa a4 bd 95 ba e6 3c bb a3 57 3b 79 11 4f bb
       -0.080402605 0.028165141 0.0032903987 -0.0031596108
000010 d4 f9 28 bc 05 3f eb bd 32 90 ad 3c b5 e3 bf bc
       -0.01031347 -0.114866294 0.021186922 -0.023424009
000020 b4 3d cc b2 28 25 ae 3c 14 b8 9d 3d 8c 5b 0d 3c
       -2.3776785e-08 0.021257952 0.07701126 0.0086277835
000030 da 7a e6 3c 54 cc 1c b7 55 0d 95 bc 95 ce ed bb
       0.028134752 -9.345898e-06 -0.018194834 -0.0072572925
000040 5f 80 ff bc b6 c0 a3 3d de 6c 1f ba c7 1d 75 3d
       -0.031189142 0.07995741 -0.0006081591 0.05984285
000050 53 17 15 3d 70 9d a4 3c 3b 6e d3 3d 4a 4b f0 3c
       0.036399197 0.020094603 0.10323759 0.029332776
000060 d3 d1 97 b3 63 d9 ec 3d de e8 33 3d af 5b 31 3d
       -7.069652e-08 0.11564901 0.04392325 0.043300327
000070 7a 17 11 bc ce 2d 21 3d
       -0.008855695 0.039350323

fc3.weight f4 [10, 30]
000000 d6 12 21 3c e8 f5 1e be f0 26 00 aa 84 38 b5 a6
       0.009831151 -0.15523493 -1.1382193e-13 -1.2574717e-15
000010 fa 41 51 2a d3 5f 61 bd 3f 3b ec 3d 63 e5 8f 3d
       1.8585819e-13 -0.055023026 0.11534738 0.07026174
000020 88 4c 8f 27 b2 01 b5 bd fc d7 ff 3d d0 d7 96 3d
       3.977345e-15 -0.08838214 0.124923676 0.07365382
000030 b9 3f 9d bd f9 07 fd 29 8c 1b f3 3d 92 e6 dc a8
       -0.0767817 1.123684e-13 0.118704885 -2.45249e-14
000040 f1 dd 98 bd 25 b4 1e be c6 db 4c aa 17 92 74 3d
       -0.07464207 -0.15498407 -1.8195089e-13 0.059709635
000050 8c 1a 31 be 6e 7a 18 3e f0 fe 1d be b6 3a 44 bd
       -0.17295283 0.14890453 -0.15429282 -0.047907554
000060 d7 d8 85 29 41 e2 b6 3d c1 dc 0c 3e 83 1b 20 3e
       5.944002e-14 0.08929873 0.13756086 0.15635495
000070 1f ea 81 2a cb b6 22 be a7 37 15 29 8c f1 68 ab
       2.3077457e-13 -0.15890042 3.3132917e-14 -8.275817e-13
000080 aa 15 ad a9 2b 9b 5a af ce 31 72 af 26 78 ca 2a
       -7.6865014e-14 -1.9882111e-10 -2.2027466e-10 3.5965778e-13
000090 6b 76 15 a9 71 39 3a a8 72 a6 16 a8 1c 10 9f aa
       -3.3187357e-14 -1.033753e-14 -8.362765e-15 -2.8255252e-13
0000a0 60 7b f2 a8 2f 4f a9 27 64 2c 0a 2a 86 f8 2a 2a
       -2.6920903e-14 4.6992774e-15 1.2272263e-13 1.5185257e-13
0000b0 ab 29 b9 2c 0c cf 7e 27 a9 52 a9 a9 51 17 06 b9
       5.2626423e-12 3.5361821e-15 -7.519447e-14 -0.00012787922
0000c0 74 8b c2 29 bf 6b 2f 28 f6 0a b6 b9 dd 4c d7 a8
       8.639522e-14 9.737815e-15 -0.00034721912 -2.390313e-14
0000d0 03 de de b6 cd 2e cc 2a 08 f4 ca 28 58 cc 42 b9
       -6.641961e-06 3.6270154e-13 2.2532337e-14 -0.00018577406
0000e0 52 50 bb aa cc 52 b7 aa 8e db 84 2f 91 47 5b a9
       -3.3273606e-13 -3.2564782e-13 2.4166663e-10 -4.8689842e-14
0000f0 1c da 20 2a 39 fb 8f a8 b7 cd 6e 2b b8 e5 3f ba
       1.4286527e-13 -1.598514e-14 8.484007e-13 -0.00073203025
000100 e8 2f e6 a7 eb dd 8c 27 ec f0 97 a9 8f cd 8a a9
       -6.3889764e-15 3.909841e-15 -6.7475404e-14 -6.16409e-14
000110 c5 9c a8 a9 e0 43 e1 28 12 bf c8 2a 71 a9 2b 2a
       -7.487894e-14 2.5009454e-14 3.5659718e-13 1.5246638e-13
000120 28 aa 1e aa f9 4d e6 a9 c9 33 10 aa ce 45 58 2a
       -1.4092254e-13 -1.0227578e-13 -1.2807736e-13 1.9208872e-13
000130 58 40 23 aa de 72 b6 bb be db a8 2a 0e 2e c1 aa
       -1.4499632e-13 -0.0055678925 2.9995272e-13 -3.4315644e-13
000140 ca e8 e8 bb b9 37 78 29 16 68 6b bb dc 92 3c 2b
       -0.0071078287 5.5115394e-14 -0.0035920194 6.6994825e-13
000150 3c e8 d2 29 4f e5 58 bc fc 89 d6 2a 0a 13 4c ab
       9.3661596e-14 -0.013238265 3.8109782e-13 -7.250178e-13
000160 70 ad e5 3a 8d 41 76 29 8e 84 14 3e 31 eb 0c 3d
       0.0017523002 5.467983e-14 0.1450369 0.034403984
000170 33 c9 4e ba 2e 5b b7 3c 41 3c 2f 3e a6 f4 13 3e
       -0.00078882574 0.022382345 0.17112829 0.14448795
000180 1c a8 d2 3c c2 b1 14 bd df c6 a7 29 53 24 c0 bc
       0.025714926 -0.036302336 7.4507884e-14 -0.02345482
000190 68 d9 0e bd 22 53 be bd 7e a2 38 3e 92 b9 9a ac
       -0.034875304 -0.092932 0.18030736 -4.3975457e-12
0001a0 ca e9 92 bd da 1f 2c 2a bb de 08 3d b7 3c 2d 3e
       -0.07173498 1.528772e-13 0.033415537 0.16917692
0001b0 e5 97 86 a9 82 af b3 3d 89 1c d3 3c 97 95 78 bd
       -5.977145e-14 0.0877371 0.025770443 -0.060689535
0001c0 f7 cb 35 3e e5 ed 74 3d 8a e5 0b aa 8b e4 79 bc
       0.17753588 0.059797186 -1.2425317e-13 -0.015252243
0001d0 c8 77 d7 bd f8 35 23 3c f5 a7 15 3d a6 1f 52 3d
       -0.10520893 0.009961598 0.03653713 0.051299714
0001e0 28 72 11 aa 53 b5 07 29 7a 4c 61 29 3b 95 41 ba
       -1.2918193e-13 3.0133295e-14 5.002637e-14 -0.0007384603
0001f0 92 53 d7 32 1a 05 2b 2a 98 0e 84 29 7b ad 37 29
       2.5067298e-08 1.5189621e-13 5.864509e-14 4.0784633e-14
000200 45 21 6b 2a 7d 3e b3 a9 87 fc db aa 89 1b 31 2a
       2.0883736e-13 -7.960037e-14 -3.907744e-13 1.5730311e-13
000210 bf c5 37 28 f2 19 71 29 1c ab b2 31 36 91 19 2a
       1.020142e-14 5.3535254e-14 5.1999347e-09 1.363951e-13
000220 28 00 57 aa 5b 20 64 bc 0d ad fc a6 75 85 30 2a
       -1.909589e-13 -0.01392373 -1.7532918e-15 1.5678242e-13
000230 c1 32 84 bc 42 89 1c a8 61 78 21 bc 8b c1 9d a7
       -0.016137483 -8.689503e-15 -0.009855361 -4.3786093e-15
000240 1b 03 1d ab 9f 71 6d bc 7b ed a3 a9 20 a0 b3 aa
       -5.5781914e-13 -0.014492421 -7.2798504e-14 -3.1907896e-13
000250 6b c0 58 ba fc 63 16 2b 93 55 86 bc 46 14 ec 3d
       -0.00082684186 5.342946e-13 -0.016398227 0.11527304
000260 91 fa 0d ba bb b2 b6 3d 13 bb 2f 3e 87 dd 00 be
       -0.00054160604 0.08920809 0.17161207 -0.12584506
000270 b5 02 04 be c2 2a 0e be 8c b6 58 2b db 31 67 bd
       -0.12891658 -0.13883498 7.699195e-13 -0.05644403
000280 7e 0a e3 bc ec fd 04 3e e7 0d b2 3a f5 d0 a5 2a
       -0.027714964 0.12987489 0.0013584465 2.945488e-13
000290 84 04 f5 3d 6b b4 a3 aa 52 00 42 3e 31 c0 1d 3e
       0.11963752 -2.9079807e-13 0.18945435 0.15405346
0002a0 18 b7 a2 a8 f1 22 d8 3d ea 72 e8 3d 09 6e 5a bc
       -1.8065017e-14 0.105535395 0.11350043 -0.0133318985
0002b0 49 38 11 3d f4 19 9a bd 6f 09 11 2a c2 90 37 3e
       0.03545407 -0.075244814 1.288186e-13 0.17926314
0002c0 25 02 da bd 8f 9d 89 3d c6 06 de 3d ee 11 0d 3e
       -0.1064494 0.06719505 0.10841136 0.13776371
0002d0 89 d8 30 3d 77 73 46 bd 19 50 b3 ba 21 21 8a 3c
       0.043175254 -0.04844996 -0.0013680487 0.0168615
0002e0 8c 96 37 3e fb 09 ea 29 3a e2 82 3c 5d 64 9f a9
       0.17928523 1.0393419e-13 0.015977014 -7.078429e-14
0002f0 74 a2 2b 2a d6 c5 76 bb b4 7c 8a a7 37 ad 9a 29
       1.5244213e-13 -0.003765454 -3.8437898e-15 6.869022e-14
000300 f5 96 4f aa 75 6b ba 2f 37 af 4d 3e a6 ee 3a 33
       -1.8437667e-13 3.3909556e-10 0.2008637 4.352355e-08
000310 2c 37 c6 bd ac ca 82 3d 06 03 0b ab f5 08 f4 3b
       -0.09678492 0.06386313 -4.9386916e-13 0.007447357
000320 cb 03 4a 3e 1f 91 04 be d5 dc a1 3c af ea c8 29
       0.1972801 -0.12945984 0.019758621 8.922495e-14
000330 5b 91 a4 29 2d d8 28 3e fb a6 b8 29 7c 1a 9d bc
       7.308278e-14 0.16488715 8.200208e-14 -0.019177668
000340 ce 63 a1 3c c8 d2 e2 bd 01 c8 0d 3e 84 d7 c1 3d
       0.01970091 -0.110753596 0.13845827 0.094649345
000350 95 ba df 2a 0d 3f cd a9 0f 6f 5b 29 fd ec 56 3d
       3.9742225e-13 -9.1147664e-14 4.8724096e-14 0.052472103
000360 38 0f 84 bd 0b 0a cb 3d 7e 25 ae a9 90 02 7c 3b
       -0.06448215 0.09914025 -7.733656e-14 0.0038453676
000370 73 10 18 3e 28 b1 89 3d ac 00 b0 3d 0e 4a 96 a6
       0.14850025 0.06723243 0.08593878 -1.0428413e-15
000380 bc 11 b3 3b ab 84 a5 aa 74 c8 4e 3d 09 3a e0 bd
       0.0054647606 -2.9401945e-13 0.050484136 -0.10948569
000390 53 de 2c 28 1e 6e 00 3e 84 07 48 be d0 3a 56 bd
       9.596127e-15 0.12542006 -0.19534117 -0.05230218
0003a0 89 cd 02 be c7 c4 c6 3d dc 2b 37 28 97 4c 3f be
       -0.12773718 0.09705501 1.0168051e-14 -0.1868156
0003b0 55 aa 9e bb d8 58 16 be 36 43 9b 29 c8 44 36 3d
       -0.0048420825 -0.14682329 6.895042e-14 0.04449919
0003c0 93 64 a9 aa a6 43 bf a9 d7 40 18 bb bf 5f 1e 3c
       -3.0090218e-13 -8.493839e-14 -0.0023232007 0.009666382
0003d0 e7 24 30 3e 64 d8 d9 29 e1 52 b2 29 e2 5a 71 2a
       0.17201577 9.6742736e-14 7.919165e-14 2.1436631e-13
0003e0 1c 7a 93 a9 69 f5 2f aa 9b ed 15 aa 1a 20 75 28
       -6.549294e-14 -1.5628266e-13 -1.3316294e-13 1.3607193e-14
0003f0 19 a7 78 2b 7d 4d 82 2c 89 4c 56 3e f3 f6 4f 2a
       8.8339194e-13 3.703425e-12 0.20927633 1.8470971e-13

fc3.bias f4 [10]
000000 92 84 97 3c 82 af 82 b9 b2 12 c2 bb 4b 2b 0f 3e
       0.018495832 -0.00024926296 -0.005922639 0.13981359
000010 99 d9 6c bc ec ef 7c 3d 0a 46 14 3d d5 c0 86 3d
       -0.014456176 0.061752245 0.036199607 0.065797485
000020 3f 4d ab 3c 8f ee 81 3d
       0.020910857 0.063443296

fc_out.weight f4 [1, 10]
000000 e8 1b 24 be df ae 89 b0 10 31 83 2a 76 59 bb 3d
       -0.1602627 -1.0017763e-09 2.3304319e-13 0.09147923
000010 fe 45 99 bc 10 0e d1 3d 62 0e 94 3e ea 4f 6d be
       -0.018710133 0.1020776 0.28917223 -0.23175016
000020 52 d1 1c 3e df be f5 bc
       0.15314224 -0.029998241
