REEM/model/[example]trained-popu/Philadelphia/example-folder/model_pop_best.pth (torch, 18836 bytes, 7 tensors)

fc1.weight f4 [100, 5]
0	0xbcdfc0a2	-0.027313534
1	0x3e314e97	0.17315136
2	0x3e8c9dab	0.2746404
3	0xbab5df64	-0.001387578
4	0x3d293d89	0.04131845
5	0x3ea7c507	0.32767507
6	0xbe12c6bf	-0.14333628
7	0xbe0ac666	-0.13552245
8	0xbe881fe2	-0.26586825
9	0x3dbcce38	0.092190206
10	0x3e2bd1fc	0.16779321
11	0xbea04f68	-0.31310582
12	0x3d5c63ec	0.05380623
13	0x3e88f593	0.26749858
14	0xbd345b12	-0.044032164
15	0x16ed932f	3.83823e-25
16	0x15b91264	7.474992e-26
17	0x2b5177e2	7.4418087e-13
18	0x138589d3	3.3709825e-27
19	0x1f0794f3	2.871057e-20
20	0x3ef6b840	0.48187447
21	0xbeb30596	-0.349652
22	0x3e2c8fa4	0.1685167
23	0xbda5505b	-0.08071967
24	0x3da43589	0.080180235
25	0x3e148169	0.14502491
26	0x3e239789	0.15975775
27	0xbeae6796	-0.34063405
28	0xbd8588fd	-0.06520269
29	0x3e1706b9	0.14748658
30	0x2793a003	4.097418e-15
31	0xa8b2e6fa	-1.986214e-14
32	0x294441ce	4.357782e-14
33	0xa7b584a6	-5.038141e-15
34	0x2703f8a0	1.8314682e-15
35	0x3e0261f0	0.12732673
36	0xbe8860f6	-0.26636475
37	0xbd6cb860	-0.05779302
38	0xbe971cc1	-0.29514125
39	0x3dfc701b	0.1232607
40	0xbd39160a	-0.045187034
41	0x3ec19517	0.3780906
42	0xbe03eb99	-0.12882842
43	0x3e37e5ee	0.17958805
44	0xbc5c6c8c	-0.013453614
45	0xba03b875	-0.00050247397
46	0xb9930690	-0.00028042914
47	0x39eff995	0.00045771585
48	0xb99ca0a3	-0.00029874322
49	0x38b4d006	8.621816e-05
50	0x3cf397fe	0.029735561
51	0x3e8aa7e0	0.27081203
52	0xbd5aa873	-0.053383302
53	0x3e9c1a53	0.30488834
54	0xbd7be19e	-0.061494462
55	0x3e993e94	0.29930556
56	0x3e945d2b	0.28977332
57	0xbc8cd038	-0.01718913
58	0xbe7e7cc0	-0.24852276
59	0x3e2110a8	0.1572901
60	0x3c6fbc60	0.014632314
61	0xbcb194f5	-0.021677474
62	0xb4cfc1c3	-3.8697735e-07
63	0xbb75f017	-0.0037527138
64	0x32c38fc4	2.2766365e-08
65	0x3e427f65	0.1899391
66	0x3e046929	0.1293074
67	0x3ea7101d	0.3262948
68	0xbd19d37f	-0.037555214
69	0x3a237504	0.0006235393
70	0xbe89b5ed	-0.2689661
71	0x3e9efa7a	0.31050473
72	0xbd8cf130	-0.0688194
73	0xbeac0bcc	-0.3360275
74	0xbd05dd05	-0.032681484
75	0x3e4b6b23	0.19865088
76	0x3e4328a9	0.1905848
77	0xbe38c8a5	-0.1804529
78	0x3e1d23cc	0.15345687
79	0xbd0b72d6	-0.034045063
80	0x3eeaf781	0.45891955
81	0xbe8d3878	-0.27582145
82	0x3ea5965c	0.32341278
83	0xbcad9d38	-0.021193132
84	0x3d81cb85	0.063376464
85	0x3d68b083	0.05680896
86	0xbeab3d49	-0.33445194
87	0x3e02b3f3	0.12763958
88	0xbeb390c0	-0.35071373
89	0x3e1feb19	0.15617026
90	0x3eedd6d6	0.4645297
91	0xbe48bbbd	-0.19602866
92	0xbe064314	-0.13111526
93	0xbdddb661	-0.10825802
94	0xbde0a3d4	-0.10968748
95	0x3e091f25	0.13390787
96	0x3e7d626c	0.24744576
97	0xbe95ea91	-0.29280522
98	0x3eaf1639	0.34196642
99	0x3e56ca3a	0.20975581
100	0x3e8644aa	0.26224262
101	0xbe8df82a	-0.27728397
102	0x3e97b8dc	0.29633224
103	0xbea9cc11	-0.33163503
104	0xbdd58d6f	-0.10427367
105	0x3d7c902e	0.061660938
106	0xbe594664	-0.21218258
107	0x3f0830f1	0.5319968
108	0xbe8f1e50	-0.27952814
109	0x3e809aee	0.25118202
110	0x3e930efc	0.2872237
111	0xbdf40b43	-0.119162105
112	0xbdbdd1da	-0.09268542
113	0x3e9e99c2	0.30976683
114	0xbd83e9a9	-0.064410515
115	0xbeb271ea	-0.34852535
116	0x3eea66fb	0.45781693
117	0x3eaa0a46	0.33210963
118	0xbf07101a	-0.52758944
119	0x3e204864	0.15652615
120	0xbeac7e9d	-0.33690348
121	0x3eb93056	0.3616969
122	0xbf5e6167	-0.86867374
123	0x3ef6ac0f	0.48178145
124	0xbe3697f6	-0.17831406
125	0xbea2604f	-0.31714103
126	0x3e666ba0	0.22501993
127	0x3d944c9e	0.07241176
128	0x3ec84dfd	0.39122
129	0xbdd5d648	-0.104412615
130	0xbe272c3c	-0.16325468
131	0xbe65332d	-0.22382803
132	0x3d947fe3	0.07250955
133	0x3ea37e38	0.31932235
134	0x3d631f25	0.055449624
135	0x3e8e6698	0.27812648
136	0x3d938478	0.07203001
137	0x3dee9d79	0.11651129
138	0x3e9ccb9e	0.30624098
139	0x3dbb26df	0.091382734
140	0x369d9934	4.6968e-06
141	0xb78b4e22	-1.6606475e-05
142	0xb5af2cf7	-1.3051603e-06
143	0xb626283f	-2.4759354e-06
144	0x358a0efa	1.028616e-06
145	0xbd295096	-0.04133662
146	0xbd4d2e73	-0.050093126
147	0x3e032a3a	0.12809077
148	0x3e97db43	0.2965947
149	0x3d53189e	0.05153715
150	0xbe8bdf99	-0.2731903
151	0x3ea9ea9b	0.33186802
152	0x3e73fe80	0.23827553
153	0xbe1ff0dc	-0.15619224
154	0x3e970e89	0.29503277
155	0xbe9c3f4d	-0.30517045
156	0x3e9ee799	0.3103607
157	0xbef25308	-0.47328973
158	0xbecbca69	-0.39802864
159	0x3dba90ef	0.09109675
160	0xb687e663	-4.050134e-06
161	0xb2948990	-1.7292024e-08
162	0xb5fac829	-1.8684706e-06
163	0xb76a91dd	-1.3981448e-05
164	0x3546fbce	7.412717e-07
165	0xbed1302a	-0.4085706
166	0x3e89e07a	0.26929075
167	0xbed27617	-0.4110572
168	0x3e9542a9	0.2915242
169	0xbed46fe9	-0.4149163
170	0xbdd82e67	-0.105557255
171	0xbd4eeef3	-0.05052085
172	0xbe44cd5f	-0.19218968
173	0x3d941229	0.07230026
174	0x3b8c6033	0.004283929
175	0xbdfc323b	-0.12314268
176	0xbea98062	-0.3310576
177	0xbe9f2eeb	-0.31090483
178	0xbe9149ae	-0.28376526
179	0x3e2b4a5a	0.16727582
180	0x3ea9bdb2	0.3315254
181	0xbf0c48c0	-0.5479851
182	0x3e40e229	0.18836273
183	0xbe62fba3	-0.22166304
184	0x3e4935c3	0.19649415
185	0x3d917d37	0.07103961
186	0xbef8c94d	-0.4859108
187	0x3e8d1ac7	0.27559492
188	0x3e63f020	0.22259569
189	0xbe8e06ee	-0.27739662
190	0x3b00c37a	0.0019647763
191	0xbdcc95e1	-0.09989525
192	0xbccfcfcd	-0.025367642
193	0xbe416f91	-0.18890215
194	0x3d492494	0.04910715
195	0x3d6da1ec	0.05801575
196	0xbd1fc6fa	-0.03900812
197	0xbcc9d933	-0.024639701
198	0x3d43cad0	0.04780084
199	0x3cbe3e85	0.023223171
200	0x3effe4ca	0.4997924
201	0xbf24043b	-0.64068955
202	0x3ef908e8	0.48639607
203	0xbe3742f5	-0.17896636
204	0x3c12360a	0.008924017
205	0x3ce13887	0.027492775
206	0xbda04064	-0.078247815
207	0x3e8457b0	0.2584815
208	0x3e810551	0.2519937
209	0xbdf103cf	-0.117683046
210	0x3e511fe1	0.20422317
211	0xbeae4631	-0.34037927
212	0xbcf578a6	-0.029964756
213	0x3f21de2d	0.6322964
214	0xbe7b431e	-0.24537322
215	0xafee1111	-4.3304074e-10
216	0xb2dc7532	-2.5664665e-08
217	0x3ac9224e	0.0015345307
218	0xb97696d4	-0.00023516576
219	0x9e92eb56	-1.5555684e-20
220	0xbe9fcf3c	-0.31212795
221	0xbd0ef9e8	-0.034906298
222	0xbd070e0f	-0.03297239
223	0x3df97230	0.12179983
224	0xbcfc3c09	-0.030790346
225	0x3c1e711a	0.00967052
226	0xbeaeab7d	-0.3411521
227	0x3ca084bc	0.019594543
228	0x3dcc914b	0.0998865
229	0xbd97526b	-0.07388767
230	0xbe949f0a	-0.29027587
231	0x3e1a937e	0.15095326
232	0xbe0fe143	-0.14050774
233	0x3ec15940	0.37763405
234	0x3d273382	0.040820606
235	0x3e3a1603	0.1817246
236	0x3e05413b	0.13013165
237	0xbe098dd1	-0.13433005
238	0xbd921c7b	-0.071343385
239	0x3dab4b16	0.08363931
240	0x3d03c597	0.03217086
241	0x3e32fdab	0.17479579
242	0xbf5095bc	-0.81478477
243	0x3ebdec38	0.37094283
244	0xbe75ec60	-0.24015951
245	0x3e433309	0.19062437
246	0x3e00c924	0.12576729
247	0x3e27f327	0.16401349
248	0x3e936c47	0.28793547
249	0x3d21c237	0.03949186
250	0x3e2b9637	0.16756521
251	0x3be98fb5	0.007127727
252	0x3d9d4739	0.076796
253	0xbd163822	-0.036674626
254	0x3af989a1	0.0019038209
255	0xbeb8d0a8	-0.36096692

fc1.bias f4 [100]
0	0x3ec41748	0.38299012
1	0x3e57216f	0.21008848
2	0x3eb7a3f7	0.35867283
3	0xb263fc69	-1.32705305e-08
4	0x3d12e2b5	0.035860736
5	0x3e0a1309	0.13483824
6	0xa963cb08	-5.0580227e-14
7	0x3e4e2be5	0.20133932
8	0xbe79ff1d	-0.24413724
9	0xb98cfe15	-0.00026892187
10	0xbe44d874	-0.19223195
11	0x3e9afd53	0.30271396
12	0xbcb15c96	-0.021650594
13	0xbdb91cff	-0.09038734
14	0x3e82b808	0.2553103
15	0xbd84f80a	-0.06492622
16	0xbcea9928	-0.028637484
17	0x3e8c9897	0.27460167
18	0x3dc30edf	0.09524321
19	0x3e847a03	0.25874338
20	0x3e5de9af	0.21671174
21	0x3e19d157	0.15021263
22	0xbdd3cadb	-0.10341426
23	0xbd880485	-0.06641487
24	0xbe81e743	-0.2537175
25	0x3ebfcb71	0.374599
26	0x3dc0cafa	0.09413715
27	0x3ea69e52	0.32542664
28	0xb702f0b2	-7.804645e-06
29	0x3d417a8f	0.04723602
30	0xbd44a61d	-0.04800998
31	0x3eb6bbad	0.3569006
32	0xb7c7927b	-2.3790859e-05
33	0xbe3b932e	-0.18317863
34	0x3e8a6444	0.27029622
35	0x3ecdd75b	0.40203366
36	0x3e23100b	0.15924089
37	0xbdb49846	-0.08818106
38	0x3ebc8c1a	0.3682564
39	0x3ea9ffd7	0.33203003
40	0x3db9f8e1	0.09080673
41	0xbddce90b	-0.10786637
42	0xbe5146e5	-0.204372
43	0xbc5088ef	-0.01272796
44	0x3e62a9e4	0.2213512
45	0x3e26c80a	0.16287246
46	0x3e843c5c	0.258273
47	0x3e49400e	0.19653341
48	0xbe480068	-0.19531405
49	0xbe5721b1	-0.21008946
50	0x3e95acc6	0.29233378
51	0xbcc852fe	-0.024453636
52	0x3eb03232	0.34413296
53	0xbc242049	-0.010017463
54	0xad93cd39	-1.6803102e-11
55	0xbd87210b	-0.06598099
56	0xbe09634c	-0.13416785
57	0xbd809abc	-0.06279513
58	0x3e472cbc	0.19450659
59	0x3ede5b52	0.43429047
60	0xbcf13bd4	-0.029447474
61	0x3e69af7d	0.2282085
62	0x3e15c3df	0.146255
63	0x3ce9c75d	0.028537447
64	0xbc1bc0b5	-0.009506394
65	0xbd821ae4	-0.06352785
66	0xaf6399b2	-2.0700133e-10
67	0x3e40e463	0.18837123
68	0x3e959146	0.29212397
69	0x3d8e0281	0.06934071
70	0x3ea09c6d	0.31369343
71	0x3eaf4456	0.34231824
72	0xbd4c897e	-0.04993581
73	0xbd2d07cd	-0.042243768
74	0x3dc68bb2	0.096946135
75	0x3e97cfbe	0.29650682
76	0x3d7f4cfa	0.06232927
77	0x3da79fc2	0.08184768
78	0xb99582cf	-0.00028516955
79	0xbbc3bd52	-0.0059734965
80	0x3e03f9a0	0.12888193
81	0x3e259715	0.16170914
82	0xbd48e467	-0.049045946
83	0xbc359e65	-0.0110851275
84	0x3edb203f	0.4279804
85	0x3e652ced	0.22380419
86	0x3ceeca27	0.029149128
87	0x3d31ea02	0.043436058
88	0xbd5d387b	-0.054008942
89	0x3e2b73bf	0.16743372
90	0xb693dfb0	-4.406982e-06
91	0x3edead52	0.43491608
92	0x3e2bf99f	0.16794442
93	0xb9461d44	-0.00018893654
94	0x3e9020a6	0.2814991
95	0xbe01cb29	-0.12675156
96	0xbe191d2c	-0.14952534
97	0xbe931d5a	-0.2873333
98	0xbd3df1aa	-0.046373047
99	0xb424f41d	-1.5362498e-07

fc2.weight f4 [30, 100]
0	0x3cad4f31	0.021155925
1	0x3d31c146	0.04339721
2	0xbcbb5f34	-0.022872545
3	0x0f7b7446	1.2397649e-29
4	0x3a20a9a0	0.0006128792
5	0x3d0998f5	0.033593137
6	0x913a847f	-1.4713641e-28
7	0xba4103b2	-0.00073629164
8	0xbb867fe2	-0.0041046003
9	0x101eee02	3.134336e-29
10	0xbbd07064	-0.0063610543
11	0xbd566f05	-0.05235197
12	0xba3c26d7	-0.00071774184
13	0xbc48a02c	-0.012245219
14	0x3d269dd7	0.04067787
15	0xbc65c91c	-0.014024999
16	0xb8046193	-3.1562126e-05
17	0xbb48f87f	-0.0030665693
18	0x3cb187f4	0.021671273
19	0xbd0545a3	-0.032537114
20	0x3c46695b	0.01211008
21	0xbc0f6305	-0.008751635
22	0x3d1bcf96	0.038039766
23	0xbceed473	-0.029154038
24	0xbd85fd25	-0.06542424
25	0xbda5fcba	-0.081048444
26	0xbd747937	-0.059685912
27	0xbc643513	-0.0139286695
28	0x918a5e3f	-2.1830645e-28
29	0xbcde923b	-0.027169337
30	0xbce4f061	-0.027946653
31	0x3d59a133	0.053132247
32	0x1185bef4	2.1101384e-28
33	0xbc8e0423	-0.017335957
34	0x3d46bf9a	0.04852257
35	0xbcefe9a5	-0.029286215
36	0x3a6756b2	0.00088248693
37	0xbbc1d6b5	-0.0059154877
38	0xbddced8f	-0.10787498
39	0x3d4dff6b	0.050292414
40	0x381b8831	3.7081718e-05
41	0xbd357baf	-0.044307407
42	0xb1791953	-3.6248664e-09
43	0x133a0a69	2.3481633e-27
44	0xbdbf8b48	-0.09352738
45	0xbd135ff8	-0.035980195
46	0xbdeb10e9	-0.11477835
47	0xbde841d6	-0.11340682
48	0xb9ac4080	-0.00032854453
49	0x3d6890b0	0.05677861
50	0xbd839c85	-0.06426338
51	0xbb991824	-0.0046720672
52	0x3d13e937	0.036111083
53	0x10beb583	7.522145e-29
54	0x1094ae09	5.864385e-29
55	0x9036e63f	-3.6070546e-29
56	0x3cbd7fc8	0.02313222
57	0x37b5f7f9	2.1692353e-05
58	0x3c9e9dc1	0.019362332
59	0xbd7486b2	-0.059698768
60	0x3d815069	0.06314165
61	0xbcf95a2d	-0.030438507
62	0xbcfbc172	-0.03073189
63	0xba3054e4	-0.0006726517
64	0x3d796b4b	0.06089334
65	0xbd47f54a	-0.04881791
66	0x11617924	1.77867e-28
67	0xbcacbc19	-0.021085786
68	0xbd9c1607	-0.07621389
69	0xbb60886d	-0.0034261004
70	0xbbdbbc0e	-0.0067057675
71	0x3c906be4	0.017629571
72	0x118113f1	2.03649e-28
73	0x94147544	-7.495217e-27
74	0x3c81f9be	0.015866157
75	0xbdb51aec	-0.088430256
76	0x3d523a09	0.051324878
77	0x26832327	9.099479e-16
78	0x10f449a3	9.6354486e-29
79	0xbcfff048	-0.031242505
80	0x3d7d60dc	0.06185995
81	0x3d08df7e	0.033416264
82	0xbd5064de	-0.050877444
83	0x10495301	3.9704204e-29
84	0x3d48034d	0.048831273
85	0x37d2754b	2.508857e-05
86	0x3bf12da5	0.0073601776
87	0x106d7d73	4.683665e-29
88	0xbccd505d	-0.025062734
89	0x3d35c535	0.044377524
90	0x9236b4f3	-5.765211e-28
91	0x3aa51cb3	0.0012597054
92	0xbb8d1ec7	-0.0043066475
93	0x0ea9f7fb	4.1900513e-30
94	0xbccf7c19	-0.025327729
95	0xbc8b1ed5	-0.016982475
96	0x9130d1dc	-1.394862e-28
97	0xbcc595ed	-0.024119342
98	0x90fbcfe4	-9.932235e-29
99	0x10db7c2f	8.6571604e-29
100	0x3cacd9e2	0.021099988
101	0x3c191f2a	0.009345809
102	0x3d0d82d6	0.034548603
103	0x119f4e50	2.513404e-28
104	0xb0c0b1b6	-1.4020347e-09
105	0xbd01e924	-0.03171648
106	0x10f3fc23	9.623508e-29
107	0xb746d9d2	-1.1852435e-05
108	0x128da20d	8.9383e-28
109	0x90a7796a	-6.6056954e-29
110	0x3d0a0f82	0.033706196
111	0xbd407be5	-0.046993155
112	0xad8f91dd	-1.6321994e-11
113	0xb7f51b5c	-2.9219016e-05
114	0xbcf9c3ba	-0.030488838
115	0x3b87c451	0.004143276
116	0xac2ffb21	-2.50084e-12
117	0x3c000927	0.007814682
118	0x398e8ccf	0.0002718926
119	0xbd8e9f67	-0.06963997
120	0xbd86d4c5	-0.06583551
121	0xbab3a4eb	-0.0013705766
122	0x3bf074c7	0.0073381397
123	0xa97c4ab4	-5.6020035e-14
124	0x3aa8614c	0.001284638
125	0xbde2408f	-0.1104747
126	0xbda0729a	-0.078343585
127	0xbcd720ef	-0.026260821
128	0x9009e3ba	-2.719392e-29
129	0xbd95e478	-0.073189676
130	0xbb66c2f9	-0.0035211428
131	0xbdae40b2	-0.085084334
132	0x10b737d7	7.226681e-29
133	0xbc9f8df8	-0.019476876
134	0x3b8966e0	0.004193172
135	0x3c00a637	0.007852129
136	0x37014569	7.70516e-06
137	0xbc156092	-0.009117262
138	0x3cab9fc8	0.020950213
139	0x3d599b41	0.053126577
140	0xb10d7e1f	-2.0589892e-09
141	0xbcc57c25	-0.024107048
142	0x26bca73d	1.3090451e-15
143	0x92e94fcb	-1.4724038e-27
144	0x3c839a39	0.01606475
145	0xbc0c731b	-0.008572365
146	0x3d77c71f	0.06049263
147	0xbd92d2a4	-0.07169083
148	0xb9099814	-0.00013121992
149	0xbd0fd38c	-0.035113856
150	0x3ba799d8	0.005114775
151	0x9f588dfd	-4.585723e-20
152	0x3d8071a7	0.062716775
153	0x106dab00	4.6871742e-29
154	0x8e66c1c6	-2.8442987e-30
155	0x100285ce	2.574106e-29
156	0xbd4c9d7d	-0.04995488
157	0xacffda7b	-7.271792e-12
158	0xbc629682	-0.013829829
159	0xbca5cc4c	-0.020239018
160	0xbdc21408	-0.09476477
161	0xbdce4307	-0.10071378
162	0x3d590179	0.05297992
163	0xb73d63c0	-1.1288503e-05
164	0xbdbda3ae	-0.09259735
165	0xbd5c2916	-0.05375012
166	0x118e4a9c	2.2449631e-28
167	0x3ce79aa4	0.02827198
168	0x3d32f07d	0.04368638
169	0xbdaa5c23	-0.08318355
170	0xbce2db67	-0.02769251
171	0x3cd85d29	0.02641161
172	0x1117c4ce	1.1972445e-28
173	0x90a8fb31	-6.665134e-29
174	0xbc37ac3a	-0.011210496
175	0x3a45d53f	0.000754673
176	0xbd0477ce	-0.032340817
177	0x9f382ef0	-3.900234e-20
178	0x8d5e21b8	-6.844962e-31
179	0xbd3a5561	-0.04549158
180	0xbc7bb843	-0.015363756
181	0x3d543242	0.051805742
182	0x3aa8fc7d	0.001289263
183	0x8e865d90	-3.3123648e-30
184	0xbd5b7ce4	-0.0535859
185	0x34e3afac	4.2409863e-07
186	0x387f5150	6.0872466e-05
187	0x10589fa3	4.272147e-29
188	0x91977f6d	-2.3902132e-28
189	0xbd81fdfb	-0.06347271
190	0x93483fd9	-2.5275028e-27
191	0xbcb64af3	-0.022252535
192	0xbd329dbd	-0.043607462
193	0x0fbc80a5	1.8587783e-29
194	0xbd9027d4	-0.070388466
195	0x380be818	3.3356337e-05
196	0x8f92214e	-1.440954e-29
197	0xbc67e0f4	-0.014152754
198	0x114cab6d	1.6145587e-28
199	0x91594e84	-1.7142476e-28
200	0xbd8df2a8	-0.06931049
201	0x3a1eee91	0.0006062771
202	0xbd52d3ca	-0.05147151
203	0x9099e601	-6.0702236e-29
204	0x3afb1315	0.0019155467
205	0xbca7fc54	-0.020506062
206	0x9d8902b0	-3.6266377e-21
207	0xb6160b5c	-2.2358354e-06
208	0xb4492e55	-1.8736439e-07
209	0x8f58a82d	-1.0682012e-29
210	0xbbcbce4a	-0.00621966
211	0xbd443ce2	-0.047909625
212	0x900dd9b1	-2.797505e-29
213	0x3294ba89	1.7314294e-08
214	0xbd2a7560	-0.041615844
215	0xbb729e27	-0.0037020536
216	0x395a34f3	0.00020809825
217	0x378009a9	1.5263287e-05
218	0x3b83673e	0.00401011
219	0xbd85d7c2	-0.06535293
220	0x3aaa12f8	0.0012975624
221	0xb71e7fe8	-9.447314e-06
222	0xbb2b01ee	-0.002609368
223	0xba98eb07	-0.0011666723
224	0xbaf63eee	-0.0018787065
225	0xbd976d4e	-0.07393895
226	0xbcd8c7f5	-0.026462534
227	0xbd883099	-0.06649894
228	0x9149bb18	-1.5913757e-28
229	0xbd0c78bc	-0.03429483
230	0xbb927bce	-0.004470325
231	0xbd247846	-0.040153764
232	0x10847023	5.2237594e-29
233	0x356a7c1b	8.735239e-07
234	0xbd4dc550	-0.050237
235	0xbcc2e3d5	-0.02379028
236	0x3a57ade7	0.00082275126
237	0x353ae224	6.961948e-07
238	0xbd43b51c	-0.04778014
239	0xbd6d413e	-0.057923548
240	0x3aa66a75	0.0012696522
241	0xbb65be87	-0.003505619
242	0xbbdcdba1	-0.006740049
243	0x10efd3e0	9.4595323e-29
244	0xbd49ee21	-0.049299363
245	0xbc7b33fd	-0.015332219
246	0xbd85d9a2	-0.06535651
247	0xbd20b9f3	-0.039239835
248	0xba2816d3	-0.00064120925
249	0xb959843c	-0.00020743994
250	0xbd5c1165	-0.053727526
251	0xbb009f3c	-0.001962616
252	0xbd7c0840	-0.061531305
253	0x0ede34c5	5.477804e-30
254	0x0f32ae1a	8.809608e-30
255	0x8fb5f6b2	-1.7943002e-29

fc2.bias f4 [30]
0	0xbda3274c	-0.0796648
1	0x3d037e8d	0.03210311
2	0xbda50d57	-0.08059185
3	0xbc963f01	-0.01834059
4	0xb3d28333	-9.802752e-08
5	0xbdea0ed9	-0.11428613
6	0x3d6b72ff	0.057482716
7	0xbcc10ffd	-0.023567194
8	0xbab02e1c	-0.0013441476
9	0x3cd88fa5	0.026435683
10	0x3d932b3d	0.071859814
11	0x3be2a50d	0.0069166482
12	0x3cefab78	0.029256567
13	0xba153a97	-0.00056926295
14	0xbc877d0a	-0.016539115
15	0xbc3a2d6c	-0.0113633685
16	0xbd0250f5	-0.031815488
17	0x3da7107a	0.081574395
18	0x3a37f193	0.00070168934
19	0x3d625bd0	0.05526334
20	0x3d1d7b4a	0.038447656
21	0x3cd951ee	0.026528325
22	0x3dce62ce	0.10077439
23	0x3ce84dd3	0.028357422
24	0xbc8d7bb9	-0.01727091
25	0x3deb5478	0.114907205
26	0x3d367cbd	0.044552553
27	0x3d274278	0.040834874
28	0xbcde77d2	-0.027156744
29	0x3d144da8	0.03620687

fc3.weight f4 [10, 30]
0	0x3c1b9a66	0.009497261
1	0xbe15a480	-0.14613533
2	0x913e7cf4	-1.5026861e-28
3	0x0d8e093e	8.753651e-31
4	0x91604644	-1.7692137e-28
5	0xbd5a4c82	-0.05329562
6	0x3de402d8	0.11133355
7	0x3d82131d	0.06351302
8	0x8f10aa98	-7.132603e-30
9	0xbd9dda78	-0.07707685
10	0x3df115cd	0.11771736
11	0x3d9043a6	0.07044153
12	0xbd96a75a	-0.073561385
13	0x11410428	1.5226296e-28
14	0x3de96234	0.11395684
15	0x0f75bd6b	1.2115913e-29
16	0xbd9658b0	-0.073411345
17	0xbe187fe5	-0.14892538
18	0x10d13931	8.252408e-29
19	0x3d538795	0.051642973
20	0xbe273630	-0.16329265
21	0x3e13dc28	0.14439452
22	0xbe1a56de	-0.150722
23	0xbd36cab9	-0.044626925
24	0x902490c1	-3.245481e-29
25	0x3cf12c62	0.029440109
26	0x3de40726	0.11134176
27	0x3e1ab4ee	0.15108082
28	0x3864400d	5.4419088e-05
29	0xbe1b6f02	-0.15179065
30	0x91100dc2	-1.1363836e-28
31	0x12bf4e35	1.2073074e-27
32	0x10b936a2	7.305381e-29
33	0x1a00ee19	2.6662113e-23
34	0x11266b56	1.3128166e-28
35	0x908b6658	-5.498352e-29
36	0xa980e8dc	-5.7247365e-14
37	0x10114aee	2.8653932e-29
38	0x9b6e9b69	-1.9737114e-22
39	0x9262c001	-7.154969e-28
40	0x91d63623	-3.379661e-28
41	0x90b31f01	-7.065082e-29
42	0x9189ac0f	-2.1720828e-28
43	0x11dfb0f4	3.5292252e-28
44	0x10ac8f4c	6.806282e-29
45	0x0e9b4a2e	3.8281883e-30
46	0x10cd836e	8.106074e-29
47	0xb3f59f9f	-1.14377364e-07
48	0x117e32ec	2.0052759e-28
49	0x1117f833	1.1988282e-28
50	0xb551e091	-7.8185354e-07
51	0x11161ea2	1.1842353e-28
52	0xada906fa	-1.9216174e-11
53	0x10ed4247	9.3582134e-29
54	0x904930c5	-3.967783e-29
55	0xb37250f2	-5.6418635e-08
56	0x9229abca	-5.3538744e-28
57	0x9209899e	-4.3399204e-28
58	0x10764949	4.8571403e-29
59	0x90fbf038	-9.937216e-29
60	0x911ab4c3	-1.220416e-28
61	0x113377d3	1.4157534e-28
62	0x92c7dc26	-1.2612936e-27
63	0xae91a7f5	-6.623672e-11
64	0x1025d3ac	3.2703578e-29
65	0x8fd5d863	-2.108677e-29
66	0xb36acb98	-5.4667538e-08
67	0x120e77ed	4.495512e-28
68	0xb063e72a	-8.2910623e-10
69	0x9213a35f	-4.658639e-28
70	0x1210b0b9	4.5656216e-28
71	0x9161dc1c	-1.7817197e-28
72	0x1150c2d2	1.646834e-28
73	0x110f6fa4	1.1315113e-28
74	0x91549bdc	-1.6771879e-28
75	0x11cfdcc8	3.2794908e-28
76	0x11680d85	1.8305739e-28
77	0xb7456180	-1.1764816e-05
78	0x91883776	-2.1491197e-28
79	0x12403d71	6.066025e-28
80	0xb7b51315	-2.1585767e-05
81	0x8f67a14e	-1.14202455e-29
82	0xb49cabcf	-2.9182272e-07
83	0x9270fecb	-7.6044703e-28
84	0x90f81456	-9.7850085e-29
85	0xb71402ae	-8.822111e-06
86	0x1181005d	2.0352835e-28
87	0x12930491	9.27813e-28
88	0x92a3e1d6	-1.0342419e-27
89	0x91aa8487	-2.6902947e-28
90	0x3e02601b	0.12731974
91	0x3cbfb0ff	0.023399828
92	0xbd921e58	-0.07134694
93	0x3ddf3a90	0.10899842
94	0xb850d7e1	-4.9792117e-05
95	0x3e03faee	0.12888691
96	0x3d56c27a	0.05243156
97	0xbcbaa783	-0.022784954
98	0x3de4a6aa	0.11164601
99	0xbcc69def	-0.02424523
100	0xbcb7fc56	-0.02245919
101	0xbd9c8409	-0.07642371
102	0x3e1b1fba	0.15148821
103	0x9294facf	-9.401942e-28
104	0xbdaf760f	-0.0856744
105	0xbc97e67b	-0.018542519
106	0x3d1f92cf	0.038958367
107	0x3e36f5b3	0.17867164
108	0x91ea8be8	-3.7004914e-28
109	0x3d4be9cd	0.049783517
110	0x3d0cfd0b	0.034421008
111	0xbd63eb4f	-0.05564433
112	0x3e40dee8	0.18835032
113	0x3d332895	0.043739874
114	0xbcdc6060	-0.026901424
115	0xbbe252b6	-0.0069068326
116	0xbd23b729	-0.039969597
117	0x3c4cd2e4	0.012501452
118	0x9c88c7ef	-9.051407e-22
119	0x3d663961	0.056207065
120	0x914f4873	-1.6351746e-28
121	0x1170d73e	1.8998988e-28
122	0x106fe5b5	4.73114e-29
123	0xb66653d9	-3.4321477e-06
124	0x10ac71c2	6.801731e-29
125	0x917369d3	-1.920193e-28
126	0xbd1e6b9d	-0.038676847
127	0x8fbeaa73	-1.8801101e-29
128	0xbcb36311	-0.021897824
129	0x104ff1ac	4.100973e-29
130	0x9251adf8	-6.6163205e-28
131	0x1191d534	2.3008363e-28
132	0x8e98f467	-3.7706244e-30
133	0x0fb3235d	1.7664384e-29
134	0x11e5f941	3.6283444e-28
135	0x913152f9	-1.3988406e-28
136	0x91d13582	-3.3007363e-28
137	0xbd46d107	-0.048539188
138	0x90852b38	-5.252584e-29
139	0x119157a9	2.293099e-28
140	0xbd52f870	-0.05150646
141	0x12537664	6.672579e-28
142	0xbd2abcde	-0.041684024
143	0x10b2c059	7.050498e-29
144	0x92a77598	-1.0568171e-27
145	0xbd469845	-0.04848506
146	0x0f9f0c1b	1.5683273e-29
147	0x11b39dc5	2.8338453e-28
148	0x10dc37e8	8.6860837e-29
149	0x124894af	6.329214e-28
150	0xbc73310e	-0.0148432385
151	0x3db98b35	0.09059755
152	0xbd9266cf	-0.071485154
153	0x3e33701f	0.1752324
154	0xb8bdc96c	-9.04974e-05
155	0xbde794fb	-0.11307713
156	0xbdefc0fd	-0.117067315
157	0xbdc68e10	-0.09695065
158	0x3ce7de74	0.028304316
159	0xbd5b0995	-0.053475935
160	0xbc8b93e5	-0.017038295
161	0x3de843cd	0.11341057
162	0x3a950f0a	0.001137228
163	0x123458c2	5.690739e-28
164	0x3da99779	0.08280844
165	0x3cafaeb5	0.021445611
166	0x3e455ee2	0.19274476
167	0x3e280d08	0.16411221
168	0x91ce40a6	-3.2540912e-28
169	0x3d8b9335	0.06815187
170	0x3dfacf34	0.12246552
171	0xbc625432	-0.013814019
172	0x3d411aef	0.047144827
173	0xbd6e48da	-0.058174945
174	0xbce73f58	-0.028228447
175	0x3e3ffdb3	0.18749122
176	0xbd4ebac1	-0.05047107
177	0x3d8d7fc9	0.06909139
178	0x24b7d5a5	7.972553e-17
179	0x3e0fb8b0	0.14035296
180	0x3b94bdce	0.004539228
181	0xa8fbc8cf	-2.7953685e-14
182	0xbda59145	-0.080843486
183	0x3dd8b13b	0.10580679
184	0xbb478621	-0.0030444937
185	0x0f4d1b0c	1.01124894e-29
186	0x3e383ea5	0.17992647
187	0x10dfc1e8	8.825675e-29
188	0x3e1cba41	0.15305425
189	0xbad12ad8	-0.0015958203
190	0xa2398773	-2.5143881e-18
191	0x10d7646d	8.495728e-29
192	0xb4f7b325	-4.613768e-07
193	0x9173d263	-1.923415e-28
194	0x3d16f779	0.036857102
195	0x3cae5e8f	0.021285323
196	0xbdbbc277	-0.091679506
197	0x3d97ceac	0.074124664
198	0x1c08ebf9	4.5303613e-22
199	0x32d5873d	2.4857963e-08
200	0x3e537a2d	0.20652075
201	0xba05e1af	-0.0005107177
202	0x3cfd3b29	0.030911999
203	0x10295276	3.33929e-29
204	0xbcf70b72	-0.030156825
205	0x3e32c413	0.17457609
206	0x111df9f6	1.2462141e-28
207	0xbc925c5d	-0.017866308
208	0x91a2147e	-2.5571723e-28
209	0xbdd611e7	-0.10452633
210	0x3e0a90dc	0.13531822
211	0x3dbe66f4	0.092969805
212	0x12094355	4.331257e-28
213	0x90f75a93	-9.7563873e-29
214	0x90432619	-3.848632e-29
215	0x3d4eace8	0.050457865
216	0xbd8e29f0	-0.06941593
217	0x3dbcfd32	0.09227981
218	0x11475245	1.5723683e-28
219	0x3b88f5a9	0.0041796756
220	0x3e0cabbc	0.13737386
221	0x3d841a13	0.06450286
222	0x3dab03e2	0.0835035
223	0x8eb4b562	-4.454809e-30
224	0x3bb9677d	0.0056580887
225	0x92a5e6b2	-1.0469835e-27
226	0x3d4e41df	0.05035579
227	0xbddd7c37	-0.10814708
228	0x10266abd	3.2819956e-29
229	0x3de3c7c8	0.111220896
230	0xbe44e6eb	-0.19228713
231	0xbd528294	-0.05139406
232	0xbe01b91c	-0.1266827
233	0x3dbbd9fd	0.09172437
234	0x8f8c50b5	-1.3836153e-29
235	0xbe32712f	-0.17425989
236	0xbb5f9e00	-0.0034121275
237	0xbe14a146	-0.14514646
238	0xb9a88da8	-0.00032149
239	0x3d3476e4	0.044058695
240	0x91f8d96e	-3.9261502e-28
241	0x123453e2	5.690138e-28
242	0xbda2657a	-0.07929511
243	0x3dca3e13	0.09875121
244	0xbab4cbf7	-0.0013793696
245	0x90623120	-4.4608486e-29
246	0x3da0dd82	0.07854749
247	0x9190621c	-2.2779659e-28
248	0x3dc661b5	0.09686605
249	0x1242db51	6.1485935e-28
250	0x90acddf6	-6.818402e-29
251	0x0e6726b4	2.8491583e-30
252	0x92d3f811	-1.3377125e-27
253	0x918973bd	-2.1686118e-28
254	0x0e25167f	2.0348652e-30
255	0x3d75cf3e	0.060012095

fc3.bias f4 [10]
0	0x3c96e1f2	0.018418286
1	0xb47c38b6	-2.348996e-07
2	0xb6e375f6	-6.7788596e-06
3	0x3e13ffff	0.14453124
4	0xbd455518	-0.048176855
5	0x3d8968e0	0.067094564
6	0x3d280b07	0.04102614
7	0x3d85fac3	0.065419696
8	0x3d0b0fce	0.03395062
9	0x3d7f8794	0.062385157

fc_out.weight f4 [1, 10]
0	0xbe2123af	-0.15736268
1	0x96400ce6	-1.5513707e-25
2	0x153874ce	3.7250647e-26
3	0x3dce8ba0	0.10085225
4	0xbd73c2ba	-0.059511878
5	0x3de19eba	0.11016603
6	0x3e98b8bf	0.2982845
7	0xbe6bafbd	-0.23016258
8	0x3e4b4bb5	0.19853099
9	0xbced375c	-0.028957061
