code/REEM/model/best-model/New Orleans/model_best_rating.pth (torch, 393464 bytes, 7 tensors)

fc1.weight f4 [512, 45]
000000 55 eb 0d 3c 8b fa c8 3d e4 55 0f 3e aa cc e9 bd
       0.008662065 0.09813412 0.13997608 -0.1141599
000010 e0 dc cc bd db b3 3a bd 67 4a af bd 02 f5 0f 3d
       -0.10003066 -0.04558168 -0.08559113 0.035145767
000020 b8 7e ac bb 32 b4 96 3d 16 91 d5 bd bd 7f 93 3c
       -0.0052641295 0.07358588 -0.104280636 0.018005246
000030 02 99 c8 bd 65 ea 76 3d 10 8a 01 3e bc cc e9 bc
       -0.09794809 0.06028213 0.12650323 -0.028540008
000040 b6 3c 71 bd c5 4a f7 3d dd 66 9f 3d c7 db 03 3d
       -0.05889579 0.12074808 0.077832915 0.032192018
000050 2e 99 ed 3d 6f 4a f8 3d 75 dd 46 3d 6b 25 57 3d
       0.11601482 0.12123572 0.04855104 0.05252592
000060 23 22 a8 bd df 7e 86 39 2a 79 af bd 04 c2 b4 3d
       -0.08209636 0.00025652998 -0.08568032 0.08826068
000070 50 64 01 be 66 ca 03 be d4 aa 7a bd 36 41 04 be
       -0.12635922 -0.12870178 -0.06119807 -0.12915501
000080 b5 95 12 3e 16 ca 6d 3d 95 e8 65 3d 99 09 97 bc
       0.14314921 0.058054052 0.05613001 -0.018437194
000090 7b 57 97 3c 31 c8 bd bd dd 4e 32 bd 9f 55 93 3c
       0.018474331 -0.09266699 -0.04353224 0.017985163
0000a0 18 06 0b be be 23 76 bc 8d 44 54 bc 8a be 9b 3d
       -0.13576543 -0.01502317 -0.012955797 0.07604702
0000b0 e4 b7 15 3e de 07 94 3b 59 6a 55 bc 42 f9 10 3e
       0.1462093 0.0045175394 -0.013025844 0.14157584
0000c0 4d e4 9f bd 49 2e 46 3d de 8b 57 3d 58 8d b4 bd
       -0.07807217 0.048383985 0.052623622 -0.08816022
0000d0 cc d7 88 bd 3c 31 c5 3c 65 83 89 bd f6 38 24 3a
       -0.06681785 0.024071328 -0.06714515 0.00062645914
0000e0 7d f0 11 3e d5 1e 45 bc 4b d2 7b 3d 25 bc d0 3d
       0.14251895 -0.012031277 0.061479848 0.10192136
0000f0 74 9b c5 bd 0f d4 26 bb 61 32 82 3b 97 21 00 be
       -0.09648791 -0.0025455987 0.003973291 -0.12512814
000100 7a fa bf bd a8 56 f1 3d ab 64 05 be 49 64 a3 3d
       -0.093739465 0.117841065 -0.13026683 0.07978112
000110 c3 f6 bb bd ad 55 da bc 88 67 04 be 63 fc 23 3d
       -0.091779254 -0.026652182 -0.12930119 0.040035617
000120 25 71 cb 3d ac 8a aa bc aa db 75 bd 2f 42 c2 bd
       0.0993369 -0.020818077 -0.06002394 -0.0948528
000130 56 19 0b 3e 94 72 54 bd a6 08 b7 3d 59 1e 8a bd
       0.13583884 -0.051867083 0.089371964 -0.067440696
000140 ca 7d 72 3c af 58 45 3c d0 d9 b7 bb c6 0b fc bd
       0.014800498 0.01204507 -0.005610682 -0.12306933
000150 ed 53 67 3d c8 e4 8d 3d eb 9f 2a bd 00 ed 00 3e
       0.056476522 0.06928402 -0.041656416 0.12590408
000160 4c 91 a0 bb da 03 8a bd c9 d0 41 bd 37 b0 9a bc
       -0.0049001332 -0.06739016 -0.047318254 -0.018882854
000170 b8 13 13 3d ad e5 e2 bd a0 a2 a8 bd 98 db d4 bd
       0.035907477 -0.110789634 -0.08234143 -0.10393447
000180 39 49 c7 3b 21 1e f3 bc 93 e3 12 be f3 c6 ee 3c
       0.006081727 -0.029677453 -0.14344625 0.0291476
000190 ce 78 a6 bd 5a 49 33 3c f1 ea 81 bc 98 22 64 bd
       -0.081285104 0.010942781 -0.0158591 -0.055697054
0001a0 4a 78 d5 bd 9f 46 86 3d a2 cf 0c bd 16 90 d7 3d
       -0.10423334 0.06556439 -0.0343777 0.10525529
0001b0 6f 74 0e 3e d4 f7 c8 3c 07 2c 00 bd 38 dd a2 3c
       0.13911603 0.024532236 -0.031291988 0.019880876
0001c0 a2 77 07 3e 31 71 e2 bd 58 6a 9d 3d 2b ba fc bd
       0.1322923 -0.11056746 0.07686299 -0.12340196
0001d0 cf 3b f7 3d e1 6e b9 3d 09 eb 05 3e 5d c0 9e bc
       0.120719545 0.090543516 0.1307794 -0.019378835
0001e0 03 7f b0 3d 0c 0f f2 bd 83 13 f2 bd 81 3b e0 bd
       0.086179756 -0.11819276 -0.11820128 -0.109488495
0001f0 77 0a df 3d 73 fa 85 3d 40 2f 3b bd da aa cb 3d
       0.10890668 0.0654191 -0.045699358 0.09944697
000200 d1 e1 b2 bd 2d 8b 9c 3d 11 2b 96 3d bd 09 2c 3d
       -0.08734477 0.07643733 0.07332433 0.042001475
000210 c9 7c cc bd aa a9 00 3e 3b b0 b8 3d 26 d2 ff bc
       -0.099847384 0.12564722 0.09017988 -0.031228136
000220 cb ec 17 3e 38 06 b7 bd 0c d1 8b 3d b1 21 b5 3d
       0.14836423 -0.08936733 0.06826982 0.08844317
000230 84 40 3f bd b8 dd f1 bd 75 83 37 bd 0b 48 ef bd
       -0.046692386 -0.118098676 -0.0448031 -0.11683663
000240 dc bf d8 bd 1b 57 da bc 82 1d 3c bd e1 01 29 bd
       -0.10583469 -0.026652863 -0.04592658 -0.041261557
000250 5a 27 9b 3d b1 b7 fd 3d 86 93 d2 3b e6 c7 7d bc
       0.07575865 0.12388552 0.0064262776 -0.015489554
000260 e1 a9 28 3d 37 a1 97 bc 7f dd 65 3c 67 02 b1 3d
       0.041177634 -0.01850949 0.01402986 0.08643036
000270 d0 c5 69 bd 47 29 76 3d f0 f7 9c 3c c1 91 ac 3b
       -0.057073414 0.06009796 0.019161195 0.0052663987
000280 b9 3f f8 3d 8d 8d 29 bd 62 bf b7 bd dc ae d7 bd
       0.12121529 -0.04139476 -0.0897205 -0.10531399
000290 f6 e5 03 3d 8a 44 c5 3c 11 a3 a2 bd 71 f4 58 bd
       0.03220173 0.024080534 -0.07941259 -0.052967492
0002a0 43 93 ec bd 00 cb b6 3b 56 41 01 bd 02 8c 7e bd
       -0.115515254 0.0055783987 -0.03155645 -0.06214524
0002b0 15 1c d7 3d 67 fa 31 3d 67 48 f1 bd 38 e6 db 3d
       0.10503403 0.043451693 -0.11781388 0.1073727
0002c0 ca 90 07 3e 6a f5 99 bd 48 e5 f3 3d de 8b 04 bd
       0.13238826 -0.07517512 0.11908966 -0.03235995
0002d0 ba 31 06 3e 1d 91 e9 3d 3d e6 83 3d c7 ba 00 3e
       0.13104907 0.11404631 0.06440399 0.1257125
0002e0 dc f9 a5 3d 6a fc c4 bc 9b a9 a4 3d ce 80 06 3e
       0.081042975 -0.024046142 0.08040162 0.13135073
0002f0 da 51 9e 3d 5b c2 bb bb 4c eb c0 bd 14 f5 b3 3d
       0.07730456 -0.005729956 -0.09419879 0.08786979
000300 dd c1 d8 bc f5 ca f8 bd 53 29 d3 3d 3f 30 60 bd
       -0.026459629 -0.12148086 0.10310616 -0.05473351
000310 78 33 d2 3d 85 78 e0 bc 80 d0 3c bd 7a a1 f1 3d
       0.10263723 -0.027401218 -0.04609728 0.11798377
000320 3f 10 e7 bd 54 5f 55 bd 6d 66 0d 3e 99 ba e9 bd
       -0.112823956 -0.052092865 0.13808604 -0.11412544
000330 ee 76 5f bd 3a 97 bb bd bc 07 d2 3d 8f b6 5f bd
       -0.05455678 -0.091597036 0.102553815 -0.05461746
000340 5b 1a 95 bd a2 61 a4 bd 32 3a 98 bc a5 42 21 bc
       -0.072804175 -0.080264345 -0.018582437 -0.009842549
000350 91 3e 5e bd cc d4 17 be f4 42 cf 3c 97 a2 b6 bd
       -0.054258887 -0.1482727 0.02530048 -0.0891773
000360 3c c7 d9 3d e2 45 cd bc 51 e7 c3 3d 24 05 95 bb
       0.10633704 -0.025057737 0.095656045 -0.004547732
000370 4c e0 89 bd a6 8e d6 3d 19 e6 02 be 87 5a f6 bd
       -0.06732234 0.10476427 -0.12783088 -0.120289855
000380 12 c6 a4 3c b3 17 b8 b9 e2 6c a7 3d ce eb de 3d
       0.020113979 -0.00035112872 0.081750646 0.1088482
000390 32 9b 96 bd 3e de d3 3c af 0b e0 bd 99 f0 03 3e
       -0.0735382 0.02586281 -0.109397285 0.1288475
0003a0 60 c2 64 3d 3a a2 0f be 5b c5 c2 3d 65 41 2f bd
       0.055849433 -0.14026728 0.09510299 -0.042786974
0003b0 36 a3 85 bd 8b 7e 02 bc f2 82 ae 3b 76 d0 98 bd
       -0.06525271 -0.0079647405 0.0053256685 -0.07461636
0003c0 70 76 b8 3c 96 16 7a bd 80 38 05 3e d0 6f 84 bd
       0.022517413 -0.061056696 0.13009834 -0.06466639
0003d0 76 4e d3 3c 45 5f f1 3d 7b fd c6 3d f8 4b 03 be
       0.025794249 0.11785749 0.09716316 -0.12821949
0003e0 fb fe 04 3e 44 76 fc bb 63 b0 e4 bd 92 67 16 be
       0.12987892 -0.007704528 -0.111664556 -0.14687946
0003f0 2a df b5 3d 10 57 a6 bd 66 28 c7 3d 79 c7 f8 3d
       0.08880456 -0.081220746 0.09724502 0.121474214

fc1.bias f4 [512]
000000 12 1f bc 3d 6f fd 2b bc e9 d0 85 bd a8 2f 51 3d
       0.09185614 -0.010497435 -0.06533987 0.05107084
000010 e5 f9 c0 3b cc 66 c5 3d a7 39 87 bd c1 21 8c 3d
       0.0058891647 0.096387476 -0.06602793 0.068423755
000020 a8 51 9e bd 43 b2 34 3c 29 f9 00 3c ae c1 ea 3c
       -0.077304184 0.011028829 0.007871904 0.028656807
000030 f7 c1 98 bd 9b da 07 3d 8e 3f aa 3d 6b 7b 9e 3d
       -0.07458871 0.033167463 0.08312903 0.07738384
000040 e4 6b 54 3d b4 87 bf bd ed 3f fe 3d cc 6b b5 bd
       0.051860705 -0.09352055 0.124145366 -0.08858451
000050 0b 83 f3 bd 25 2b e0 3d 4e cc 08 3e a2 da 9d 3d
       -0.11890229 0.10945729 0.13359186 0.077077165
000060 71 c7 90 3d 88 d7 99 bd 17 a4 ed bd 18 00 83 bc
       0.070692904 -0.075118124 -0.11603563 -0.015991256
000070 79 18 fc bd ca c3 1c 3d 95 1d 84 bd 8a a9 dd 3d
       -0.12309355 0.038272657 -0.06450955 0.10823353
000080 7f 1f 17 3e 28 38 63 3c 6d 0b 48 b8 46 da 16 bb
       0.14758109 0.013868369 -4.7694357e-05 -0.0023018285
000090 8b d9 ae 3d d3 7f 0f be e1 d7 e0 3d d9 5c c0 bc
       0.08537587 -0.14013605 0.10978676 -0.023481773
0000a0 c9 59 3d bc 0c ae 2c b9 e4 3b e4 bd 89 8a d9 bd
       -0.011557051 -0.00016468036 -0.11144236 -0.106221266
0000b0 ce 47 55 bd 26 f6 81 bd 7c a9 a3 3d fa 8d fb 3c
       -0.05207043 -0.06345777 0.07991311 0.030707348
0000c0 15 af ec 3d 5f 63 f0 bd ba 44 02 3d a7 cc eb bd
       0.11556832 -0.117377035 0.031803824 -0.11513644
0000d0 74 be 89 3d 5d f6 c9 3d 13 04 0e be 7b 18 9b bd
       0.06725779 0.09861443 -0.13868742 -0.07573029
0000e0 e9 df af bd f1 b7 bb bd 5f d4 e0 bd 95 ac 48 bd
       -0.08587629 -0.091659434 -0.109780066 -0.048992712
0000f0 c3 c6 16 3e e4 5a 96 3d 4d be ec bd 17 c9 04 be
       0.14724259 0.07341555 -0.115597345 -0.12967335
000100 17 17 07 be 86 95 07 3c e1 1f 89 bd fa 90 51 3d
       -0.13192402 0.008275395 -0.066955335 0.05116365
000110 fc 9a bd bd 29 f8 7b 3d 4a 9a 0d bd e3 b9 be bd
       -0.092580765 0.06151596 -0.03457097 -0.09312799
000120 5a 0c 10 bc 5e a7 88 3d 62 76 10 be fc b2 da bd
       -0.008792007 0.06672548 -0.1410766 -0.1067867
000130 3f f4 b0 bd 40 87 8d bd 5e bf 32 3d bb d3 8f 3c
       -0.08640336 -0.069105625 0.043639533 0.017557016
000140 cc 27 38 bd 8e de 3d bb 3b 16 12 3e 18 2e 14 bd
       -0.04495983 -0.0028971764 0.14266293 -0.03617677
000150 03 ee bf bc 2e 39 d1 bc 22 33 e2 bd 01 be a3 bd
       -0.023428923 -0.02553996 -0.11044909 -0.07995225
000160 78 a9 a7 bd 10 82 27 bd 86 f7 d1 bd 4a ed fc 3d
       -0.081866205 -0.04089552 -0.102522895 0.12349947
000170 39 e0 b5 bd 42 81 3e 3d d9 0e 16 3e e8 66 16 3e
       -0.08880658 0.04650999 0.14654101 0.14687693
000180 63 ed 12 be 86 c9 93 bd 10 2b 1d bd 15 53 db 3d
       -0.14348368 -0.07216172 -0.038371146 0.10709206
000190 3c 76 4c 3d 19 9b ed 3d be cc d3 3d 2a 20 79 bd
       0.049917445 0.11601848 0.10341786 -0.06082169
0001a0 82 31 b5 3d 7c 39 91 3d 36 93 c6 3b 05 45 f8 3d
       0.088473335 0.070910424 0.0060600294 0.121225394
0001b0 48 4e 4f 3d d7 50 d8 3c b8 f9 72 bd ef fb 03 be
       0.050611764 0.026405735 -0.05932018 -0.12889074
0001c0 cb 40 a7 3d 47 73 5a 3c 40 94 71 bd 3d 3e b0 3d
       0.08166655 0.013333148 -0.058979273 0.08605621
0001d0 98 5b 21 3d e3 c2 cb 3d 14 11 0e 3d 63 a5 84 3d
       0.03939399 0.09949281 0.034684256 0.064768575
0001e0 e8 89 cf 3d 0e 8e f4 3d 5c 5e 14 3e 9f e0 1f bc
       0.101337254 0.11941157 0.1448912 -0.009758144
0001f0 13 bb df 3c 6f 24 9d bd f8 3f 84 3b 42 ed 34 3d
       0.027310884 -0.07672965 0.004035946 0.04417158
000200 e8 73 44 3d a8 ad a5 3c 9c d1 45 bd 33 30 05 be
       0.0479621 0.020224407 -0.048295602 -0.13006668
000210 92 2a 4f 3d 18 e8 a0 3d ee 17 e1 3c 0f 3d 07 be
       0.050577708 0.07856768 0.02747723 -0.13206886
000220 f7 5d 4c bd 09 a2 b5 3d 79 f0 06 be 27 0b 22 3b
       -0.0498943 0.088687964 -0.1317767 0.0024725886
000230 5f 07 04 3d 8b 91 e4 bd 93 58 89 3d 71 f4 93 3b
       0.032233592 -0.111605726 0.06706347 0.0045152237
000240 cc 44 42 bd a3 96 b6 3c 97 37 01 be c9 4a f2 bd
       -0.04742889 0.022288626 -0.12618862 -0.118306704
000250 c4 95 13 3e ee 0b 8a 3d 12 e9 55 bd f1 f1 e2 bd
       0.144126 0.06740557 -0.052224226 -0.11081303
000260 30 eb bd 3d 65 60 f3 3c f8 f1 9c bd 6c f3 bb bd
       0.09273374 0.02970905 -0.076633394 -0.091772884
000270 cf bd 90 3a 07 c2 3c bd 2d c3 b8 3d e0 6e eb bd
       0.0011042895 -0.046083476 0.09021602 -0.11495757
000280 5a 05 98 3d 0a 20 ed 3d c6 ff dc bb 09 09 42 bd
       0.07422896 0.115783766 -0.0067443578 -0.047371898
000290 69 94 02 be 8b 18 bb 3d ad 35 95 bd 94 43 9e bd
       -0.12751926 0.091355406 -0.072856285 -0.07727733
0002a0 3a ff 16 3d d8 89 b8 bb 3c 52 de 3d 57 38 f0 3d
       0.036864497 -0.0056316666 0.10855529 0.11729496
0002b0 30 5a e5 3d 54 b5 b4 3b 2f 90 3a bb 43 f2 d9 bd
       0.111988425 0.00551478 -0.0028467288 -0.10641911
0002c0 22 90 a4 bd 38 34 17 3b b4 b6 0f 3e 0e 34 07 3d
       -0.08035304 0.0023071896 0.1403454 0.033008628
0002d0 d9 5d 29 bd eb ab d9 bc 0e ec bf bd a0 e9 dc 3b
       -0.041349266 -0.026571235 -0.09371196 0.0067417175
0002e0 42 f9 e0 3d fc f7 da bd d6 07 e1 bc d8 fd 96 bd
       0.10985042 -0.106918305 -0.027469557 -0.073726356
0002f0 97 4c 04 be bd c0 93 3c 97 b3 b1 3d 5c bb e1 3d
       -0.12919842 0.01803624 0.08676832 0.11022064
000300 9b 00 db 3c 7e 6d 91 3c b7 e6 a4 3d 84 8f b1 3d
       0.026733687 0.017752405 0.08051818 0.086699516
000310 9d a2 08 3c 7b 95 09 3e 58 32 d7 bc 1f 05 60 bb
       0.008339551 0.13435929 -0.026269123 -0.003418274
000320 b9 19 d5 bd 8b be 0f be 4b 07 97 3c 0d 36 e8 3d
       -0.10405297 -0.1403753 0.018436095 0.11338434
000330 3a b0 f2 bc 06 65 c5 bd 78 df 0c be db 93 f0 3c
       -0.029625047 -0.09638409 -0.13757122 0.029367378
000340 ac af 51 bd d4 7e b4 3d 66 7d db bd 04 6b 59 3d
       -0.051192924 0.08813253 -0.10717277 0.053080574
000350 f1 1e a5 bd e5 44 07 be a8 a5 0c 3d 7a 2b a7 3c
       -0.08062542 -0.13209875 0.03433767 0.020406473
000360 b8 45 19 3e ec 97 17 3e a9 ef 85 3d 6a e4 05 3e
       0.14968002 0.14804047 0.06539852 0.13075414
000370 7b 95 01 be 90 16 b4 3d 18 98 c1 3d a8 91 6e bd
       -0.12654679 0.08793366 0.09452838 -0.058244377
000380 7c 6e 1c bc 9d 57 b7 bd 05 d3 0e be 43 b1 16 be
       -0.009547826 -0.08952258 -0.13947685 -0.14716057
000390 4e bc a6 bd b8 1d a9 bd e0 0b 29 bd 80 10 0f 3e
       -0.08141385 -0.082576215 -0.04127109 0.13971138
0003a0 c8 f3 b5 bc a3 f7 d0 3d 33 c5 59 bd 04 90 2e bd
       -0.02221097 0.10203483 -0.05316658 -0.042617813
0003b0 e5 e4 cd bd c2 18 08 3e fe ef 1a 3d 1a e0 99 bd
       -0.10053424 0.13290694 0.03782653 -0.07513447
0003c0 94 48 66 3d d3 6b aa 3d ba 8f a4 3d d5 d7 fb 3d
       0.05622156 0.08321347 0.08035226 0.12297026
0003d0 78 35 b8 ba 37 d7 27 bd c0 ef 1d 3d 25 f5 b3 3d
       -0.0014054021 -0.04097673 0.03855872 0.08786992
0003e0 43 07 67 3d fd 4e b3 3d 2f 4e ca bc 8d 70 bf bc
       0.05640341 0.087553 -0.024695484 -0.023369098
0003f0 ed 21 1e ac b0 41 13 3e 63 ff 97 bd 3e b6 ad 3b
       -2.2471983e-12 0.14380527 -0.07421758 0.005301266

fc2.weight f4 [128, 512]
000000 08 92 bd bc 6d 8c 00 3c 30 c0 14 3c 99 e0 ec bc
       -0.023140922 0.00784598 0.009079024 -0.02891569
000010 5b 81 e3 bb f0 c0 aa bc ae 1e 17 3c 4c e9 70 3b
       -0.0069429106 -0.020843953 0.009223623 0.003676015
000020 d8 34 63 bc b4 f8 01 3a 05 ed 8d bc df e6 a3 39
       -0.013867579 0.0004958019 -0.017324934 0.00031261795
000030 c9 08 cd 3c 6e 49 a4 bb 4e af 29 3c 87 df 61 39
       0.025028603 -0.0050136363 0.010356737 0.00021540943
000040 06 53 0d bd b3 db e2 bc 54 d8 5d b5 fa c0 c4 bb
       -0.034503005 -0.027692651 -8.2643714e-07 -0.00600445
000050 d5 1e 6a bc 6c eb b1 3b 7b cb 0c bd cf 21 11 bb
       -0.0142895775 0.005429676 -0.03437374 -0.0022145396
000060 cc e0 70 3c 52 6c 4d bc 03 92 77 3c 88 22 5f 3b
       0.014702033 -0.012538033 0.0151104955 0.0034047682
000070 83 17 1c ba 9f 08 e1 bb 45 6f 24 bb 53 1b 7a 3b
       -0.0005954431 -0.006867483 -0.0025090736 0.003816326
000080 e7 f0 05 bb 0f ea cd 3c 1b ef be bc 1f d8 b1 bb
       -0.0020437778 0.025136022 -0.023307374 -0.005427375
000090 4b 61 84 bc cc d4 a9 bc b6 ba 8d 3c cb 8c ac 3b
       -0.016159674 -0.020731352 0.017300945 0.0052658073
0000a0 57 a3 12 b7 aa d2 e2 3c 97 ec 23 3c 14 e2 85 bc
       -8.740309e-06 0.027688343 0.010005138 -0.016343154
0000b0 fa c4 88 3c 5a 42 5d bb 6e 40 f7 3c f5 96 1d 3a
       0.016695488 -0.0033761472 0.03018209 0.0006011569
0000c0 40 19 22 3c b2 ea e5 bc 14 26 a4 3c 6d 14 01 bd
       0.009893715 -0.028066013 0.020037688 -0.03151362
0000d0 89 ac 02 3d f2 f9 37 3a 62 d5 60 3b bc 5e 88 bc
       0.031902824 0.0007018141 0.0034306874 -0.016646735
0000e0 58 69 d6 3b a4 69 8b 3b e0 e2 09 3d a2 4d 82 3c
       0.0065433197 0.0042545367 0.03366363 0.015906159
0000f0 83 db 4c 3c 4b 65 d4 3c 44 ef e9 bc 79 72 47 3b
       0.012503508 0.025927207 -0.028556474 0.0030433221
000100 84 33 f1 bb 2d 94 f3 bc 42 54 5e 3b 22 90 d6 3b
       -0.0073608775 -0.029733742 0.0033924733 0.0065479437
000110 b5 6b be bc b6 78 82 bc 7b e5 dd bb 68 76 15 3c
       -0.023244718 -0.0159267 -0.006771741 0.0091224685
000120 32 ca b3 bc 08 88 2f 3c 84 a3 5c 3b f8 77 89 bb
       -0.021947 0.010713585 0.00336668 -0.0041952096
000130 38 dd f0 bc 22 22 4a bc 35 87 a3 3c 70 14 df a4
       -0.02940236 -0.012337239 0.019961933 -9.6745456e-17
000140 da c9 7e 3a 04 11 5a 3b 23 3b d7 3c d6 bf e5 3a
       0.0009719409 0.0033274302 0.026273316 0.0017528485
000150 9e 0f b9 bc c2 af fc bc 0b 64 b0 3c 8f be f7 3c
       -0.022590455 -0.030845527 0.02153208 0.030242233
000160 4c fa 5c b4 aa 34 cb 3c e1 df 05 3d 7a 5e 10 b9
       -2.0580154e-07 0.024805386 0.03268421 -0.00013768105
000170 39 e2 f9 bc 90 cc 0c 3d 8d cc ff bc be d1 cf bc
       -0.03050338 0.034374774 -0.031225467 -0.025368568
000180 e6 3b 0f bd 31 3b e2 3c 32 11 b1 bc b0 9e 18 2d
       -0.034969233 0.027616115 -0.021614645 8.675435e-12
000190 2a 88 aa 36 9d a0 7d bb c1 17 0e 3d 18 37 9b bc
       5.0822464e-06 -0.003870047 0.034690622 -0.01894717
0001a0 e5 ae 13 bc 6d a4 ef 3a a1 cb 82 bc 5a dd d1 bc
       -0.009013866 0.0018283256 -0.015966238 -0.025618244
0001b0 6d 82 8f 3c 00 5a b0 3c b6 a7 06 bd fd 09 7c b7
       0.017518247 0.02152729 -0.032874785 -1.5022696e-05
0001c0 87 42 fe b9 28 f1 28 3c 8a 2f d3 39 4b dc 93 bc
       -0.00048496222 0.010311402 0.00040280476 -0.01804938
0001d0 fb 92 47 bc 8a d6 d6 3c 56 d1 58 bb 2a e6 aa 3b
       -0.012181039 0.026225347 -0.0033083758 0.005215426
0001e0 72 29 b0 ac 1c 97 45 bc 40 9a 72 3c ec e7 f9 3c
       -5.006822e-12 -0.012059953 0.014807284 0.030506097
0001f0 40 01 0e 3d 41 99 00 bd a5 69 bc bc d5 77 fa bb
       0.03466916 -0.031396154 -0.022999594 -0.0076436796
000200 79 c6 be bc 16 78 ef ba 3e 1a 0a 3d ff 67 ca bc
       -0.023287999 -0.0018270041 0.033716433 -0.024707792
000210 13 cd 87 bb ee 3d 08 3c cb bb cb bc 43 2e 60 bc
       -0.00414432 0.008315546 -0.02486982 -0.013682905
000220 e7 82 81 39 25 03 c8 bc 60 a2 51 bc 6b 34 7e 3c
       0.00024702327 -0.024415562 -0.012795061 0.015515427
000230 ea 32 97 37 16 6b ea a8 e6 64 e2 3c e1 93 d9 3c
       1.8024311e-05 -2.602566e-14 0.027636003 0.026559772
000240 ae d9 14 3c 60 cc 2a 3b 56 50 d8 3c ba 5d 05 35
       0.009085102 0.0026061758 0.026405495 4.968275e-07
000250 7d bc 52 3c b4 3a aa 3c b9 64 35 3c cc 39 50 bc
       0.012862322 0.020779945 0.011071377 -0.012709092
000260 9b 1a 05 bd 66 77 e1 3c 91 1b 60 bc 7b 24 a8 bc
       -0.032496076 0.027522754 -0.013678447 -0.020525208
000270 fb 30 04 3d db d6 f1 bb 66 06 27 bb a4 20 cd bc
       0.032273274 -0.007380349 -0.0025485992 -0.025039978
000280 78 7b 9c bb 00 2a aa bc 58 6c c1 3c 20 a9 5d 3c
       -0.004775461 -0.02077198 0.023611233 0.013529092
000290 0a 52 ee bb 59 0a 28 b3 58 39 c7 bb 2a 6c e1 3b
       -0.0072729634 -3.912496e-08 -0.006079834 0.0068793492
0002a0 a9 7a c6 bc 98 78 9b 3b 7f 90 e6 bc 46 7b c6 bc
       -0.02422841 0.0047446005 -0.028145073 -0.024228703
0002b0 47 eb 02 bd b0 1d 6e bb 07 c5 4c 3b 4e 7b 22 3c
       -0.03196266 -0.0036333613 0.0031245367 0.009917093
0002c0 6a aa 05 3d 77 2a 63 34 67 a6 48 3b 2a 07 af 3b
       0.032633223 2.1156471e-07 0.0030616762 0.00534143
0002d0 2e 7d 15 3c fe e5 b9 bc ff 9b 87 bc 17 00 f9 36
       0.009124083 -0.022692677 -0.016553877 7.4207887e-06
0002e0 d3 03 f6 bc c7 86 2d 3b fa 4e f1 bc b8 62 39 b2
       -0.03003112 0.0026478039 -0.029456604 -1.0790863e-08
0002f0 44 4a 7b 3c 19 9b 0d 3d 21 2b e2 3b f5 84 bc bc
       0.0153375305 0.03457174 0.006902114 -0.023012618
000300 93 65 ff 3a 19 77 e6 3c 44 a8 f9 3b 3b 07 32 bb
       0.0019485228 0.028132962 0.007618936 -0.0027164954
000310 ac 27 20 3b ec d0 04 bd 55 14 18 3c 7f 24 dc bc
       0.0024437709 -0.032425806 0.009282191 -0.026872871
000320 ef 70 9b 3c cb 61 d9 3c b3 8f cd 3c 33 9a 03 3b
       0.01897475 0.02653589 0.025092935 0.0020080924
000330 e2 d4 c0 3c eb fa f8 bc 16 f4 84 3c d1 cc c9 bc
       0.02353901 -0.030393085 0.01622967 -0.024633797
000340 ab 31 6d 3c 0e f7 ba bc f2 f2 f3 bb f1 49 19 3c
       0.014477174 -0.022822883 -0.007444733 0.009356008
000350 0d 07 0e 3c 37 8c e8 3c 73 4a 1e bc 9a c9 e9 ba
       0.008668673 0.028387172 -0.009661305 -0.0017836571
000360 25 39 a9 bc 9b ec 2d 3c fd fb 10 3d 93 4c 63 3c
       -0.020657131 0.010615493 0.035396565 0.013873237
000370 06 97 82 ba 1c 1c af bc 5b 27 0d 3b 0a 1d 58 bc
       -0.0009963221 -0.021375708 0.002153835 -0.013190517
000380 19 06 dc b6 fe af 22 34 83 50 c6 bb 34 4e f0 3c
       -6.557221e-06 1.5151451e-07 -0.006052078 0.029334165
000390 16 d6 c0 bc 37 a7 e0 bc 95 f5 8d bc 9c 1f 23 3b
       -0.023539584 -0.027423484 -0.017329017 0.0024890667
0003a0 b1 04 b8 bc f0 95 03 3d 08 ee f3 3c 39 fd 8f 3c
       -0.022463175 0.032125413 0.029776588 0.0175768
0003b0 6d 12 d6 2e 7a 3d e4 bc 59 c3 dc bb f0 b5 f7 bc
       9.7348664e-11 -0.027861346 -0.0067371544 -0.030238122
0003c0 a3 6c 37 3a 2f 91 06 bd ac 70 e8 3c e4 37 90 bb
       0.0006997084 -0.0328533 0.028374039 -0.004401194
0003d0 06 c8 25 3c f5 78 bf 3c a5 b0 c4 bc 89 3a 0e bc
       0.01011849 0.023373106 -0.024010012 -0.008680948
0003e0 0c cd 93 bb 74 73 0f ba f5 67 b1 3c bc f4 89 bc
       -0.0045105275 -0.0005472221 0.021656016 -0.016840331
0003f0 e7 58 d0 b2 50 f1 ca bc 8c 8c b2 3c 6e b8 d1 3b
       -2.4254815e-08 -0.02477327 0.021795534 0.0064001596

fc2.bias f4 [128]
000000 41 3c b7 38 62 66 0c 3d 48 f7 8f 3c f6 c8 85 bc
       8.737343e-05 0.034277327 0.017573968 -0.016331177
000010 c8 02 75 bc 8b a8 fe 3c 9c 55 06 bc f3 18 c8 bc
       -0.014954276 0.031086227 -0.008199122 -0.02442596
000020 1d 13 a4 bc d9 23 a4 bc 29 e2 9a bc 80 18 88 bc
       -0.020028645 -0.020036625 -0.01890667 -0.016613245
000030 7c 9a f7 3c 88 b6 1c bc 1a c9 e5 3c c6 ae 6d 3c
       0.030225031 -0.009565003 0.028049994 0.014507001
000040 14 54 1a 3a fa a3 c3 3c a0 a9 3e 3c 7b e7 29 bd
       0.00058871624 0.023881901 0.011637121 -0.041480523
000050 d3 67 b0 bc 42 17 d5 bc b1 38 77 bb 79 f6 35 3d
       -0.021533882 -0.026012067 -0.0037723 0.044424508
000060 91 bd 10 bd 55 a7 ff 3b 1d e9 1a bd 26 48 74 3c
       -0.035337035 0.00780193 -0.03781997 0.01490978
000070 82 3c 41 3c ac e7 f1 3c 9c 8c f9 ba 35 fb 05 b9
       0.011794211 0.029529415 -0.0019039097 -0.0001277745
000080 41 d3 96 bc b3 a1 1a bd cb 4f ba bc 97 d9 09 3c
       -0.01841128 -0.037751865 -0.022743126 0.008413694
000090 09 18 0e bd 2d 81 62 3c 78 bd 39 bc d8 15 52 bc
       -0.03469089 0.013824743 -0.011336677 -0.012822591
0000a0 51 e6 0d bd e5 01 31 3d c6 cb 97 bc c1 ee 92 3c
       -0.034643475 0.043214697 -0.018529784 0.017936112
0000b0 00 19 ff bc 74 63 b6 bc 0e a9 bb 3c 09 5c c1 3b
       -0.03113985 -0.02226422 0.02290776 0.005900864
0000c0 4a 6f ab 3c 20 2e cd bc 89 0d a1 bc 66 f8 2a 39
       0.02092709 -0.025046408 -0.019659774 0.00016304999
0000d0 fc 72 f1 3c 8a 0d e1 96 df 7f a7 3a 38 6e 5c 3c
       0.029473774 -3.6359255e-25 0.0012779197 0.013454013
0000e0 bc 6b 0d bc 3a 94 12 bd 6c e4 04 bc c2 7b bc 3c
       -0.008631643 -0.03578589 -0.008111101 0.023008231
0000f0 7b 58 6f 3c aa af ea 3c ee 77 0a bd 86 52 0a 3c
       0.014608498 0.028648216 -0.03380578 0.008442527
000100 c9 06 6a 3b 77 f5 15 bd 7c 91 2a 3d b7 0b 09 bd
       0.003570961 -0.036611047 0.04164265 -0.033458438
000110 98 8e c6 3c c2 1b b3 3c 66 74 cb 3c 29 07 fa bc
       0.024237916 0.021863822 0.024835777 -0.030520992
000120 8c 2c 03 bd d0 77 f9 3c 9a 45 a2 3b ab 23 32 3d
       -0.032024905 0.030452639 0.004952145 0.043491047
000130 35 23 1d bd 6b 73 0a bd ff 98 5f ba 30 e2 b8 ba
       -0.038363654 -0.033801477 -0.0008529573 -0.0014105495
000140 8a 2b ee 34 df 7f c3 bc ce 76 be bc 35 21 b9 bc
       4.4362633e-07 -0.023864685 -0.02325001 -0.022598842
000150 c7 5c 28 bc 83 61 51 bc a7 37 ad 3c 31 63 1c 3d
       -0.010276026 -0.012779596 0.021144701 0.038180534
000160 40 83 ed 3c a6 fb 15 3d 06 f3 b9 3c d0 98 11 bd
       0.028993249 0.036616944 0.02269889 -0.035546124
000170 a8 85 2a bd b1 ac 63 3c 48 62 2f bc 8b 7a e4 bc
       -0.04163137 0.013896153 -0.010704584 -0.027890464
000180 aa 2d 1c bc 61 f9 f6 3c d5 b2 05 3b f9 24 71 3c
       -0.009532372 0.03014821 0.0020400782 0.014718288
000190 fd b0 a4 bc 35 94 f2 3c fc dc 28 3d 63 07 05 3d
       -0.020103926 0.029611686 0.041226372 0.032477748
0001a0 78 ed fd bc d6 d6 0e 3d 76 f9 ad 3b e0 3b 20 bb
       -0.030997023 0.034872852 0.005309279 -0.002444975
0001b0 95 c2 84 bc b7 80 fd 39 98 f2 fe 3c 15 e1 05 3c
       -0.016206065 0.0004835182 0.031121537 0.0081713395
0001c0 be 23 0c bd 82 ab 06 bd 0d 06 54 3c eb ee cb 3c
       -0.034213774 -0.032878406 0.012940896 0.024894198
0001d0 20 af 15 3b 29 c8 27 3d 3a 6e b4 bc 17 28 da 3c
       0.0022839978 0.040962372 -0.022025216 0.026630444
0001e0 39 74 c3 bc 77 9d a6 3b 8d 04 cf 3c 29 38 00 3d
       -0.02385913 0.0050846892 0.025270725 0.03130356
0001f0 83 9d d9 3a 77 85 9c 3c 1a 64 39 3c ce 47 47 bc
       0.0016602728 0.01910661 0.01131537 -0.012163116

fc3.weight f4 [64, 128]
000000 23 bd d3 bc f0 95 3d bd 8a b5 59 3d 28 7e 28 3d
       -0.025847023 -0.04628557 0.053151645 0.041135937
000010 86 50 c1 bc ea 38 09 bc 7a 68 8d 3b 8c 00 24 bc
       -0.023597967 -0.008375386 0.004315433 -0.010009896
000020 82 c7 83 3d 27 9f e4 b2 c2 ae 6b bd 82 65 27 bd
       0.064345375 -2.6615067e-08 -0.05753971 -0.04086829
000030 8e 5e 90 bc fb 4a 59 bd c1 be b2 3d 12 ba 7e bd
       -0.017623212 -0.053050023 0.0872779 -0.06218917
000040 d9 0a 8c 3d 4e ac 79 3c 86 ed 82 bd 01 8c 8e bc
       0.068380065 0.015238835 -0.0639296 -0.017400743
000050 a3 2c 6c 3d ed 11 bf 39 c8 f5 7b 3c 81 80 98 bd
       0.057659756 0.00036443715 0.015378423 -0.07446385
000060 66 72 a2 3c 3d f0 55 3c 23 9a 67 3d e8 fb 63 bc
       0.01982994 0.013057766 0.05654348 -0.01391504
000070 c0 98 94 3d 3e 80 7d bd a1 6b 88 bd 4e 43 44 bb
       0.07255697 -0.06188988 -0.066611536 -0.0029947343
000080 69 d5 c5 bb f6 57 84 3c 76 9d aa 3d 1e de 95 3d
       -0.0060374034 0.016155224 0.083308145 0.07317756
000090 e2 bb 72 bc f3 9d 36 bd 75 a4 4a 3c bf 2e 48 3d
       -0.014815303 -0.044584226 0.012368311 0.048872706
0000a0 b9 0d 72 3c d3 54 ec 3c c5 cc a1 bd 50 9c 95 3c
       0.01477378 0.028849041 -0.07900385 0.018263012
0000b0 40 7b a2 3d c0 67 b4 3b 36 8d 86 bd ea 74 9b 3d
       0.07933664 0.005505532 -0.065699026 0.07590659
0000c0 bd 5f 25 bd 22 f0 dd 3c c0 35 9b 3d 7d 31 d3 bc
       -0.040374506 0.027092043 0.075786114 -0.025780434
0000d0 2b 80 ab 3c aa 55 d5 3c fb a7 06 3d ad 83 4d 3a
       0.020935139 0.026041824 0.032875042 0.00078397506
0000e0 8c 60 84 bd 9c f4 94 3d 07 8c 8e bc 27 f5 8b bd
       -0.06463727 0.07273218 -0.017400755 -0.068338685
0000f0 30 a9 7b 3d b9 02 af bd 37 dc 15 3d b9 e6 5e bc
       0.061440647 -0.08545441 0.036586966 -0.013604813
000100 23 02 b4 bd c7 64 a5 bd 10 81 85 3d ee 63 9b b5
       -0.0878947 -0.080758624 0.06518757 -1.1577483e-06
000110 36 94 d7 bc ea 91 1d 3d fb 69 24 bd 4c 6f ae bb
       -0.02631579 0.038469233 -0.040140133 -0.005323326
000120 74 b8 2d 3c f4 0e 86 bd 60 21 58 bd a7 81 5b 3d
       0.010603059 -0.06545821 -0.052766204 0.053590443
000130 ed 67 95 3d 94 8f af bc 13 e3 20 37 13 33 36 3d
       0.07295213 -0.021430768 9.589613e-06 0.044482302
000140 7a 38 00 3c 1b 64 98 bd 12 df 96 bd 53 97 34 3d
       0.007825965 -0.074409686 -0.07366766 0.044089627
000150 d2 d1 f1 3c 5e 89 44 bc 26 4d 3a bc d6 46 3d bd
       0.029518995 -0.0119956415 -0.011370933 -0.046210133
000160 d2 e2 95 3d 96 bc 4d 3c b6 a6 1f 3c a9 f6 51 bd
       0.07318653 0.012557169 0.009744337 -0.051260624
000170 36 27 b0 3d d0 91 af 3c ef 19 14 3d ce 93 89 3d
       0.08601229 0.021431834 0.036157545 0.06717645
000180 0b 5a 6e bb 74 c5 39 3c 96 88 f5 3b a1 16 c4 bb
       -0.0036369588 0.01133858 0.007493089 -0.005984143
000190 8e d9 91 ba 05 a1 a8 bc fd 4b b2 bd 8b 8b 4b 3d
       -0.0011127458 -0.020584593 -0.087059 0.049693625
0001a0 86 86 d4 3c 7c 61 6a 3d 7f 79 64 bd 8b 52 1a 3c
       0.025943052 0.057221875 -0.05577993 0.009419094
0001b0 01 3e 92 bc 87 67 7b 3d d1 11 03 3d e3 6b 4e bd
       -0.017851831 0.06137803 0.031999413 -0.050395858
0001c0 dc 02 c6 3c 0a 35 80 3d 0d 57 8b bd 6f 9c 87 3c
       0.024171285 0.062601164 -0.06803713 0.016554086
0001d0 47 db 62 bd ae 78 66 3d cf 2a e8 bc 64 ea 8e 3c
       -0.0553849 0.056267433 -0.028340725 0.01744575
0001e0 5b 57 8a bd f7 f8 a8 3d 0f b7 16 bd 95 f9 c7 b5
       -0.06754943 0.08250611 -0.036795672 -1.4899293e-06
0001f0 e5 e5 91 bd 2a 1c a8 bc 0f d8 a5 bd 9f 14 89 3d
       -0.07123927 -0.020521242 -0.080978505 0.06693386
000200 7a f6 7a b2 3f 4c 60 3d 38 21 45 bd fe 8c 64 bd
       -1.46079575e-08 0.054760214 -0.048127383 -0.055798523
000210 ec 14 50 3d 2c 4d c9 3c 19 66 c7 3b c6 a9 59 3d
       0.050801203 0.024572931 0.006085169 0.053140424
000220 89 c4 2e bd 38 57 8d 3d 07 f1 8c 3d 82 55 c9 bb
       -0.0426679 0.06901401 0.0688191 -0.0061442265
000230 ed 8d 41 3a 87 0a 99 3d a0 22 0c 3d b9 ec d3 3c
       0.00073835143 0.07472711 0.03421271 0.025869714
000240 03 3a 30 3d ec e0 13 3c 9d 3b 09 3d 2d 48 82 3d
       0.043024074 0.0090257935 0.033504117 0.06361423
000250 fc 41 d2 bb ba b2 4e bd f6 09 32 bc 53 9f 84 bd
       -0.0064165574 -0.050463416 -0.010866633 -0.06475701
000260 bb b7 1f 3c d6 c3 e9 bc 69 c2 0d 3a c2 b9 00 bd
       0.009748395 -0.028535765 0.00054076925 -0.031427152
000270 ad db fc ba d8 dc 5a bd c8 b0 a6 bd 1b cf 0e 3d
       -0.0019291543 -0.05343327 -0.08139187 0.03486548
000280 41 fe 72 bd f1 65 44 bd 1f 35 19 3d 55 5c 90 bd
       -0.059324507 -0.04794878 0.037404176 -0.07048861
000290 bd c2 b0 bc 5b 47 97 3d 5c 6c 04 3c da cf 9b bd
       -0.021577233 0.07386657 0.0080824755 -0.07608004
0002a0 54 a5 1b bd e3 04 10 bc 53 ea ae bd a3 d4 6f 3d
       -0.037999466 -0.008790228 -0.085407875 0.058552396
0002b0 f5 53 bf bc 9f 26 60 3d 60 8c 4a 3d 9b f2 27 bd
       -0.023355464 0.054724332 0.04945028 -0.04100285
0002c0 86 be 0a 3c 9c 1e 9f bd 1e d9 3a 3d 57 a6 59 bd
       0.008468276 -0.0776951 0.045617215 -0.05313715
0002d0 d2 10 8e 3d 85 b4 eb b9 f4 24 ab bd 1f 1c 11 3b
       0.06936802 -0.0004495719 -0.083566576 0.0022142006
0002e0 f1 7b 5d 3d dc 38 a0 3c 99 bc 27 3c f5 ca 83 3d
       0.054073278 0.019558363 0.010237836 0.06435195
0002f0 7d 4d 81 3d 33 12 9d 3c 34 f8 80 3d d6 0c 26 bd
       0.06313608 0.019173717 0.06297341 -0.040539585
000300 44 a4 9f bc fa 48 f6 39 5c d6 a8 3d dd bd c9 3c
       -0.019487508 0.00046975148 0.08244011 0.024626667
000310 da de 7e 3d dd 4e 79 bc f8 45 49 bd 1b 23 bf 3b
       0.062224247 -0.015216556 -0.049138993 0.0058330423
000320 04 ee 85 bd b0 17 81 bc e1 a4 ae 3c f3 82 8a bd
       -0.065395385 -0.015758365 0.021318855 -0.06763258
000330 7f 38 8e bc 28 4a 0b bd e6 10 16 3c 63 18 95 bb
       -0.017360924 -0.034006268 0.009159302 -0.0045500263
000340 3c 1e 2f bd cc bd 5b bc 42 b1 6d bd e2 f1 06 3d
       -0.042753443 -0.01341195 -0.058030374 0.03294552
000350 8e 8b ab bd 04 37 97 3c 08 f3 90 bd c2 94 d6 3c
       -0.08376227 0.01845885 -0.070776045 0.02619398
000360 44 80 e2 bb a9 61 08 3d 50 c2 b0 bd 7c 74 40 3d
       -0.006912263 0.03329626 -0.08630812 0.04698609
000370 73 2d 2f 3d b3 ba 11 3d 0e 8e 0b bd 89 5e 31 3c
       0.042767953 0.03557844 -0.03407102 0.010825762
000380 06 00 91 3d d4 83 e1 3c b3 15 85 bd 92 4b 25 3d
       0.070800826 0.02752868 -0.064982794 0.040355273
000390 2d ec 8a bd 88 37 3e bd 1a a0 78 3d 5b 99 1a 3c
       -0.06783328 -0.046439677 0.06069956 0.009435977
0003a0 45 0c 70 3c 41 1a 05 bc 0f 95 34 bd 23 a9 49 9a
       0.014651363 -0.008123935 -0.044087466 -4.1702453e-23
0003b0 14 09 63 bd d4 b9 7c b5 20 78 03 3d 22 f4 49 3c
       -0.05542858 -9.414773e-07 0.032096982 0.012326272
0003c0 15 5e 38 3d 1d 7f af 3d 7c 70 6b 3d e4 bd 4b 3d
       0.0450116 0.08569167 0.05748032 0.04974164
0003d0 1c f0 9f bc e9 a0 6d bd 0e 32 92 3d a7 cf 86 3d
       -0.019523673 -0.058014784 0.071384534 0.06582575
0003e0 3b 6e a7 bd 5a 28 5d bd 4f 3e af bb d9 dd f8 3b
       -0.08175322 -0.05399356 -0.005348004 0.0075948057
0003f0 7f fc 8e bd 69 23 e0 ba e8 b7 a3 bc 02 ca e5 bc
       -0.069817536 -0.0017100397 -0.019985154 -0.028050426

fc3.bias f4 [64]
000000 c1 8d a2 3d a0 fb 7c bd 89 90 91 bd 7c cf ad bc
       0.07937194 -0.061763406 -0.07107646 -0.0212171
000010 b9 98 c9 3b 03 5c de 38 7d 83 5d 3b 2f 3b 64 bc
       0.006152239 0.000106029234 0.0033800297 -0.013930126
000020 b1 a2 04 3d dc 5e 69 3c 4f 07 5a bd 0f 6c a2 bd
       0.032381717 0.014243808 -0.053229626 -0.07930767
000030 b0 84 94 3d 68 b6 81 bc b5 d8 cb 3c e1 35 72 bd
       0.07251871 -0.015834048 0.024883607 -0.059133414
000040 63 81 13 bd a4 5d 4a bd e9 f2 49 3d b3 c9 4f bd
       -0.036012065 -0.04940571 0.049303923 -0.050729465
000050 92 42 29 bc cf 20 8c 3d 95 2b d5 3a 7c 8a 59 bd
       -0.010330813 0.06842195 0.0016263599 -0.053110585
000060 46 3c d7 bc 8b 18 89 3d f3 29 8f 3c 6d dd a8 bd
       -0.026273858 0.06694134 0.017476058 -0.082453586
000070 8f e9 58 bd e1 88 7a 3d d6 7f 00 bc ee 69 e0 bc
       -0.052957114 0.061165694 -0.007842978 -0.027394261
000080 da 92 ca bb 04 9c 8f 3d b7 26 5f bd 57 de 84 bb
       -0.006182057 0.070121795 -0.05448028 -0.0040548253
000090 00 bc 78 3c 43 1c 98 3c d6 5c 92 3c 85 42 9b bd
       0.015181541 0.018568164 0.017866533 -0.07581047
0000a0 84 0e 53 bd 7c e6 e3 bc 97 75 9f bd 37 83 68 3c
       -0.051527515 -0.027819864 -0.077861 0.01419144
0000b0 58 11 6a 3d 3c 92 83 3d 62 67 a6 bd 60 8b 87 3d
       0.057145447 0.06424376 -0.081251875 0.066183805
0000c0 dd 00 80 bd a6 64 8d 3d 4b 51 d4 bb c7 23 cb bc
       -0.06250165 0.06903963 -0.0064794174 -0.024797333
0000d0 22 c7 8d 3c 43 1b 52 bd 1c 65 53 3c a4 af 88 bd
       0.017306868 -0.05129553 0.012902524 -0.06674126
0000e0 a4 17 92 3b 7b 07 95 bd 52 5b 98 bc 56 1a 3a 3d
       0.0044583846 -0.072768174 -0.018598232 0.045435272
0000f0 d5 1e 48 bc 14 72 21 3d c2 e3 9e bd 66 ea 9d 3d
       -0.012214382 0.039415434 -0.07758285 0.077107236

fc5.weight f4 [1, 64]
000000 4b 5d ad bd 85 6b af bd 45 3b f6 bd 99 f1 51 35
       -0.0846506 -0.085654296 -0.120230235 7.821014e-07
000010 fa c6 f9 bd e5 50 15 3c 6d c2 a7 bc c4 18 83 3d
       -0.12196155 0.009113525 -0.020478452 0.06401208
000020 00 db 9a bd ce 02 07 3d 22 b9 f1 3c 0e de 83 bd
       -0.07561302 0.03296166 0.029507224 -0.06438838
000030 70 09 90 3d 53 bb 09 3c e5 10 74 bd 80 5d 53 bd
       0.0703305 0.008406478 -0.059586424 -0.05160284
000040 e6 a3 17 bd b6 d0 3f 3d cb 62 ae bd 4c 2e 51 3d
       -0.03702154 0.0468299 -0.08514937 0.051069543
000050 7e 90 23 bc bd 04 d8 3a 63 02 a5 3c fc ac ab bd
       -0.00998318 0.0016480904 0.02014274 -0.083826035
000060 f7 51 52 bd 31 0a ae 3d 95 12 98 3c 66 84 b4 bd
       -0.0513477 0.084980376 0.018563548 -0.088143155
000070 fb 5c 38 bd 0f d7 ae bd ce 8e 87 3c ab 98 e5 bd
       -0.045010548 -0.08537113 0.016547587 -0.1121076
000080 db 99 ac bd 0d 21 85 3d 53 d6 1f 3d bf c1 81 bb
       -0.08427783 0.065004446 0.039022755 -0.003959864
000090 5b ab fe bd 45 cd 8d 3d 0a 6c c1 3c f1 a4 04 bd
       -0.12435027 0.06923918 0.023611087 -0.032383863
0000a0 42 a3 24 bd 9f de 99 bd 1b 0a 53 3d c0 40 4f bd
       -0.040194757 -0.07513165 0.05152331 -0.05059886
0000b0 81 6b 9a bd 09 5a 61 bd a5 d4 27 3d cf b7 b6 bd
       -0.07540036 -0.055017505 0.040974278 -0.089217775
0000c0 72 89 14 3c 84 db cd 3d b4 59 27 bd 43 4d 39 bc
       0.009065973 0.10051635 -0.040857032 -0.011309925
0000d0 3f 5b d3 bd 1d 77 c7 bb 99 e8 35 bd 26 aa ad bd
       -0.10320138 -0.0060871975 -0.044411276 -0.08479719
0000e0 c4 28 da 3c 86 92 a2 bd a3 d5 9d 3d 26 64 3c 3d
       0.026630767 -0.079381034 0.077067636 0.045993946
0000f0 9a 34 7a bc 81 ee bc bd a7 1a cf 3d c6 1f cb 3d
       -0.01527133 -0.092251785 0.101125054 0.0991817
